cnn_eat_gamma_reward_8_food.ckpt (torch, 111284 bytes, 20 tensors)

weight f4 [16, 1, 2, 5]
0	0x3ba3dddd	0.0050008134
1	0x3de14d9d	0.11001132
2	0xbe1ef696	-0.15523753
3	0xbd3f046f	-0.046635088
4	0x3c06f881	0.008237959
5	0x3e8c2946	0.2737524
6	0x3eb41812	0.35174614
7	0x3e137ace	0.14402315
8	0x3e49618e	0.1966612
9	0x3e262964	0.16226727
10	0xbd227313	-0.039660525
11	0xbe381a3a	-0.17978755
12	0x3e3ddd49	0.18541445
13	0x3ee067de	0.43829244
14	0xbe050025	-0.12988336
15	0x3f1c354c	0.61018825
16	0xbe22ca34	-0.15897447
17	0xbe11a79a	-0.14224091
18	0xbe41d670	-0.18929458
19	0x3eac33b8	0.33633208
20	0x3d2d2338	0.042269915
21	0x3eb56636	0.35429543
22	0xbe099eaf	-0.13439439
23	0xbe10720f	-0.1410601
24	0x3e4af057	0.19818245
25	0x3eca77ee	0.39544624
26	0xbd3b9835	-0.045799453
27	0xbdac6594	-0.08417812
28	0xbdc5f3cf	-0.096656434
29	0xbe9183bd	-0.2842082
30	0xbdd9b637	-0.10630458
31	0xbe11d523	-0.14241461
32	0xbe0c5bb2	-0.13706854
33	0x3e30b57f	0.17256735
34	0xbe4a202d	-0.19738837
35	0x3ef7b880	0.4838295
36	0x3c3af3ff	0.011410712
37	0xbd9940cf	-0.074830644
38	0x3be55461	0.006998584
39	0x3ecef8d3	0.40424213
40	0x3f076710	0.52891636
41	0x3c96a85f	0.018390832
42	0xbd149cf8	-0.03628251
43	0x3eb03865	0.34418026
44	0xbdcb7182	-0.09933759
45	0xbda7bb11	-0.08189977
46	0x3edcec2b	0.43148932
47	0xbe310cd7	-0.17290054
48	0xbc339ae9	-0.010962226
49	0xbd2ae901	-0.041726116
50	0xbd25464b	-0.04035024
51	0x3e3895ed	0.18025942
52	0x3ce20fa4	0.027595349
53	0x3e6d4d03	0.23173909
54	0x3ee0e4ad	0.43924466
55	0x3b59acc5	0.003321455
56	0x3be38c1a	0.0069441916
57	0xbddbab8d	-0.1072608
58	0x3edd05fd	0.4316863
59	0xbd40a47c	-0.047031865
60	0x3db2c1d9	0.0872838
61	0x3dc660a8	0.096864045
62	0x3e2edeb9	0.1707715
63	0x3ec2dd96	0.38059682
64	0xbe177494	-0.14790565
65	0xbd449069	-0.047989283
66	0x3e54f21a	0.2079548
67	0x3b6aced2	0.003582884
68	0x3ce9be0e	0.028533008
69	0x3ebbb128	0.36658597
70	0xbe97c1bd	-0.29639998
71	0xbe3d4043	-0.18481545
72	0x3e37066d	0.17873545
73	0xbe5c1b18	-0.2149471
74	0xbd3e9996	-0.04653319
75	0x3e839881	0.2570229
76	0x3da7f321	0.0820067
77	0x3d20485d	0.03913151
78	0xbd37d3ce	-0.044879727
79	0xbd8543ff	-0.0650711
80	0x3f0cf8da	0.5506722
81	0xbe68f838	-0.22750938
82	0xbe889586	-0.26676577
83	0xbe5cf91b	-0.21579401
84	0xbe5b6d91	-0.21428515
85	0xbe63516d	-0.2219903
86	0x3ded1de7	0.11577969
87	0x3e2a8af1	0.16654564
88	0xbe0eb1ca	-0.13935009
89	0xbe8c3e58	-0.27391315
90	0x3d35e1eb	0.044404905
91	0x3d543b6b	0.051814478
92	0x3eac4ba8	0.3365147
93	0x3edca5e1	0.43095306
94	0xbe1a2dbd	-0.1505651
95	0xbe359a86	-0.17734727
96	0xbe0b75d2	-0.13619164
97	0xbe05020c	-0.12989062
98	0xbdd717c8	-0.10502583
99	0xbe446286	-0.19178209
100	0xbce40d7f	-0.027838467
101	0xbd43509c	-0.047684297
102	0x3c920ba0	0.017827809
103	0x3b577395	0.0032875289
104	0xbe001b07	-0.1251031
105	0xbca35a0b	-0.019940397
106	0xbdc0ae5d	-0.09408257
107	0xbd5d0286	-0.053957485
108	0xbdb49e5e	-0.08819269
109	0x3f6818af	0.90662664
110	0x3ee80fe0	0.45324612
111	0x3c846ddb	0.016165664
112	0x3ea0ccb9	0.3140619
113	0xbe6efaaa	-0.23337808
114	0x3e6c6748	0.23086274
115	0xbcfb7cf1	-0.030699225
116	0xbd564c8b	-0.05231909
117	0x3d0d0e4c	0.034437463
118	0x3eb25a6e	0.34834617
119	0x3e2c51ab	0.16828029
120	0x3d09d21b	0.033647638
121	0x3f105801	0.56384283
122	0xbd0a71a2	-0.033799775
123	0x3da6591b	0.08122464
124	0x3d799375	0.06093164
125	0xbe30294d	-0.17203255
126	0xbde6853d	-0.11255882
127	0xbe338440	-0.17530918
128	0xbc24dc1b	-0.010062243
129	0x3e112a84	0.14176375
130	0xbe52ef61	-0.20599128
131	0xbe52516f	-0.20538877
132	0x3e4ebcb4	0.20189172
133	0xbcd2f2ee	-0.025750604
134	0x3e1c9133	0.15289764
135	0xbeb6ce0e	-0.35704082
136	0xbe26be50	-0.16283536
137	0xbd808692	-0.06275667
138	0xbdd45be4	-0.10369089
139	0xbcff3160	-0.031151474
140	0xbe427bf1	-0.18992592
141	0x3e7d183f	0.2471628
142	0x3e2e1f34	0.1700409
143	0x3e68ff44	0.22753626
144	0xbc6d896b	-0.014498095
145	0xbe78a6c6	-0.24282369
146	0x3ee46637	0.44609234
147	0x3d0fc993	0.035104346
148	0xbe218ad1	-0.1577561
149	0x3be70d05	0.0070511126
150	0x3e88866c	0.26665056
151	0xbd84076e	-0.064467296
152	0xbdb64fa5	-0.0890191
153	0xbce10603	-0.027468687
154	0x3ee7976a	0.45232707
155	0xbd94fd07	-0.07274824
156	0x3ee6dfd6	0.45092648
157	0xbde432e3	-0.11142518
158	0xbde4b069	-0.1116646
159	0x3e3252f7	0.17414461

bias f4 [16]
0	0x3e101b5c	0.14072937
1	0xbeebc283	-0.46046838
2	0xbdea3d73	-0.11437502
3	0xbe2ec126	-0.17065868
4	0xbedf384f	-0.43597648
5	0x3d371501	0.044697765
6	0xbe9272ac	-0.28603113
7	0x3e3c8145	0.18408687
8	0xbed2ccfa	-0.4117201
9	0xbef87968	-0.48530126
10	0xbf0cf5cd	-0.5506256
11	0xbebc17b8	-0.36736846
12	0xbce277d4	-0.02764503
13	0x3e6edd9f	0.23326729
14	0xbe74eaf8	-0.23917758
15	0x3db4c2f1	0.088262446

weight f4 [16]
0	0x3f714679	0.9424816
1	0x3f82cbf6	1.0218494
2	0x3f87e6f7	1.061736
3	0x3f7d1168	0.98854685
4	0x3f923753	1.1423134
5	0x3f645e2e	0.89206207
6	0x3f9200a2	1.1406443
7	0x3f6c1cc9	0.9223142
8	0x3f8b7c8a	1.0897381
9	0x3f968889	1.1760417
10	0x3fa8959e	1.317066
11	0x3f859c58	1.0438337
12	0x3f7ce64a	0.98788893
13	0x3f708159	0.9394737
14	0x3f7c4112	0.9853679
15	0x3f6b13e1	0.9182721

bias f4 [16]
0	0xbddf633a	-0.10907598
1	0xbef6380c	-0.48089635
2	0xbe32a253	-0.17444734
3	0xbe9ef21b	-0.31044087
4	0xbeb8f19e	-0.3612184
5	0xbe3a3461	-0.18184043
6	0xbe5f4033	-0.21801834
7	0xbde7d811	-0.11320508
8	0xbeaffcb3	-0.34372482
9	0xbe5fcd73	-0.21855716
10	0xbf536616	-0.82577646
11	0xbe572720	-0.21011019
12	0xbe73487b	-0.23758118
13	0xbd94e150	-0.072695374
14	0xbeaadf48	-0.33373475
15	0xbe3fed63	-0.187429

running_mean f4 [16]
0	0x3d1a1cba	0.037625052
1	0xba96cd44	-0.0011505266
2	0x3c187d3e	0.009307204
3	0x3c20a7cb	0.00980563
4	0xbb594abe	-0.0033156122
5	0x3c99674e	0.018726017
6	0xbb71d88b	-0.0036902751
7	0x3cd3fcfe	0.025877472
8	0xbc7e9405	-0.01553822
9	0xbd071019	-0.032974336
10	0x3c90325a	0.017602134
11	0xbad6dd65	-0.0016392885
12	0x3c9cfe0a	0.019164104
13	0x3c06c352	0.008225279
14	0x3bcd0258	0.006256383
15	0x3d0a69d8	0.033792347

running_var f4 [16]
0	0x3f6cd1c0	0.92507553
1	0x3f6c88cb	0.9239623
2	0x3f6ac4fe	0.91706836
3	0x3f6c795f	0.923727
4	0x3f694d2a	0.9113337
5	0x3f6d2730	0.9263792
6	0x3f684d94	0.90743375
7	0x3f691bf8	0.910583
8	0x3f6b7907	0.9198155
9	0x3f6b7c76	0.9198679
10	0x3f6aeda5	0.91768867
11	0x3f6c86f2	0.9239341
12	0x3f690cea	0.9103533
13	0x3f6bc74a	0.92100966
14	0x3f6a5076	0.91529024
15	0x3f6c60d5	0.92335254

weight f4 [64, 16, 2, 5]
0	0xbccd62be	-0.025071498
1	0x3d5a122a	0.05323998
2	0x3da9d50b	0.08292588
3	0x3c082aff	0.008311032
4	0x3c7edb07	0.01555515
5	0x3bca59a4	0.006175237
6	0xbcb9fc5b	-0.02270334
7	0xbd0105d3	-0.031499695
8	0x3bafa57d	0.005360304
9	0xbe0a86dc	-0.13528007
10	0x3ddee580	0.108836174
11	0xbda15875	-0.078782
12	0xbd7191b8	-0.05897686
13	0x3d5bdbad	0.053676296
14	0x3e85a79d	0.2610444
15	0x3e22acce	0.15886232
16	0xbe42835b	-0.1899542
17	0x3b6ff913	0.0036616966
18	0xbd7b9380	-0.061419964
19	0xbc38a788	-0.011270411
20	0xbdb63ea6	-0.08898668
21	0xbd70cb04	-0.05878736
22	0x3dca5629	0.09879715
23	0xbd84ad52	-0.06478371
24	0xbea466c9	-0.3210967
25	0xbd6d3f9a	-0.057921983
26	0x3e1884f7	0.14894472
27	0x3d8e5e0a	0.0695153
28	0x3d3be406	0.045871757
29	0xbd90d70c	-0.07072267
30	0xbdefd637	-0.1171078
31	0x3a8914ad	0.0010458432
32	0x3e1f1ab2	0.15537527
33	0xbd1454b7	-0.036213603
34	0xbe193675	-0.1496218
35	0xbde4f7d1	-0.1118008
36	0xbd99d7f3	-0.07511892
37	0x3d3775c2	0.044790037
38	0x3db12592	0.08649744
39	0xbda087de	-0.078384146
40	0xbd8dd71d	-0.06925795
41	0x3cc052a9	0.023476915
42	0x3c6596f3	0.01401304
43	0x3c99fab6	0.018796306
44	0x3d228228	0.039674908
45	0x3d4d1c0b	0.050075572
46	0xbda861de	-0.08221792
47	0x3da47014	0.0802919
48	0x3d7a8501	0.061162
49	0x3d5456cd	0.051840592
50	0xbd70af78	-0.05876109
51	0xbb947f43	-0.0045317723
52	0xbc97f1ce	-0.018547919
53	0x3d7e5c37	0.06209966
54	0xbe3c13a8	-0.18366873
55	0x3d3fb5ca	0.046804227
56	0xbd115003	-0.035476696
57	0x3cce2c90	0.025167733
58	0xbde7a69d	-0.11311076
59	0x3c990cd0	0.018682867
60	0x3dd38515	0.10328118
61	0xbdbc86d3	-0.09205403
62	0xbd720d4d	-0.059094716
63	0x3e22cc94	0.15898353
64	0x3c900cd0	0.017584234
65	0xbe0ce6a1	-0.13759853
66	0xbe04140c	-0.12898272
67	0x3cb3ecb9	0.021963464
68	0x3da66ba6	0.08126001
69	0x3e23282d	0.15933295
70	0x3d3b0b59	0.04566512
71	0x3dff08d8	0.12452859
72	0xbd94f8f1	-0.07274044
73	0x3cb232a1	0.021752657
74	0xbe282c90	-0.16423249
75	0x3e451f0f	0.19250129
76	0x3e713f8c	0.23559397
77	0x3d357840	0.044304132
78	0xbe609e4c	-0.21935385
79	0xbe573604	-0.21016699
80	0xbcd30652	-0.02575985
81	0x3c81ebb2	0.015859459
82	0x3d0d1f42	0.034453638
83	0x3e37f312	0.17963818
84	0x3e165c31	0.14683606
85	0x3d191d3c	0.037381396
86	0x3ca63428	0.020288542
87	0xbbc491f7	-0.0059988457
88	0xbc42d13f	-0.0118907085
89	0x3d3c807e	0.046020977
90	0x3e0726cf	0.13198398
91	0x3dc74b71	0.09731186
92	0xbc541f80	-0.012946963
93	0x3e4da781	0.20083429
94	0x3e858905	0.260811
95	0xbd832c6a	-0.06404956
96	0xbdefe620	-0.11713815
97	0xbd88ceb9	-0.06680054
98	0x3dde1b02	0.10844995
99	0xbcc33be7	-0.023832275
100	0xbcf423c8	-0.029802218
101	0xbe00ed77	-0.12590586
102	0x3e774e3c	0.24150938
103	0x3e51f369	0.2050301
104	0xbebcc815	-0.368714
105	0x3e180dce	0.14849016
106	0xbed6579d	-0.4186372
107	0xbd7a94b5	-0.061176974
108	0x3e7f37c2	0.24923614
109	0xbe348c5f	-0.17631672
110	0x3d31e237	0.043428626
111	0xbdb5b0ab	-0.08871587
112	0xbd975931	-0.07390059
113	0x3e023c5f	0.12718342
114	0x3b8d060f	0.0043037008
115	0xbcf9b89e	-0.03048354
116	0x3d20c066	0.039245985
117	0xbd2c0c19	-0.042003725
118	0x3e3e6239	0.18592156
119	0xbcb410ad	-0.021980608
120	0x3ddc50a5	0.10757569
121	0xbe4ef531	-0.2021072
122	0x3d9d0e32	0.07668723
123	0x3e2e9807	0.17050181
124	0xbe283f1e	-0.16430327
125	0x3e6b80cf	0.22998355
126	0xbc846c10	-0.01616481
127	0x3c7374a4	0.014859352
128	0xbdbbaa1d	-0.09163306
129	0x3e0027dc	0.12515205
130	0xbcb86b13	-0.022511994
131	0xbe5b5a40	-0.21421146
132	0x3d16727c	0.036730275
133	0x3dd3636f	0.103217
134	0xbddca94c	-0.10774478
135	0xbd2f48ea	-0.042794146
136	0x3d0fbb47	0.03509071
137	0xbd14ba82	-0.03631068
138	0xbdb3cf08	-0.087797225
139	0xbde3c680	-0.11121845
140	0x3d33a0ea	0.04385463
141	0x3b4b0587	0.0030978636
142	0xbe4f0a2d	-0.20218726
143	0xbdc27208	-0.09494406
144	0xbcc950fb	-0.024574747
145	0xbd86e571	-0.06586731
146	0x3ce656cf	0.028117565
147	0x3b8acf53	0.0042361408
148	0x3dffdf45	0.12493757
149	0x3e5f4ad3	0.21805887
150	0x3dccf1e8	0.100070775
151	0xbdfe5210	-0.12417996
152	0x3d5497a9	0.051902447
153	0xbd338bc5	-0.043834466
154	0x3d241968	0.04006329
155	0x3c2d1abe	0.010565458
156	0xbe1fd39e	-0.1560807
157	0xbb2c3a98	-0.0026280042
158	0x3ca3bc0c	0.019987129
159	0x3d9700ff	0.07373237
160	0xbd450824	-0.048103467
161	0xbdb4b27b	-0.08823105
162	0xbd9d64e2	-0.076852575
163	0xbca64e99	-0.02030115
164	0x3e1841c5	0.14868839
165	0xbe8796a1	-0.26482108
166	0xbd4dc188	-0.050233394
167	0xbd090727	-0.033454087
168	0x3e1b95ef	0.15193914
169	0x3cb35f41	0.021896007
170	0x3dc8dbc9	0.09807546
171	0x3c85ae47	0.016318453
172	0xbcb7de94	-0.022445
173	0xbd9dda03	-0.07707598
174	0x3dc45213	0.09585967
175	0xbe489577	-0.19588266
176	0x3e585319	0.21125449
177	0x3d8ca9ec	0.068683475
178	0xbeb9fadd	-0.36324206
179	0xbd59f224	-0.05320944
180	0x3d2aa3bf	0.041660067
181	0x3b3e81c7	0.0029069053
182	0x3e661de2	0.22472337
183	0x3d33eff3	0.043930005
184	0x3dad2d4e	0.08455907
185	0x39a62694	0.0003169073
186	0x3dd96d0b	0.106165014
187	0x3c9f33f1	0.019433947
188	0xbe5e3aa7	-0.21702062
189	0x3d57ee2a	0.052717365
190	0xbe8cee3f	-0.27525517
191	0xbe1fe695	-0.15615304
192	0xbc38b2f3	-0.011273134
193	0x3cbb4f55	0.022864977
194	0x3c0da1e6	0.008644557
195	0xbe2416d4	-0.16024333
196	0x3d842266	0.064518735
197	0xbe20b70d	-0.15694828
198	0x3e1a9393	0.15095358
199	0xbd4d6e59	-0.050154064
200	0x3e422015	0.18957551
201	0x3e58f9d6	0.21189055
202	0x3e238a26	0.15970668
203	0x3daa7fb9	0.083251424
204	0x3aa4b982	0.0012567493
205	0xbd72c5b6	-0.059270583
206	0xbd2292c4	-0.039690748
207	0x3d5fd89d	0.054649938
208	0x3daa36fc	0.08311269
209	0x3d4836b8	0.04888031
210	0x3d7fd1f5	0.06245609
211	0xbe252a90	-0.16129518
212	0xbda05be0	-0.07830024
213	0x3db40a49	0.08791024
214	0xbdc6bdac	-0.09704146
215	0x3df01bb5	0.11724035
216	0x3d6f3088	0.058395892
217	0xbd6a1d08	-0.057156593
218	0xbe518c6d	-0.20463724
219	0xbe2ec9d8	-0.17069185
220	0xbe9ab5e8	-0.30216908
221	0xbe3d77c7	-0.18502723
222	0xbc7bbec8	-0.01536531
223	0xbd879e88	-0.06622034
224	0x3e54ffa4	0.20800644
225	0xbe0a983e	-0.13534638
226	0x3dc36a5f	0.09541773
227	0x3d896dd6	0.06710403
228	0xbd6baceb	-0.057537954
229	0x3e1ba035	0.15197833
230	0xbaababb0	-0.0013097432
231	0xbdb7a22b	-0.08966478
232	0xbcb72802	-0.022357944
233	0xbde99844	-0.114059955
234	0xbd63cb2b	-0.055613678
235	0x38207a64	3.8260958e-05
236	0xbdc795f6	-0.097454
237	0x3d46f6a9	0.048575077
238	0x3d148d26	0.036267422
239	0x3cb2523e	0.021767732
240	0x3e982edb	0.29723248
241	0x3d3c49fe	0.045969002
242	0xbc3ee863	-0.011652085
243	0xbe3c546d	-0.18391581
244	0x3d55ba9a	0.05217991
245	0x3d41f85d	0.047356
246	0xbe08d7b2	-0.13363531
247	0x3d001608	0.03127101
248	0xbd603f91	-0.05474812
249	0xbe38a547	-0.18031798
250	0xbdb821db	-0.089908324
251	0x3d6e702b	0.05821244
252	0xbe22ca1e	-0.15897414
253	0x3d8c4697	0.068494014
254	0xbddd613c	-0.108095616
255	0x3dc944c7	0.09827571

bias f4 [64]
0	0xbdcc791b	-0.099840365
1	0xbc890691	-0.016726764
2	0xbe636115	-0.22205003
3	0xbd382b86	-0.044963382
4	0xbd398b70	-0.045298994
5	0xbd248377	-0.040164437
6	0x3d3b5c18	0.045742124
7	0xbc48a7ce	-0.012247039
8	0xbc5e7841	-0.013578475
9	0xbd47cd8f	-0.04878002
10	0x3d5a2f30	0.053267658
11	0xbd85a116	-0.06524865
12	0xbcee02da	-0.029054094
13	0xbe602e40	-0.21892643
14	0xbe2ba9e6	-0.1676403
15	0x3c9df85a	0.019283462
16	0x3cf0d54f	0.029398588
17	0xbc995f2d	-0.018722141
18	0xbcdba4c8	-0.026811972
19	0xbcb2ad3d	-0.021811122
20	0xbe0ad3e4	-0.13557392
21	0xbe0a0072	-0.13476732
22	0xbe1cc0b6	-0.15307888
23	0xbd6dd270	-0.058062017
24	0xbdb4d04f	-0.08828794
25	0x3d7fbc76	0.06243559
26	0xbce5ddfd	-0.028059954
27	0xbe113ca3	-0.14183287
28	0xbe4e9bd7	-0.20176636
29	0xbceb50cc	-0.02872505
30	0xbd71499f	-0.0589081
31	0xbc41b7eb	-0.011823635
32	0xbdbe66c3	-0.09296944
33	0xbe584b1c	-0.21122402
34	0xbe17f039	-0.14837731
35	0xbdbd4051	-0.09240783
36	0xbe166fef	-0.14691137
37	0xbe30da71	-0.17270829
38	0xbe00820c	-0.12549609
39	0xbe67f497	-0.22651897
40	0xbe1695c1	-0.14705564
41	0xbe653d85	-0.22386749
42	0xbdac3d91	-0.0841018
43	0x3d462bdc	0.04838167
44	0xbe729f2b	-0.2369353
45	0xbe803e13	-0.2504736
46	0xbe698c9d	-0.22807546
47	0xbdef2d9b	-0.116786204
48	0x3b67f59c	0.0035394197
49	0xbd977e8d	-0.073971845
50	0xbd3c1720	-0.04592049
51	0xbd4c540d	-0.049884845
52	0xbe9ad481	-0.30240253
53	0x3cc5d80f	0.024150876
54	0x3ae9de1b	0.0017842682
55	0xbd172554	-0.036900833
56	0x3d284d3b	0.041089278
57	0xbd760a99	-0.0600687
58	0xbccc8b7b	-0.024968853
59	0xbde8144a	-0.11331995
60	0xbdd4b8a4	-0.1038678
61	0xbda7698a	-0.08174427
62	0x3cda4438	0.026643857
63	0x3caeb6a9	0.021327334

weight f4 [64]
0	0x3f88c147	1.0683984
1	0x3f8e8484	1.113419
2	0x3f9cae33	1.2240661
3	0x3f8b1d7e	1.0868375
4	0x3f82c47d	1.0216213
5	0x3f81153e	1.0084608
6	0x3f860ba8	1.0472307
7	0x3f99fc44	1.203011
8	0x3f667c51	0.9003344
9	0x3f6217c6	0.88317525
10	0x3f879df6	1.0595081
11	0x3f766286	0.96244085
12	0x3f5b933c	0.85771537
13	0x3f8ba1ec	1.090879
14	0x3f86ed6f	1.0541209
15	0x3f653fcf	0.8955049
16	0x3f802054	1.0009866
17	0x3f686b59	0.907888
18	0x3f8816e6	1.0631988
19	0x3f86366b	1.0485357
20	0x3f93411e	1.1504247
21	0x3f9b0a11	1.2112447
22	0x3f89c1c0	1.0762253
23	0x3fa2ca97	1.2718076
24	0x3f6f050c	0.93367076
25	0x3f74113e	0.9533881
26	0x3f80a4ed	1.0050331
27	0x3f8010f1	1.000517
28	0x3f93dac1	1.1551133
29	0x3f719a76	0.94376314
30	0x3f8a1d11	1.079012
31	0x3f90ecf5	1.1322314
32	0x3f6db164	0.928488
33	0x3fa6c9ae	1.3030298
34	0x3f8af256	1.0855205
35	0x3f6fcd39	0.9367252
36	0x3f6725ae	0.9029187
37	0x3f6a77ed	0.9158924
38	0x3f70317b	0.938255
39	0x3f84a9a3	1.0364269
40	0x3f879777	1.0593098
41	0x3f7cb9f5	0.9872125
42	0x3f81f70a	1.0153515
43	0x3f87559d	1.0573002
44	0x3f7fc9e0	0.9991741
45	0x3f7eff29	0.99608094
46	0x3f8df1a1	1.1089364
47	0x3f87adce	1.0599916
48	0x3f6eabd0	0.93230915
49	0x3f833033	1.0249084
50	0x3f763826	0.96179426
51	0x3f6fa172	0.9360572
52	0x3fa2ea0e	1.2727678
53	0x3f658850	0.8966112
54	0x3f67403b	0.9033238
55	0x3f660390	0.89849186
56	0x3f859510	1.0436115
57	0x3f75eebd	0.9606741
58	0x3f725a38	0.9466891
59	0x3fa44e79	1.2836448
60	0x3f61454f	0.8799638
61	0x3f807b80	1.0037689
62	0x3f81df53	1.0146278
63	0x3f657e62	0.8964597

bias f4 [64]
0	0xbe314399	-0.17310943
1	0xbda749f2	-0.08168401
2	0xbe18d72d	-0.14925833
3	0xbcd3314b	-0.02578034
4	0xbb9782ee	-0.0046237623
5	0xbdc11134	-0.09427109
6	0x3c212a5d	0.00983676
7	0xbd9cef24	-0.076628
8	0x3aeb15dc	0.0017935592
9	0xbdb8e4b8	-0.09028
10	0x3cd6124e	0.026131775
11	0xbe09c3b1	-0.13453557
12	0xbd747a3e	-0.05968689
13	0xbe108f2f	-0.1411712
14	0xbdec52c8	-0.11539227
15	0xbceb4c72	-0.028722975
16	0x3be26762	0.006909297
17	0xbd58a33b	-0.052890044
18	0xbd6dd429	-0.05806366
19	0xbd8e6f63	-0.06954839
20	0xbe1d7c19	-0.15379371
21	0xbd985dec	-0.07439789
22	0xbe068c9f	-0.1313958
23	0xbd8bda6f	-0.06828772
24	0xbd06f20d	-0.03294568
25	0xbb1a5792	-0.002355073
26	0xbda0e09f	-0.07855343
27	0xbd93add3	-0.07210889
28	0xbdf5529a	-0.119786456
29	0xbd9be25e	-0.076115355
30	0xbd4e5874	-0.050377324
31	0x3c2806fd	0.010255572
32	0xbdf6c744	-0.12049726
33	0xbe119dff	-0.14220427
34	0xbda21a33	-0.07915153
35	0xbdffb7e8	-0.12486249
36	0xbd938ad7	-0.07204216
37	0xbdeb2312	-0.114812985
38	0xbda90849	-0.082535334
39	0xbe684fda	-0.22686711
40	0xbe25b390	-0.16181779
41	0xbe77ab73	-0.24186496
42	0xbd5fe2ff	-0.05465984
43	0x3cb05d8c	0.021528982
44	0xbe330332	-0.17481688
45	0xbe5a1c27	-0.21299802
46	0xbe264216	-0.16236147
47	0xbdfed15f	-0.12442278
48	0xbc0ceec8	-0.008601852
49	0xbc8f50a1	-0.017494502
50	0xbd491577	-0.049092736
51	0xbd3d96f9	-0.046286557
52	0xbe845862	-0.2584868
53	0x3cd641a3	0.026154345
54	0xbd65473f	-0.05597615
55	0xbd191b61	-0.037379626
56	0xbcbd0483	-0.02307344
57	0xbd983ab2	-0.0743307
58	0x3d2b4426	0.04181304
59	0xbddafe65	-0.10693053
60	0xbd860b24	-0.06545094
61	0xbd900b95	-0.07033459
62	0xbd0e35f8	-0.034719437
63	0xbb79fc5d	-0.0038144805

running_mean f4 [64]
0	0x3bb60f94	0.0055560563
1	0xbc78cf05	-0.015186076
2	0xbbdf61e2	-0.0068170885
3	0x3c633792	0.013868229
4	0xbd2c583e	-0.04207634
5	0x3ccc6a9e	0.024953183
6	0xba077c78	-0.00051683886
7	0xbc7075e2	-0.014676543
8	0x3c0aa9ce	0.008463336
9	0xbc4dd6c6	-0.012563413
10	0xba8de38d	-0.0010825262
11	0x3bff2d6e	0.007787398
12	0x3aae39e6	0.0013292402
13	0xbca87652	-0.020564232
14	0xbb660c2e	-0.0035102475
15	0x3c0d5468	0.008626081
16	0xbc627d83	-0.01382387
17	0x3af1d435	0.0018450083
18	0xbc2e9e09	-0.010657796
19	0x3bb4042a	0.0054936605
20	0x3c210f66	0.009830331
21	0xbcfaec02	-0.030630115
22	0x3ce4bde3	0.027922576
23	0xbc939fee	-0.018020596
24	0x3bb606be	0.005555003
25	0x3d07861e	0.03308689
26	0xbca7a095	-0.020462314
27	0xbc1a8b65	-0.009432648
28	0xbc43495a	-0.011919344
29	0x3bc95270	0.0061438605
30	0xbc2aa6d9	-0.010415756
31	0x3c1f110e	0.009708656
32	0xbc83a0f0	-0.016067952
33	0xbd096673	-0.03354497
34	0xbcba1682	-0.02271581
35	0x3b985c7f	0.0046496983
36	0x3ca2156d	0.019785607
37	0xbc96f853	-0.018428957
38	0x3c5246fa	0.012834305
39	0xbc025ded	-0.007956964
40	0x3cc2d6e9	0.023784118
41	0xbc07b74a	-0.008283446
42	0x3c0c4f20	0.008563787
43	0x3c28ee64	0.010310743
44	0xbd375ae4	-0.044764414
45	0xbceca92b	-0.02888926
46	0xbc753658	-0.01496657
47	0xbb7404fb	-0.0037234414
48	0x3cc597cd	0.024120236
49	0x3b05df68	0.002042735
50	0x3c106c0e	0.008814825
51	0x3bf5acd8	0.007497411
52	0xbb88c68b	-0.004174059
53	0xbc5a0b2b	-0.013308327
54	0x3c90510b	0.01761677
55	0x3bff910a	0.0077992724
56	0xbc170aab	-0.009218852
57	0xbc1f0c7e	-0.009707568
58	0xbcaaa87f	-0.020832298
59	0xbc36b9fe	-0.011152742
60	0xbc11adb8	-0.008891515
61	0x3c19562a	0.009358922
62	0x3cc00246	0.023438584
63	0x3caa1241	0.020760657

running_var f4 [64]
0	0x3f697ff3	0.9121086
1	0x3f6c333e	0.9226569
2	0x3f692694	0.9107449
3	0x3f682cef	0.90693563
4	0x3f6c2b68	0.9225373
5	0x3f69456b	0.9112155
6	0x3f6a29e1	0.9147015
7	0x3f691e8a	0.91062224
8	0x3f6862ab	0.90775555
9	0x3f68cfa3	0.9094183
10	0x3f679c47	0.90472835
11	0x3f682652	0.9068347
12	0x3f68d817	0.90954727
13	0x3f6a34ea	0.9148699
14	0x3f6c80fd	0.9238432
15	0x3f69f9f5	0.9139703
16	0x3f67c40c	0.9053352
17	0x3f673925	0.9032157
18	0x3f680f93	0.90648764
19	0x3f67e5b3	0.9058487
20	0x3f67d915	0.90565616
21	0x3f67b396	0.905084
22	0x3f6b3b70	0.9188757
23	0x3f695c1f	0.9115619
24	0x3f68fc5b	0.91010064
25	0x3f6a9141	0.9162789
26	0x3f68bd7e	0.9091414
27	0x3f6a423d	0.9150732
28	0x3f677338	0.90410185
29	0x3f689ae0	0.9086132
30	0x3f68bd9f	0.9091434
31	0x3f683a60	0.90714073
32	0x3f67df70	0.90575314
33	0x3f69faf9	0.9139858
34	0x3f6849fb	0.90737885
35	0x3f67e75d	0.9058741
36	0x3f68f909	0.91005
37	0x3f69d6b5	0.9134324
38	0x3f68405a	0.9072319
39	0x3f68d0a5	0.90943366
40	0x3f6a120d	0.91433793
41	0x3f679f25	0.9047721
42	0x3f6875f5	0.9080499
43	0x3f677517	0.9041304
44	0x3f6ab410	0.91681004
45	0x3f67992c	0.90468097
46	0x3f67f8cf	0.90614027
47	0x3f686f64	0.9079497
48	0x3f68199e	0.9066409
49	0x3f680e4c	0.90646815
50	0x3f671a8c	0.9027488
51	0x3f67dc72	0.9057075
52	0x3f69ab7e	0.912773
53	0x3f682bcc	0.9069183
54	0x3f688b09	0.9083715
55	0x3f68746f	0.90802664
56	0x3f6b62a7	0.91947407
57	0x3f68c970	0.9093237
58	0x3f699393	0.91240805
59	0x3f684457	0.9072928
60	0x3f674e38	0.9035373
61	0x3f67ada3	0.90499324
62	0x3f679f44	0.90477395
63	0x3f67b357	0.90508026

weight f4 [32, 64, 2, 3]
0	0xbe991856	-0.2990138
1	0xbe688ed1	-0.2271073
2	0xbdc51b26	-0.09624319
3	0x3e151696	0.14559397
4	0xbda8bbf1	-0.08238972
5	0xbd26305b	-0.04057346
6	0xbd31bbe6	-0.043392085
7	0x3d1e8f31	0.038710777
8	0x3dafd34b	0.08585223
9	0x3e39318f	0.18085311
10	0xbd414c2a	-0.047191776
11	0x3c065f1f	0.00820139
12	0xbd5640ee	-0.052308016
13	0xbd4c6a49	-0.04990605
14	0x3db8696a	0.09004481
15	0x3dab0730	0.0835098
16	0x3c2e37a3	0.010633382
17	0xba98cb54	-0.0011657276
18	0xbe366eb3	-0.17815666
19	0xbd970858	-0.07374638
20	0xbe86ceba	-0.26329595
21	0xbe72ac72	-0.23698595
22	0x3c0f46c2	0.008744897
23	0x3d917e34	0.071041495
24	0x3a368b0c	0.00069634686
25	0xbe08377d	-0.13302417
26	0xbd398010	-0.045288146
27	0xbce2e2d4	-0.02769605
28	0x3cfeae7c	0.03108906
29	0xbd750866	-0.059822462
30	0xbde3eb01	-0.11128808
31	0xbe24909a	-0.16070786
32	0xbdc116cb	-0.094281755
33	0xbd837af0	-0.06419933
34	0xbde95286	-0.11392693
35	0xbcc34f2f	-0.023841469
36	0xbd6195de	-0.055074565
37	0xbba5615f	-0.005047008
38	0x3d4a660b	0.049413722
39	0xbdbf0e65	-0.093289174
40	0xbe40bfaf	-0.18823121
41	0xbe0ba9b2	-0.13638952
42	0x3e0680ab	0.1313502
43	0x3e23cdf2	0.1599653
44	0xbd9ad33d	-0.07559822
45	0xbe6bad9e	-0.23015448
46	0xbdc059bd	-0.09392116
47	0x3cc76a83	0.024342781
48	0x3c15ae9d	0.009135869
49	0x3c78f894	0.015195984
50	0xbe37e933	-0.17960052
51	0x3dfd6673	0.12373056
52	0x3d79b856	0.060966812
53	0xbd5df206	-0.05418589
54	0x3bd804ae	0.0065923547
55	0xbcc7009f	-0.024292288
56	0xbec8591e	-0.3913049
57	0x3d808c9d	0.0627682
58	0x3e0217ba	0.12704363
59	0x3d104484	0.03522159
60	0xbca27504	-0.019831188
61	0xbe076899	-0.13223495
62	0x3e2a71ee	0.16645023
63	0xbe5f1c98	-0.21788251
64	0xbc1f0f98	-0.009708308
65	0xbce0d7d4	-0.027446665
66	0x3db48b63	0.088156484
67	0x3dc2b5ba	0.09507318
68	0x3d67c4ae	0.056584053
69	0xbdd6d922	-0.104906335
70	0x3d9af97f	0.07567119
71	0xbe8bface	-0.27339786
72	0xbe83bd8b	-0.25730547
73	0x3e3a2c07	0.18180858
74	0xbd3bb663	-0.045828234
75	0xbdf18dcc	-0.11794624
76	0xbdb64b43	-0.08901074
77	0xbd411336	-0.04713746
78	0x3e667859	0.22506846
79	0x3d9058c8	0.07048184
80	0x3d1d4116	0.03839215
81	0xbd4c45c2	-0.049871214
82	0xbe0245d6	-0.12721953
83	0xbc933bcf	-0.017972855
84	0xbceba33f	-0.028764365
85	0xbc916180	-0.017746687
86	0xbdc6c277	-0.0970506
87	0x3b1c2e41	0.002383128
88	0xbb2cc15d	-0.002636037
89	0x3d9d2861	0.07673717
90	0xbe0c40a7	-0.13696538
91	0xbe607ff8	-0.21923816
92	0x3de22140	0.11041498
93	0xbd499c23	-0.04922117
94	0x3c59c54f	0.013291671
95	0xbb60a543	-0.003427819
96	0x3e037fc7	0.12841712
97	0x3de9ce0d	0.11416254
98	0x3e8e0fca	0.2774642
99	0xbc4fd2d7	-0.0126845455
100	0x3be5e3c7	0.0070156786
101	0x3dd99838	0.106247365
102	0x3cff9f5a	0.031203914
103	0x3da6d4c7	0.08146053
104	0xbd65313e	-0.055955164
105	0x3d1c4df3	0.038160276
106	0x3c388423	0.011261973
107	0x3e1ce1ee	0.1532056
108	0x3cac5db9	0.021040784
109	0x3d6b4453	0.057438206
110	0x3c40b8ca	0.011762807
111	0x3d0e7995	0.03478392
112	0x3ab9d4c5	0.001417779
113	0x3c060523	0.008179936
114	0xbd60a8f0	-0.05484861
115	0x3e022d28	0.12712538
116	0x3d6b1196	0.057389818
117	0xbd9b931c	-0.07596418
118	0xbdf22468	-0.1182335
119	0xbdd7b8f1	-0.10533322
120	0xbe853870	-0.2601962
121	0x3e268305	0.16260917
122	0xbb3f7016	-0.0029211096
123	0xbe3981dd	-0.18115945
124	0x3da99eae	0.08282219
125	0xbcba3724	-0.022731371
126	0xbd559464	-0.05214347
127	0x3e012c48	0.12614548
128	0xbcc62c07	-0.024190916
129	0x3dd2a957	0.10286205
130	0x3da0bd92	0.07848658
131	0xbddc2756	-0.1074969
132	0xbe62c237	-0.221444
133	0x3ccbb408	0.024866119
134	0x3d508921	0.050912026
135	0xbdfeaccc	-0.12435302
136	0xbdb872e6	-0.0900629
137	0x3dbebe6f	0.09313666
138	0x3e181653	0.14852266
139	0x3d14277d	0.03617047
140	0xbcbf7f4b	-0.023376128
141	0xbd820e1c	-0.063503474
142	0x3dd43282	0.10361196
143	0x3d495daf	0.04916161
144	0x3c992009	0.018692033
145	0xbcad2c04	-0.021139152
146	0xbda0ce82	-0.07851888
147	0x3deabe64	0.114620954
148	0xbdaae620	-0.08344674
149	0xbdc3afb0	-0.09554994
150	0xbdb0affb	-0.086273156
151	0xbdf7a22f	-0.12091481
152	0x3d57f2f9	0.05272195
153	0x3e3cdd67	0.18443833
154	0x3d5c67f5	0.05381008
155	0xbd91993e	-0.07109307
156	0x3db0dbb9	0.08635659
157	0x3d6724b2	0.05643148
158	0x3e6dce67	0.23223267
159	0xbdda8a62	-0.10670926
160	0x3d874290	0.06604493
161	0xbbce1f30	-0.006290339
162	0xbd9ecf85	-0.07754425
163	0x3d43da35	0.04781552
164	0x3c4c6b32	0.012476729
165	0xbd323d1a	-0.043515302
166	0x3e246f36	0.16058049
167	0xbd2e8210	-0.042604506
168	0x3cdb2145	0.026749263
169	0xbb86a847	-0.0041094157
170	0x3b91c2aa	0.0044482546
171	0xbd2aa944	-0.04166533
172	0x3d1b07fb	0.037849408
173	0xbd7ea5a3	-0.062169682
174	0x3d073e56	0.033018433
175	0x3d02ecf5	0.03196426
176	0x3d9bc014	0.07604995
177	0xbdc0b15d	-0.09408829
178	0xbd21bfb4	-0.039489463
179	0xbe4ff011	-0.20306422
180	0xbd685e2b	-0.05673043
181	0x3e05fe73	0.13085346
182	0xbd03f28e	-0.03221374
183	0xbd408443	-0.047001135
184	0xbd52fad4	-0.05150874
185	0xbc07fc59	-0.00829991
186	0x3c246569	0.010033944
187	0x3dace093	0.08441272
188	0xbc02b9cd	-0.007978869
189	0x3d24ed18	0.040265173
190	0xbe067323	-0.13129859
191	0x3d5e54f7	0.054280248
192	0x3ba399a0	0.0049926788
193	0x3e211d7b	0.15733902
194	0xbd28825c	-0.041139945
195	0xbe11622b	-0.14197604
196	0xbd1cac6c	-0.03825037
197	0x3e3971f4	0.18109876
198	0x3d6414d3	0.055683922
199	0x3ce26e62	0.027640525
200	0x3ca2f87b	0.019893875
201	0x3c3534f9	0.011059993
202	0xbdaf4403	-0.08557894
203	0xbddcc7b4	-0.10780278
204	0x3d5289bb	0.05140088
205	0x3d836d73	0.0641736
206	0xbe0e98de	-0.13925502
207	0xbe63cdef	-0.22246526
208	0x3dabf019	0.08395404
209	0xbde87126	-0.11349706
210	0x3cb18a62	0.021672431
211	0xbcc4b794	-0.024013318
212	0x3daf0d03	0.08547404
213	0x3db82903	0.08992197
214	0xbdcc9d63	-0.09990957
215	0x3cb12359	0.0216233
216	0xbc87e327	-0.016587807
217	0x3df6deb8	0.12054199
218	0x3e6eaf1b	0.23308985
219	0x3df3a575	0.11896793
220	0x3c8e36c8	0.017360106
221	0x3e47a3d6	0.19496092
222	0x3e2b135d	0.16706605
223	0x3d69ad8f	0.057050284
224	0x3de7538c	0.11295232
225	0xbb0ce388	-0.0021497924
226	0x3d092ab2	0.033487983
227	0x3d31061a	0.04321871
228	0xbd042f6c	-0.032271788
229	0xbc81adc4	-0.015829928
230	0x3d8f7ba6	0.07006006
231	0xbbba3f19	-0.0056837914
232	0x3c5894f9	0.013219112
233	0x3ddd24c8	0.10798031
234	0xba8c5b69	-0.0010708395
235	0x3e184826	0.14871272
236	0x3e6c7e29	0.23095001
237	0xbba46b15	-0.005017648
238	0x3df502d6	0.119634315
239	0xbd5a688f	-0.05332237
240	0x3c85e7bf	0.016345857
241	0xbc8dde8f	-0.017318038
242	0xbe32fcf3	-0.17479305
243	0xbe1b0fee	-0.15142795
244	0xbad57809	-0.0016286384
245	0xbbd3b064	-0.0064602364
246	0xbb6f1d77	-0.0036486068
247	0xbd356fd8	-0.044296116
248	0xbdb4dab7	-0.08830779
249	0xbd999be6	-0.075004384
250	0x3d2afa67	0.04174271
251	0x3df82891	0.121171124
252	0xbd5777b6	-0.0526044
253	0xbe1a8c94	-0.15092689
254	0xbcec760e	-0.028864887
255	0x3d258a3b	0.04041503

bias f4 [32]
0	0xbc44ff68	-0.012023784
1	0xbd90c68b	-0.07069119
2	0xbe070ad0	-0.13187718
3	0xbc01d116	-0.007923385
4	0x3d1aaa91	0.03776032
5	0x3cdb6b8f	0.026784686
6	0xbd7eaa82	-0.062174328
7	0xbd14e6e2	-0.036353
8	0xbc87ae76	-0.016562682
9	0xbd493cfa	-0.049130417
10	0x3d991fd6	0.07476775
11	0xbe121f52	-0.1426976
12	0xbcc773f5	-0.024347285
13	0xbc39a2cb	-0.011330317
14	0xbe253c65	-0.1613632
15	0xbe17cbdf	-0.14823864
16	0xbe371e09	-0.17882551
17	0xbd408614	-0.047002867
18	0x3c0d09c2	0.0086082835
19	0xbd0321b3	-0.03201456
20	0xbd17f3e8	-0.03709784
21	0xbd5e1e78	-0.054228276
22	0xbdee0e4a	-0.11623819
23	0xbdc19ab8	-0.094533384
24	0x3d830426	0.063972756
25	0xbdaf405b	-0.08557197
26	0xbe6c9c1b	-0.23106425
27	0xbd426a0f	-0.047464427
28	0xbd2365d5	-0.039892036
29	0xbe19db4d	-0.15025063
30	0xbd5a659a	-0.05331955
31	0xbc3e4e3d	-0.011615333

weight f4 [32]
0	0x3f6c6011	0.92334086
1	0x3f487557	0.78304046
2	0x3f8ae45e	1.0850942
3	0x3f399bdd	0.72503453
4	0x3f4c2637	0.7974581
5	0x3f7f11ea	0.9963671
6	0x3fa7c564	1.3107114
7	0x3f3ab6aa	0.72934973
8	0x3f404236	0.7510103
9	0x3fb7f308	1.4371042
10	0x3f6ea7d6	0.9322485
11	0x3f5ab3b1	0.8543044
12	0x3f416cbe	0.7555655
13	0x3f7a41e7	0.9775681
14	0x3f7eb262	0.9949094
15	0x3f63e265	0.89017326
16	0x3f5bdc99	0.8588348
17	0x3f3c4ad2	0.73551667
18	0x3f645611	0.89193827
19	0x3f66ef25	0.90208656
20	0x3f7630d7	0.96168274
21	0x3f80e627	1.0070237
22	0x3fa6e482	1.3038485
23	0x3f7045a9	0.9385629
24	0x3f944844	1.1584554
25	0x3f646bdb	0.89227074
26	0x3f6ae857	0.9176077
27	0x3f8e0426	1.1095016
28	0x3f93dc3e	1.1551588
29	0x3f7edb0f	0.99553007
30	0x3f8ae98b	1.0852522
31	0x3f56a64d	0.83847505

bias f4 [32]
0	0x3d1b32b6	0.03789016
1	0xbd153c3b	-0.036434393
2	0xbdabec1d	-0.083946444
3	0xbd2b887c	-0.04187821
4	0xbc18e3e0	-0.009331673
5	0x3c132f04	0.008983377
6	0xbda92d86	-0.08260636
7	0xbd825731	-0.06364287
8	0xbd62b1c9	-0.05534533
9	0xbcf65088	-0.030067697
10	0x3da95c93	0.0826961
11	0xbdd90948	-0.105974734
12	0xbd60e2d0	-0.054903805
13	0xbd25e275	-0.04049917
14	0xbdf28929	-0.118425675
15	0xbde870ec	-0.11349663
16	0xbe549f75	-0.20763953
17	0xbbab2fa6	-0.005224186
18	0x3c3a065e	0.011354057
19	0xbd6a517a	-0.05720661
20	0x3bc65ecf	0.0060537825
21	0xbd8f3626	-0.0699275
22	0xbdb1feae	-0.086911544
23	0xbddaac54	-0.106774
24	0x3cc4c55b	0.024019888
25	0xbd6ad714	-0.05733402
26	0xbe3d51d5	-0.18488248
27	0xbb810d0d	-0.0039383234
28	0xbd03a37b	-0.03213833
29	0xbdf3c018	-0.11901873
30	0xbc2175f0	-0.009854779
31	0xbd35ccbd	-0.044384707

running_mean f4 [32]
0	0x3b38bdee	0.0028189379
1	0x3cddafa8	0.027061298
2	0xbd0a227b	-0.03372429
3	0xbcc8a776	-0.024493914
4	0x3bc210c2	0.005922408
5	0x3bb4c4a2	0.0055166045
6	0xbc4e6a53	-0.012598592
7	0x3b163c33	0.0022924065
8	0x3c81f73a	0.015864957
9	0xbace91e2	-0.0015760029
10	0xbc398386	-0.011322862
11	0xbd5d0396	-0.053958498
12	0xbc0eb8a3	-0.008711013
13	0x3c900a4c	0.017583035
14	0xbd21a882	-0.039467342
15	0xbb5e4056	-0.003391286
16	0xbc3ad487	-0.0114032095
17	0xbd3e3b97	-0.046443548
18	0x3c810eb2	0.015754078
19	0x3c0c1da9	0.008551993
20	0xbc982277	-0.018571122
21	0xbced21fe	-0.028946873
22	0xbd05fa25	-0.03270926
23	0x3bf3c985	0.0074397945
24	0x3c96be79	0.018401371
25	0xbc8cde09	-0.017195718
26	0x3c808c51	0.015691908
27	0xbcd0cb16	-0.025487464
28	0xbcbe3f8a	-0.023223657
29	0x3bb948f6	0.0056544496
30	0x3c95b5bc	0.018275134
31	0xbce5eea2	-0.02806789

running_var f4 [32]
0	0x3f69caa7	0.9132485
1	0x3f69e1fb	0.91360444
2	0x3f6a8a21	0.9161702
3	0x3f6a9c5e	0.9164485
4	0x3f7009a5	0.93764716
5	0x3f69f90d	0.91395646
6	0x3f6b3e73	0.91892165
7	0x3f6a0131	0.9140807
8	0x3f69bb65	0.91301566
9	0x3f698e9b	0.91233224
10	0x3f6a8eec	0.9162433
11	0x3f6b750c	0.91975474
12	0x3f691166	0.9104217
13	0x3f686069	0.9077211
14	0x3f6b4915	0.9190839
15	0x3f6a8543	0.9160959
16	0x3f68a540	0.9087715
17	0x3f6a2fd8	0.91479254
18	0x3f6aeb8f	0.91765684
19	0x3f6a16cb	0.9144103
20	0x3f682844	0.9068644
21	0x3f6ff4ca	0.93732893
22	0x3f690d3b	0.91035813
23	0x3f692ca8	0.91083765
24	0x3f68dda2	0.90963185
25	0x3f6c7094	0.9235928
26	0x3f6bff36	0.92186296
27	0x3f696fa6	0.91185987
28	0x3f68c463	0.9092466
29	0x3f696929	0.91176087
30	0x3f689b79	0.9086223
31	0x3f6d74c8	0.9275632

weight f4 [4, 576]
0	0x3cd75224	0.026284285
1	0x3d21c0d5	0.03949054
2	0xbdbd48de	-0.09242414
3	0x3dc3e333	0.09564819
4	0x3de6403b	0.1124272
5	0x3dc243ac	0.09485564
6	0x3e48ec32	0.19621351
7	0x3e0ee9f8	0.1395644
8	0x3e5906c6	0.2119399
9	0x3e4ae502	0.19813922
10	0x3e28de4d	0.16491051
11	0x3e87d80d	0.2653202
12	0x3df2068d	0.11817656
13	0x3e1deb09	0.1542169
14	0x3e26ee72	0.16301897
15	0x3e661db8	0.22472274
16	0x3dc96641	0.098339565
17	0x3d7d393c	0.06182216
18	0x3e58eef2	0.211849
19	0x3de7591d	0.11296294
20	0x3de29805	0.11064152
21	0x3d770181	0.06030417
22	0x3e12914b	0.14313237
23	0x3d817cb2	0.06322612
24	0x3e01ba24	0.12668663
25	0x3d914367	0.07092934
26	0x3dd814ef	0.10550868
27	0x3decb414	0.11557785
28	0x3dd2a4b4	0.10285321
29	0x3bc03dc1	0.0058667366
30	0x3dec3506	0.11533551
31	0x3d77160b	0.060323756
32	0x3e0372d2	0.12836769
33	0x3d970634	0.0737423
34	0x3e176e7a	0.14788237
35	0x3d226919	0.03965101
36	0x3d976f85	0.073943175
37	0x3d974e35	0.07387964
38	0x3e1707fe	0.14749143
39	0x3d918cd9	0.07106943
40	0x3d2b82e4	0.041872874
41	0x3d778a01	0.060434345
42	0xbdb74ae1	-0.08949829
43	0x3da0ed37	0.07857745
44	0x3d4a1e7e	0.049345486
45	0xbc6ea53b	-0.014565761
46	0xbb90cc3e	-0.004418879
47	0x3d9574d9	0.072976775
48	0xbdc4280a	-0.09577949
49	0xbc16715c	-0.0091823
50	0x3d28b5bc	0.04118894
51	0x3cc5c507	0.024141802
52	0x3ddb8eb1	0.107205756
53	0x3e04a93b	0.12955181
54	0x3d635c57	0.055507984
55	0xbd432767	-0.047645
56	0x3d417e45	0.04723956
57	0x3e0f1bc7	0.1397544
58	0x3d723c60	0.05913961
59	0x3dad8ef5	0.084745325
60	0x3d9b50b8	0.07583755
61	0x3e2538f8	0.16135013
62	0x3d875ec9	0.06609876
63	0x3e04e376	0.12977394
64	0x3d4f9327	0.050677445
65	0x3dd75466	0.105141446
66	0x3d9c8442	0.07642414
67	0x3dfbf65e	0.1230285
68	0x3ddb1f77	0.10699361
69	0xbd3b9c8d	-0.045803595
70	0x3e80e5c9	0.25175312
71	0x3e8d3524	0.27579606
72	0x3d7847d7	0.060615387
73	0xbeb915ea	-0.36149532
74	0xbd76c3d6	-0.060245357
75	0xbd928ca5	-0.07155732
76	0xbda90dab	-0.0825456
77	0xbda55ce5	-0.08074359
78	0x3c9be505	0.019030103
79	0xbc746cc5	-0.014918511
80	0x3cae5248	0.02127947
81	0xbd09f149	-0.033677373
82	0x3c952a9d	0.018208796
83	0xbb8817b3	-0.004153216
84	0xbcf7cbd0	-0.030248553
85	0xbddb30f9	-0.107027
86	0xbd8d5bb6	-0.06902258
87	0xbdef4f01	-0.11684991
88	0x3d0ff015	0.03514107
89	0xbe0d09b0	-0.13773227
90	0xbe4745ef	-0.19460271
91	0xbf1f5a5e	-0.62247264
92	0x3da7ef2e	0.08199917
93	0x39b22d1c	0.00033984415
94	0x3d00c5da	0.031438686
95	0x3c1a9ee1	0.009437294
96	0x3d3e6958	0.046487182
97	0xbd152e74	-0.036421254
98	0x3d6200e8	0.055176646
99	0xbbfc26c1	-0.0076950495
100	0x3db04d9a	0.08608551
101	0xbc5abfaf	-0.013351365
102	0x3d051062	0.032486327
103	0xbd1bd91a	-0.03804884
104	0xbc97b347	-0.018518103
105	0xbddf7f9d	-0.10913012
106	0x3d4e6410	0.050388396
107	0xbdc9bb3b	-0.098501645
108	0xbd540a77	-0.051767793
109	0xbcc06db1	-0.023489805
110	0xbd2a25ce	-0.04153996
111	0xbcd84b15	-0.02640299
112	0xbd27329b	-0.040819746
113	0xbd337bb4	-0.043819144
114	0xbd66a52d	-0.056309868
115	0xbd1397ed	-0.03603356
116	0xbd7a7883	-0.061150085
117	0xbc479c32	-0.012183236
118	0xbd5ae510	-0.053441107
119	0xbc46a011	-0.012123124
120	0xbdb5e230	-0.088810325
121	0xbcd16169	-0.025559144
122	0xbd3c01af	-0.045900043
123	0xbd264d72	-0.0406012
124	0xbd0c66ed	-0.034277845
125	0x3d1e4eff	0.038649555
126	0x3ed12ca4	0.4085437
127	0x3e5f22f2	0.21790674
128	0x3e830d8b	0.2559627
129	0x3e14e203	0.14539342
130	0x3e230e75	0.15923484
131	0x3e4f1988	0.20224583
132	0x3e40d7b0	0.18832278
133	0x3e3f639a	0.18690339
134	0x3e682f47	0.22674285
135	0x3e30d98b	0.17270486
136	0x3e54ef34	0.20794374
137	0x3e12d524	0.14339119
138	0x3e3f3ef6	0.18676361
139	0x3e11e906	0.14249048
140	0x3e35844a	0.17726246
141	0x3e0bcb79	0.13651837
142	0x3e84047a	0.25784665
143	0x3e9e7ac9	0.30953053
144	0x3e0e70a3	0.13910155
145	0x3e7f0c5d	0.2490706
146	0x3de74f90	0.11294472
147	0x3e37ee28	0.17961943
148	0x3deecef4	0.11660567
149	0x3e214a0b	0.15750901
150	0x3e079fe6	0.1324459
151	0x3e19c2a3	0.15015654
152	0x3df86e18	0.12130374
153	0x3e3e7848	0.18600571
154	0x3e0b119f	0.1358094
155	0x3e4eeb4c	0.20206946
156	0x3de6b447	0.11264854
157	0x3e207e23	0.15673117
158	0x3daf3f28	0.08556968
159	0x3e1a3e56	0.15062842
160	0x3e99c221	0.3003092
161	0x3eaf9315	0.34291902
162	0xbdeda90a	-0.11604507
163	0xbe5ca830	-0.21548533
164	0xbdbaac5a	-0.09114905
165	0xbe1a0050	-0.15039182
166	0xbda6474a	-0.08119066
167	0xbdaf6792	-0.08564676
168	0xbdadb080	-0.0848093
169	0xbdc6982a	-0.09696992
170	0xbdcdfe09	-0.10058219
171	0xbdf4c5a4	-0.119517595
172	0xbd5b1d73	-0.05349488
173	0xbdc6bf3e	-0.09704445
174	0xbde56a7e	-0.112019524
175	0xbde1f200	-0.11032486
176	0xbdf28f52	-0.118437424
177	0xbdf17603	-0.11790087
178	0xbdabe223	-0.083927415
179	0xbda99b1f	-0.0828154
180	0x3d9c8386	0.076422736
181	0x3e2bfaf7	0.16794954
182	0x3dc4a200	0.096012115
183	0x3de57e3e	0.112057194
184	0x3d09c32e	0.033633403
185	0x3dd5cac7	0.10439067
186	0xbbd7d439	-0.006586578
187	0x3d8777dd	0.06614659
188	0x3c52000e	0.012817396
189	0x3d9c9b18	0.07646769
190	0x3cdf0a16	0.027226489
191	0x3da04900	0.07826424
192	0x3d969bd5	0.07353941
193	0x3d8d1603	0.06888964
194	0x3da85a97	0.08220404
195	0x3dbe7bfd	0.09300993
196	0x3d89b69a	0.067242816
197	0x3daca25e	0.084294066
198	0xbd48e490	-0.0490461
199	0x3e384e09	0.17998518
200	0x3d9df886	0.07713418
201	0x3eb992ad	0.36244717
202	0x3d9d1448	0.07669884
203	0x3e36782c	0.1781928
204	0x3e18d928	0.14926589
205	0x3e34b950	0.17648816
206	0x3db19e25	0.08672742
207	0x3dab4a8d	0.08363829
208	0x3e0c11c2	0.13678649
209	0x3e0c0711	0.1367457
210	0x3d9aebd5	0.07564513
211	0x3e09c352	0.13453415
212	0x3ea00e3d	0.31260863
213	0x3ea1e8bc	0.31622875
214	0x3d9be44f	0.07611906
215	0x3da8564e	0.08219586
216	0x3ebd9f56	0.37035626
217	0x3e5cd5fe	0.21566007
218	0x3a8b4f00	0.0010628402
219	0x3d0fe339	0.035128806
220	0xbc8a86e9	-0.016910033
221	0x3c889b3d	0.016675586
222	0x3c9f0577	0.019411786
223	0x3d076ea0	0.033064485
224	0x3d17bc4b	0.037044805
225	0xbbf66b9a	-0.0075201513
226	0xbc9afc25	-0.01891906
227	0xbd32bb3c	-0.043635592
228	0xbcd1b768	-0.02560015
229	0x3c834cf1	0.0160279
230	0x3e038e65	0.12847288
231	0x3b9abe1b	0.0047223694
232	0xbca25278	-0.019814715
233	0x3def56a5	0.11686448
234	0xbdde6448	-0.10858971
235	0x3d1f8f30	0.038954914
236	0xbd92a503	-0.0716038
237	0xbd49190b	-0.04909615
238	0xbd6fb27e	-0.058519833
239	0xbcd770fd	-0.026298994
240	0xbd8187b1	-0.06324709
241	0xbcb7c6c8	-0.022433653
242	0xbdb13a58	-0.08653706
243	0xbad2d422	-0.0016084949
244	0xbd617c69	-0.055050287
245	0xbc65ffb3	-0.014038014
246	0xbd562132	-0.05227775
247	0xbc46ca7b	-0.012133236
248	0xbdc9aa95	-0.09846989
249	0x3bb94638	0.0056541227
250	0xbdd163be	-0.102241024
251	0x3c87ae0a	0.01656248
252	0xbe661926	-0.22470531
253	0xbe3325b5	-0.17494853
254	0xbd6df820	-0.05809796
255	0x3debff25	0.11523274

bias f4 [4]
0	0x3e20bbcf	0.15696643
1	0x3e32343a	0.17402735
2	0x3e260fc0	0.16216946
3	0x3e121cdc	0.14268821
