cnn_eat3_8.ckpt (torch, 111287 bytes, 20 tensors)

weight f4 [16, 1, 2, 5]
00000000: 279b e83c 94f7 c43b 75e0 0fbd 20da 633e
00000010: f4dd 0b3f db2e e4bc c80c b43e 8ef7 9bbb
00000020: ba91 863c 42e0 773b 55a5 febb 9f95 993e
00000030: 1245 d9bc 99d4 d23e b22b a2bd 0f23 5cbd
00000040: 4956 343c ad9a 803a 4f03 2fbd 1638 0a3f
00000050: 11ee b4bd 9010 813e 1146 2ebb 224f 923e
00000060: 50f7 38bd c4d6 9ebc e4e9 d1bc 3743 12bd
00000070: ca82 9c3e 18a6 91bd d645 893d 934a fabc
00000080: b508 ef3c 5a06 b6bc 4621 e1bd 705c 9b3e
00000090: 86a5 983e cc49 59bd 913d 59bd 4141 0abe
000000a0: 1507 2abb 308b 823c 6f3f 643e 5502 a03d
000000b0: a1e9 e53e b674 753c d45a 9a3e 127e 1a3d
000000c0: 4448 9abd ec6c c6bd d1f8 aa3c fdb9 033c
000000d0: 2505 323e 68c1 6f3e 3a32 403e 5534 73bd
000000e0: 5171 c33c f5b0 423c 619d 16bd 8170 a53c
000000f0: 3d29 e8bd 7a42 eb3e ee24 47bd 999f 193e
00000100: ff7e 143c b111 91bd a23b a6bd 54eb bd3e
00000110: 4689 b7bd ef83 83bd d2e0 f13e 6f31 8abc
00000120: aba9 36bd c703 6e3e f680 b73c fbda a33e
00000130: 7c16 0a3c 2ec3 543e ba6f 813e bd12 99bc
00000140: 0e2c ca3b d6d9 983e 83f0 31bc 0c4f 3e38
00000150: add4 863e 36c9 c83e 5dca 16bd b605 3cbd
00000160: 6ab2 273a 35e3 a73e d188 44be 1063 8b3e
00000170: 33f9 46bd f330 e3bd d422 d0bc fb5d a9bd
00000180: 9ab3 8cbd 8778 e6bd 6d27 f13c 8195 733e
00000190: d188 84bd 42c7 c7bd ac46 d138 8f60 01bd
000001a0: d630 9cbc 92ea 343f 00ff 36bd c3c7 66bb
000001b0: 1fcf 49bc 7235 23bc b61e 64bd ff3a f63b
000001c0: 5fd1 50bb e101 dabc 9932 283a 10cf a23e
000001d0: f80e a33e 4728 90bc 6631 ca3e 0437 b43e
000001e0: a452 91bd 9246 35bd 8b87 313e fbd6 8c3e
000001f0: b403 f0bb c341 0fbd 361e b33e eb2e 4a3e
00000200: afa5 743e 3d93 163c 2f14 013f f570 8b3e
00000210: 7303 abbc 6ce6 ccbc b897 80bc 03ae 8e3d
00000220: da39 abbb 45fe 323b f2b0 10bd c365 013f
00000230: 8f6e d9bd ef4b afbc 45a9 d1bd 76a0 bb3d
00000240: b167 0b3e 2ff1 883e 41de b13d 32da 873c
00000250: 2a28 a3bc 88d8 ed3c b11a 83bd 88ac 18bd
00000260: d017 dd3e 12ca bebc 1664 0bbb cd0c 06bd
00000270: f006 dc3e 822b 2dbd b7f3 95bc 84ab d03e
0.028394295 0.006010959 -0.03512617 0.22251177 0.5463555 -0.027854374 0.35166 -0.0047597354
0.01642691 0.0037822877 -0.007771174 0.29996964 -0.026522193 0.41177824 -0.079184905 -0.053744372
0.0110069 0.0009811722 -0.042727765 0.5399183 -0.0883447 0.2520795 -0.0026592056 0.28576
-0.04515773 -0.019389518 -0.025624223 -0.035708632 0.30568534 -0.07111758 0.06702773 -0.030553138
0.029178957 -0.022219826 -0.109926745 0.30343962 0.29813784 -0.053048894 -0.05303723 -0.13501455
-0.0025944163 0.01593551 0.22289823 0.07812945 0.44904807 0.014981439 0.3014742 0.037717886
-0.07533315 -0.09688744 0.020870598 0.0080399485 0.17384775 0.23413622 0.1876916 -0.05937608
0.023857744 0.01188301 -0.036771182 0.020195248 -0.113359906 0.45949155 -0.048619203 0.15002288
0.009063481 -0.070834525 -0.08116843 0.37093604 -0.0896173 -0.06421649 0.47241837 -0.016869275
-0.0445954 0.23243628 0.02240036 0.32003006 0.008428212 0.2077758 0.25280553 -0.018685693
0.0061698025 0.29853696 -0.010860565 4.5373148e-05 0.26334134 0.39216012 -0.036814082 -0.045903884
0.000639713 0.32790533 -0.19192816 0.27224016 -0.0485775 -0.11093321 -0.025407232 -0.082698785
-0.06870194 -0.112534575 0.029437745 0.237875 -0.06471408 -0.09754802 9.97906e-05 -0.031586226
-0.019066256 0.70670426 -0.04467678 -0.0035214282 -0.012317448 -0.009961473 -0.05569335 0.007514357
-0.0031863076 -0.026612224 0.0006416231 0.317986 0.31847358 -0.01759733 0.39490813 0.35198224
-0.070958406 -0.044256754 0.17336862 0.27507767 -0.00732466 -0.034974825 0.34983987 0.1974446
0.23891328 0.009190378 0.5042142 0.27234617 -0.020875668 -0.025012217 -0.015697345 0.06966784
-0.0052254023 0.00273122 -0.035325 0.505459 -0.106167905 -0.021398513 -0.10237364 0.09161465
0.13613774 0.26746508 0.0868497 0.016583536 -0.019916613 0.029033914 -0.06401575 -0.037273914
0.4318223 -0.023289714 -0.0021269373 -0.03272705 0.42974043 -0.04227782 -0.018304689 0.40755856

bias f4 [16]
00000000: be48 97be 1d10 a5be f2d7 053e cb55 e8bd
00000010: d4ac c9be ae58 a93e f2fa cdbe 2165 93be
00000020: 8c5d b1be 54a7 60be 02f9 ebbe d599 f5be
00000030: cbce d1be 0382 19bf 26e6 8a3e 2679 17bf
-0.29547685 -0.32238856 0.13070658 -0.11344489 -0.3938967 0.3307547 -0.4023052 -0.28788093
-0.34641683 -0.2193883 -0.46088415 -0.47968927 -0.40978083 -0.5996401 0.27128714 -0.5916923

weight f4 [16]
00000000: 398a 883f 6f8d 7c3f e86b 223f 8540 383f
00000010: 4f7d 693f c354 4d3f 6187 743f 8dbf 693f
00000020: 3dbc 763f 15c6 2c3f 69d0 9c3f 732f 853f
00000030: 4c46 6b3f 638a 8b3f 7126 2c3f 3420 8a3f
1.0667182 0.9865331 0.634459 0.7197345 0.9120683 0.8020746 0.9551907 0.9130791
0.9638098 0.6748975 1.2251102 1.0405105 0.9190414 1.0901607 0.67246157 1.0791078

bias f4 [16]
00000000: 502d e5be 02a2 babe 48cd e1bd 1abb 6abe
00000010: c2b2 87be 1a77 ba3c 8486 a5be 4c2a ffbe
00000020: 4216 a7be 61fd c4bd 9151 e3be 9156 97be
00000030: f973 c5be 9b67 c7be 2740 433c 4366 8dbe
-0.44761133 -0.36451727 -0.110254824 -0.22922936 -0.2650357 0.02276187 -0.3232919 -0.49836957
-0.3263417 -0.09618641 -0.44398168 -0.29558232 -0.38565043 -0.38946232 0.011917151 -0.27617082

running_mean f4 [16]
00000000: 0000 0000 0000 0000 0000 0000 0000 0000
00000010: 0000 0000 0000 0000 0000 0000 0000 0000
00000020: 0000 0000 0000 0000 0000 0000 0000 0000
00000030: 0000 0000 0000 0000 0000 0000 0000 0000
0.0 0.0 0.0 0.0 0.0 0.0 0.0 0.0
0.0 0.0 0.0 0.0 0.0 0.0 0.0 0.0

running_var f4 [16]
00000000: 0000 803f 0000 803f 0000 803f 0000 803f
00000010: 0000 803f 0000 803f 0000 803f 0000 803f
00000020: 0000 803f 0000 803f 0000 803f 0000 803f
00000030: 0000 803f 0000 803f 0000 803f 0000 803f
1.0 1.0 1.0 1.0 1.0 1.0 1.0 1.0
1.0 1.0 1.0 1.0 1.0 1.0 1.0 1.0

weight f4 [64, 16, 2, 5]
00000000: 92f2 ef3c 3b50 bfbd 3379 abbe b6cd 8e3e
00000010: d408 25be 9e65 b13c 7d9b efbd 88c9 c83d
00000020: 6b65 e93d 3230 dbbd 202b 9fbd 3a28 86bd
00000030: f331 1f3e 9b33 a3bd 4d05 8b3e e03d f93c
00000040: 4f12 9cbd b7c7 b5bc a1fb 303e 7bef abbe
00000050: 8173 89be 2820 003d a40e 83be e028 bc3d
00000060: f735 c1be 64bd 813c b83e 64bd b094 053e
00000070: 8179 603d 9737 e8be 8fef 3cbb 6154 9cbc
00000080: 8199 01be 2271 753b 60a2 c9bc 46c0 83bd
00000090: cec4 42bd d667 28be 0ab8 9cbc 0cf6 803d
000000a0: 5fd8 31be 4dc6 8dbd dc93 3cbe 46cc 803e
000000b0: c996 d1bc 09d7 123d 5340 1c3c b08f 373e
000000c0: 581e e6bd 9ce7 e53c 3ac5 70be c543 e9bd
000000d0: 8fc2 503d 3c97 f2bd 3911 863b 9f40 c0bd
000000e0: b350 febc 7640 30bd f01e cdbe db98 39be
000000f0: b2d2 293e 7165 a73d 5087 5a3d a5fb 3dbd
00000100: 4160 833e c834 c0be ea5a a6bd 0256 2dbc
00000110: cbfd 7a3e 25ae 15be 0d18 9fbe 52bf 9f3d
00000120: 7d5c 89bd 0211 bfbd 6261 edbd 0c65 323e
00000130: 875d 583e d21c d4ba ec07 fd3d 7420 173e
00000140: ff94 1fbe d414 e6bd 41bd 113e d7df 09bc
00000150: 8cd2 94bd ba9f be3d 6758 1ebe a693 783d
00000160: 4f43 0b3e c8a8 52bd fcac fa3b 8603 26be
00000170: ef9b c53c 2f9d 193e 2bc4 8abd 68f2 20bd
00000180: 5af1 2e3c 690d 19bc 7ef3 bb3d e3d1 ca3d
00000190: 8b91 25be a44c 563d e964 843d 45cd 48bd
000001a0: ddca 46bc ab01 443c 3e25 bfbd 00ba bbbe
000001b0: 835e 88be 4063 33be b5e4 f53a 3e42 df3c
000001c0: 5072 a73d e50d dd3c e242 96be a7d2 0b3e
000001d0: 96ce e03d 4d8a a5bc af93 ebbc 2480 953d
000001e0: 18b4 c8bd b6c4 a63d 9e4d fdbd 2901 c6bd
000001f0: edc9 e1be c64b b0bc d56f 303d 035e 773d
00000200: 22be 52bd ce53 12be 2457 aabe f57f f13d
00000210: 3965 a73e ec40 023e e33a 673d 1c33 18be
00000220: 3f56 14bf 790e edbd b244 4f3e e5f7 53bd
00000230: 09be a8bd 3a4a f83c 230e 07be 9fc2 0e3d
00000240: 8dae ea3d cd33 b6bd 3360 dcbd 3d20 04bb
00000250: b456 263d 8311 57bd 0866 80bd 0b2a c1bd
00000260: fbdc 7b3e 5427 d7bd 1fb2 e4bd f46d f53d
00000270: 2e7e af3d 9a73 613d 29a3 883e 4c6b 403e
00000280: 4ed8 efbd d8b2 febc 429e 9c3e 631c 113e
00000290: b815 94be a8d3 f23d 3f33 46bd 1866 66be
000002a0: 7d2c 16bd d63f 093d fcdb 453e a21f a13c
000002b0: b694 573d 2ff3 06be 61b0 18be 12ff 13bf
000002c0: 4935 053e e9c4 f3bc 393e 0d3e 7237 00bf
000002d0: 0730 86be 84a6 0abd 86ca 163d a752 95bd
000002e0: 3c18 dc3b 2813 31be 9bd7 85bd bc32 4bbd
000002f0: 7db9 4f3d 592f b8bb f00a bb3c 14f9 003d
00000300: 3393 dfbd d3be 20bb 3c43 dbbb 406c 4abe
00000310: 4f28 1e3e 009d 1f3e 6c77 90bd 38ae ccbd
00000320: 380f 55be 3ba0 12be 65ff 84bd 583c 7b3e
00000330: 3101 75bc d980 073e 5668 25be 65e5 27bd
00000340: 9a04 d03d 5ccc 873d 41a4 553d 4671 693c
00000350: 0887 5cbd aa5b 8dbc 8daa 00be e52c c1bd
00000360: dbc0 91bd edbe 02bd 0b81 1bbe b3a9 28bd
00000370: 9c2b 233e cfcb cbba 4aea 8e3e c819 813d
00000380: 3243 90bd a2eb bd3c 2207 01bd 7d2e 38be
00000390: d485 0d3e bc5f 91be 7f27 84bc 0acd 1a3d
000003a0: 420c b1bb cbc1 bbbd bad4 8f3d 77ec 56be
000003b0: 3b4b 933d 35a3 41be ad1c dabd f1c2 513d
000003c0: e86d f93c 6ed3 613d 524d 6d3e c61a 93be
000003d0: 2b5b 813d 37a4 613d bfbc 7ebd 1617 e23d
000003e0: 4acd 123e b32b 0bbd 7d8b 943d 37bc 883c
000003f0: 6eed 943c 7a85 2ebe cb55 4cbd ebad 943d
0.029290471 -0.093414746 -0.33490905 0.2789132 -0.16116649 0.0216549 -0.11699579 0.09804064
0.11396297 -0.10702552 -0.07771897 -0.06550641 0.15546398 -0.07968827 0.27152482 0.030425012
-0.076206796 -0.022189958 0.17283489 -0.33581147 -0.26845935 0.031280667 -0.25597107 0.09187484
-0.37736484 0.015837379 -0.055723876 0.13045001 0.054803375 -0.45354912 -0.0028829311 -0.019083204
-0.12656213 0.0037451466 -0.02461356 -0.064331576 -0.04755097 -0.1644586 -0.019130725 0.0629693
-0.17367695 -0.069225885 -0.18415779 0.25155848 -0.025584595 0.035849605 0.00953682 0.17925906
-0.11236256 0.028064542 -0.23512736 -0.11389879 0.050966796 -0.11845252 0.0040914086 -0.093873255
-0.03104434 -0.043030225 -0.40062666 -0.18124716 0.1658428 0.08173645 0.0533517 -0.046382565
0.25659373 -0.3754027 -0.08122809 -0.010579588 0.24510877 -0.14617212 -0.31073037 0.07800163
-0.06707094 -0.09329416 -0.1159084 0.17421359 0.21129428 -0.0016182906 0.123550266 0.14758474
-0.15584181 -0.112344414 0.14232351 -0.008415184 -0.07266721 0.09307809 -0.1546341 0.060687684
0.13599895 -0.051430494 0.007650016 -0.16212282 0.024122206 0.15001367 -0.06775697 -0.039293677
0.01067766 -0.009341576 0.09177302 0.09903314 -0.16168801 0.052319184 0.064645596 -0.049023885
-0.012133327 0.011963288 -0.09333275 -0.36665344 -0.26634607 -0.1751833 0.0018760177 0.027253266
0.081761 0.026984164 -0.29347903 0.13654576 0.10976903 -0.020207549 -0.028756944 0.072998315
-0.09799975 0.081429884 -0.1236832 -0.0966819 -0.4409937 -0.021520507 0.0430754 0.06039239
-0.051450856 -0.14289781 -0.33269608 0.11791984 0.32694414 0.12720078 0.056452643 -0.14863247
-0.579441 -0.11575026 0.20241049 -0.051750083 -0.08239371 0.030308831 -0.13188986 0.034853574
0.11459074 -0.08896599 -0.10760536 -0.0020160817 0.04061003 -0.052506935 -0.06269461 -0.09431847
0.24596016 -0.10505548 -0.111667864 0.119838625 0.08568989 0.055041887 0.2668698 0.1879093
-0.11711179 -0.031091139 0.3058949 0.14170985 -0.2892282 0.118567765 -0.048388716 -0.22499883
-0.03666352 0.033508144 0.19322199 0.019668404 0.052632056 -0.13178705 -0.14911033 -0.5781108
0.13008608 -0.02975698 0.13793267 -0.500846 -0.26208517 -0.033850208 0.036814235 -0.07291155
0.006716756 -0.17292464 -0.06535264 -0.04960893 0.050714005 -0.0056208787 0.022832364 0.03148754
-0.10916748 -0.0024527803 -0.0066913646 -0.19767857 0.15445064 0.15587234 -0.07054028 -0.09994167
-0.20806587 -0.14318936 -0.06494025 0.24534738 -0.014953897 0.13232745 -0.16153082 -0.040990252
0.10157128 0.06630775 0.052158598 0.014248198 -0.053839713 -0.017255623 -0.1256506 -0.09432391
-0.071168624 -0.031920362 -0.15185945 -0.041177463 0.15934604 -0.0015548411 0.27913123 0.063037455
-0.070440665 0.023183648 -0.031500943 -0.17986484 0.13820583 -0.28393352 -0.016132114 0.037793197
-0.0054030726 -0.091678225 0.07022996 -0.20988642 0.071920834 -0.18909915 -0.10650001 0.0512113
0.030447915 0.055133276 0.23174027 -0.28731364 0.06316217 0.055088248 -0.06219172 0.110395595
0.14336124 -0.03397722 0.07253168 0.01669131 0.018179622 -0.17043105 -0.049886506 0.07259735

bias f4 [64]
00000000: 3a9a 92bd dcf3 61be f1db b0bd 79fb 4abe
00000010: 2c84 48be 95a8 a0be fb40 3ebe 6f60 87bd
00000020: 6b1e 3cbe 7dae 56bd 5bc7 51be 4c98 3abd
00000030: c5cf 68be 474f 07be d720 99bd c3cc 15bd
00000040: fc13 0ebe c878 8abe 2b93 d4bd 5d54 3abe
00000050: b78e 80be d44b 2abe c8f2 c2bd 0356 873c
00000060: 0d2e 37be b181 29bb 56fd d1bd c503 563d
00000070: 963d ab3c 6bc6 49bd a1b2 2dbe 546c 96be
00000080: ed97 35be 0c87 bbbd c031 573c 635f 06be
00000090: 5261 91be b214 8cbe efd5 4bbe b3fb ffbc
000000a0: ef35 d6bd c148 a9bd 080e 46be 944b 13be
000000b0: 4a9b 37be aa28 12be e3c4 18be c6e0 1cbe
000000c0: cef9 5bbe 2327 80bc bd5e 7cbe 4f3b b1be
000000d0: dddc b2bd 002f 2bbe 00d9 04be 204e 19be
000000e0: 615d b7bd 0962 cbbd ec12 94be 1fe7 6dbe
000000f0: d548 9cbe ae5d 49be 4a37 67be 5116 41be
-0.07158323 -0.22065681 -0.086357005 -0.19822492 -0.1958167 -0.31378618 -0.18579476 -0.0661019
-0.18370979 -0.0524125 -0.20486204 -0.045555398 -0.22735508 -0.13213836 -0.07476967 -0.03657223
-0.13874811 -0.27045274 -0.103796326 -0.18196245 -0.25108883 -0.16630489 -0.09518963 0.016520506
-0.1788866 -0.0025864656 -0.10253398 0.05224969 0.02090339 -0.04926149 -0.16962673 -0.29379523
-0.17733736 -0.091566175 0.01313442 -0.13122325 -0.28394562 -0.2735954 -0.19905828 -0.03124795
-0.10459506 -0.0826583 -0.1934129 -0.143843 -0.17930332 -0.14273325 -0.14918856 -0.1532012
-0.21482012 -0.015643662 -0.24645515 -0.3461556 -0.087335326 -0.16717148 -0.12973404 -0.14971209
-0.089533575 -0.09930808 -0.28920686 -0.23232697 -0.30524316 -0.19664642 -0.22579685 -0.1885617

weight f4 [64]
00000000: 111d 983f 3aaa 863f 0f2b 893f 3cb1 953f
00000010: 3b94 8b3f 014f a03f 0582 7c3f dd2e a03f
00000020: cccc 7b3f ffa4 353f e994 a63f 0bfd 7a3f
00000030: f6b7 943f d805 833f dc6b 613f 4146 6b3f
00000040: 658d ad3f 5254 943f 805f 983f f6f9 b63f
00000050: 2a82 b13f f759 9f3f f413 c43f f631 783f
00000060: 483c 8e3f ca34 5f3f 34bb 913f 1441 8f3f
00000070: 5b92 803f be36 833f eabb 8f3f 2d12 6d3f
00000080: 605d 6c3f 9ca4 7c3f e70a 6d3f 32f9 9e3f
00000090: 4681 913f 6b07 973f ead4 933f 72c5 8d3f
000000a0: dcde 883f ad7c a13f 50f3 5b3f e488 5d3f
000000b0: 2c9b a43f f228 b13f d68b 673f fd04 a43f
000000c0: 0e30 a13f fd38 853f c5b9 6c3f a9dd 803f
000000d0: c123 813f 8f72 873f ef5a 933f 7870 a73f
000000e0: 27b5 963f fdea 883f 71c8 883f 4c8c 703f
000000f0: e88f 8b3f 77ee 9d3f 8012 893f ef71 913f
1.188387 1.0520699 1.0716265 1.1694713 1.0904611 1.252411 0.98635894 1.2514302
0.9835937 0.7095489 1.3014194 0.9804236 1.161864 1.0236158 0.88055205 0.91904074
1.3558775 1.1588233 1.1904144 1.4295032 1.3867848 1.244933 1.5318589 0.96951234
1.1112146 0.87189925 1.1385255 1.1191735 1.0044664 1.0251081 1.1229222 0.9260586
0.9232998 0.98688674 0.9259476 1.2419798 1.1367576 1.1799139 1.1549351 1.107588
1.0693011 1.2616173 0.8591814 0.86537004 1.2859855 1.384062 0.9044775 1.2814022
1.259279 1.0408016 0.9247096 1.0067645 1.0089036 1.0581836 1.1512126 1.3081198
1.1774033 1.0696713 1.068617 0.93964076 1.0903292 1.2338399 1.0708771 1.1362895

bias f4 [64]
00000000: d8e0 5abd e3df 15be b51b a5bd 68f6 2cbe
00000010: 42ce 58be 5213 8bbe da46 30be 0439 d2bd
00000020: 1932 0cbe 17b3 abbd 96b4 44be be7f 97bd
00000030: 15c2 20be 9606 0abe 059f 03be a1cf 05bd
00000040: 7945 81bd 91af 48be 65f9 0abe 33d9 2dbe
00000050: c52a 3dbe 095a 28be e927 d2bd 6b8d 39bd
00000060: 5d52 29be 7df7 86bd 5619 19be 8ec4 89bc
00000070: 005d 28bd 60ff 58bd 9381 cdbd cf7a 5fbe
00000080: 3d02 4abe 00f1 c8bd 71f1 11bd 8f00 1abe
00000090: 84d1 67be 4bbe 66be 7cd4 07be 8bb5 90bd
000000a0: 90a3 b6bd 4864 aabc d7e6 2fbe a7ea 2abe
000000b0: 2a04 23be b436 8abd 2bcf d8bd f3b8 f0bd
000000c0: 905d 34be 1697 aebd 0cc2 4bbe 45dd 8cbe
000000d0: 66c8 31bd c497 edbd 5787 16be 36b9 60be
000000e0: e275 08bd 145e 13be 358d 82be c23f 1dbe
000000f0: 3838 9abe 1f5b 36be b22e 40be 5546 41be
-0.053437084 -0.14636187 -0.08061925 -0.16890872 -0.21172431 -0.27163178 -0.17214528 -0.10264781
-0.13690986 -0.08383768 -0.19209513 -0.07397412 -0.15699036 -0.13479075 -0.1285363 -0.032668713
-0.06312079 -0.19598223 -0.13571699 -0.16977386 -0.18473347 -0.16440596 -0.102615185 -0.045300882
-0.16535325 -0.065901734 -0.14951071 -0.016817357 -0.041104317 -0.05297792 -0.1003448 -0.21824192
-0.19727416 -0.09811592 -0.035630647 -0.15039276 -0.22638518 -0.22533529 -0.1326465 -0.070658766
-0.08917916 -0.020799771 -0.17177902 -0.16691075 -0.15919557 -0.06748715 -0.10586389 -0.11754026
-0.17613816 -0.08524911 -0.19898242 -0.27512565 -0.043404005 -0.116012126 -0.14700066 -0.21945652
-0.033315547 -0.14391357 -0.25498357 -0.15356353 -0.30121017 -0.17808197 -0.18767813 -0.18874486

running_mean f4 [64]
00000000: 0000 0000 0000 0000 0000 0000 0000 0000
00000010: 0000 0000 0000 0000 0000 0000 0000 0000
00000020: 0000 0000 0000 0000 0000 0000 0000 0000
00000030: 0000 0000 0000 0000 0000 0000 0000 0000
00000040: 0000 0000 0000 0000 0000 0000 0000 0000
00000050: 0000 0000 0000 0000 0000 0000 0000 0000
00000060: 0000 0000 0000 0000 0000 0000 0000 0000
00000070: 0000 0000 0000 0000 0000 0000 0000 0000
00000080: 0000 0000 0000 0000 0000 0000 0000 0000
00000090: 0000 0000 0000 0000 0000 0000 0000 0000
000000a0: 0000 0000 0000 0000 0000 0000 0000 0000
000000b0: 0000 0000 0000 0000 0000 0000 0000 0000
000000c0: 0000 0000 0000 0000 0000 0000 0000 0000
000000d0: 0000 0000 0000 0000 0000 0000 0000 0000
000000e0: 0000 0000 0000 0000 0000 0000 0000 0000
000000f0: 0000 0000 0000 0000 0000 0000 0000 0000
0.0 0.0 0.0 0.0 0.0 0.0 0.0 0.0
0.0 0.0 0.0 0.0 0.0 0.0 0.0 0.0
0.0 0.0 0.0 0.0 0.0 0.0 0.0 0.0
0.0 0.0 0.0 0.0 0.0 0.0 0.0 0.0
0.0 0.0 0.0 0.0 0.0 0.0 0.0 0.0
0.0 0.0 0.0 0.0 0.0 0.0 0.0 0.0
0.0 0.0 0.0 0.0 0.0 0.0 0.0 0.0
0.0 0.0 0.0 0.0 0.0 0.0 0.0 0.0

running_var f4 [64]
00000000: 0000 803f 0000 803f 0000 803f 0000 803f
00000010: 0000 803f 0000 803f 0000 803f 0000 803f
00000020: 0000 803f 0000 803f 0000 803f 0000 803f
00000030: 0000 803f 0000 803f 0000 803f 0000 803f
00000040: 0000 803f 0000 803f 0000 803f 0000 803f
00000050: 0000 803f 0000 803f 0000 803f 0000 803f
00000060: 0000 803f 0000 803f 0000 803f 0000 803f
00000070: 0000 803f 0000 803f 0000 803f 0000 803f
00000080: 0000 803f 0000 803f 0000 803f 0000 803f
00000090: 0000 803f 0000 803f 0000 803f 0000 803f
000000a0: 0000 803f 0000 803f 0000 803f 0000 803f
000000b0: 0000 803f 0000 803f 0000 803f 0000 803f
000000c0: 0000 803f 0000 803f 0000 803f 0000 803f
000000d0: 0000 803f 0000 803f 0000 803f 0000 803f
000000e0: 0000 803f 0000 803f 0000 803f 0000 803f
000000f0: 0000 803f 0000 803f 0000 803f 0000 803f
1.0 1.0 1.0 1.0 1.0 1.0 1.0 1.0
1.0 1.0 1.0 1.0 1.0 1.0 1.0 1.0
1.0 1.0 1.0 1.0 1.0 1.0 1.0 1.0
1.0 1.0 1.0 1.0 1.0 1.0 1.0 1.0
1.0 1.0 1.0 1.0 1.0 1.0 1.0 1.0
1.0 1.0 1.0 1.0 1.0 1.0 1.0 1.0
1.0 1.0 1.0 1.0 1.0 1.0 1.0 1.0
1.0 1.0 1.0 1.0 1.0 1.0 1.0 1.0

weight f4 [32, 64, 2, 3]
00000000: 3c90 46be 636f 1abe 1bc5 33be f916 303d
00000010: 4e36 a63d cfa2 de3d 3c8c 7fbd 82cc dabd
00000020: 7e0c d2bd ce8f 433d 15f2 373c fe2a 903c
00000030: c7f4 b0bd 70fc 00bd 4e94 213c 6ea0 2a3b
00000040: a62e d8ba 1d66 543c 71e4 2e3d 4bbd 463d
00000050: 950e 273d 46ef 18bc 259e d4bc 2e3c b7bd
00000060: 713e fdbd 279e 233e 1f82 f5bd 59a2 42bd
00000070: fff5 c5bb b723 093d 5acd a7bd 2a93 823c
00000080: 3196 1abe ebf5 c53c f050 99bd 1987 93bc
00000090: bfcd a33c de12 d3b9 cccb 833d b125 a6bc
000000a0: 79eb 0e3d 8d82 42bd a0a5 5f3c ad5e abbd
000000b0: d714 913d 1c74 0ebd 1ec7 94bc fbec 13bb
000000c0: a343 893d c987 8e3c d57a be3a 0f66 63bd
000000d0: f784 01bd 8819 cfbd 4da7 433d 2df9 f13c
000000e0: 2ea1 e4ba 95f9 13bd 8f09 123d 05bb 983b
000000f0: 4fc5 30bc b35a 64be 18e5 f63d 43f8 77bd
00000100: 7a24 67bd 354f c83d df5f cebb e9e0 31bd
00000110: 3a5c 4b3d 7d25 03bb e831 333b 6c12 8ebb
00000120: 1832 c8bc 7386 1fbe 44ad 1bbe 0e78 763d
00000130: 40db 17bd 4c87 693c dbbc 10bd e4f5 0ebd
00000140: ea6f 2cbd 81c5 823c df31 16bc e080 3d3d
00000150: d07e 03bc ae74 473d 4b63 ce3d cdee ab3c
00000160: 65df 7dbc e081 91bd 774f 8f3c e400 963c
00000170: 9e7f a1bc 3cbb f1bc de09 13bc 4275 62bd
00000180: 806d 9ebc 1e31 c9bc 303f a8bc e526 fb3c
00000190: 64de c73a 0667 6c3c 855f f9bd affe 993a
000001a0: 9ba8 e1bd c89a da3c e481 0d3d 1858 3f3d
000001b0: 47bc cdbc 1da5 11bb 0e68 aa3d 8108 9a3a
000001c0: 6b90 5fbd d1eb 453c 6083 0c3d 6ad1 583d
000001d0: 4bd3 94bd 86df 1b3e 28cf 3ebd 32d0 1c3e
000001e0: 2137 263d 53b3 c33d 6dff 403d e593 1bbd
000001f0: e4c6 f5bd 4f4b d6bd 512d 81bd ee37 a93d
00000200: fd0a 03be 654a 893d 38d4 6abe 0469 6ebd
00000210: 2933 6cbe ab1b 1bbe 47b4 73be de84 1ebd
00000220: c32a bebc 46f2 93bd 90cd dbbc 54ce 30bd
00000230: c53a 06bd fae1 593c d858 8ebc dfdb 443c
00000240: a6b8 eb3d 2775 3c3d 2f12 f93c 0d0d 0bbb
00000250: 3714 9abd 6371 43bd 1f28 0abd 3a33 a13c
00000260: 778f e03b 08cc 38bc 1bba 84bb 2a24 8ebc
00000270: a3de 193d e9a3 07bc 9232 acbc e226 67bd
00000280: 58ea 993c d750 763a ff26 b7bc a5be 1bbd
00000290: 79f5 8c39 1469 66bc 38e9 50ba fbcf 75bc
000002a0: 4040 6ebd 320c 12bd 62d1 12bc fa34 a63c
000002b0: 6ce4 6fba cb52 6c3d 9fdc 663d 4540 243b
000002c0: a68e 503d 18cf 38bc 40ad 193d ca49 a0bb
000002d0: 0870 7fbc e417 dfbc 5a0c 1bbd c306 18bb
000002e0: 32e8 f4bc 09cd 923d 5c1f 573c fb55 e9bb
000002f0: ff68 15bd 222b 92bc c93f d9bc 023a 15bd
00000300: 2822 06bd 91b6 5a3d 57c6 49bb dbb9 2f3c
00000310: fe9b 09bc dcd1 493c 57b2 483c 608a c3bc
00000320: bfb0 0ebd 098d 0b3c 652b bebc bbc9 75bb
00000330: 5adf cf3b d9aa 9abc fee9 1e3d 210e e63c
00000340: 19ff 37bd cbe1 1cbd b822 4fbe 64b2 28bc
00000350: 1481 aebd b37a 893e c2bb 7a3c 8cf7 fc3d
00000360: 2f48 50be f9b5 81be 643d 4abd c1a5 05be
00000370: 68a8 1abe 42a8 af3d 7161 b3bd bf37 cabd
00000380: ec8a 97bd f3e4 1abd 4007 dabc 3bd3 adbd
00000390: 17ce bf3c 3b72 1fbc 4074 c83c 1ca3 0fbc
000003a0: c568 baba a23f ee3a 7353 cb3c a53d c0bd
000003b0: c7e1 5fbc 5aa8 c4bd fbee a7bb ead6 a63a
000003c0: acee 2abe f7df 44bd 3c90 c6bc b3de aa3d
000003d0: 9991 113c 3844 ee3c 7ee1 a03c ce84 55bd
000003e0: 293e 033e 03de 71bc 2018 423b d400 9fbd
000003f0: 5583 6f3c e9fc fdbc cf01 22bd 3bf8 1d3d
-0.19390959 -0.15081553 -0.17555659 0.04299066 0.081158265 0.10870897 -0.062389597 -0.10683538
-0.10256289 0.047744565 0.01122715 0.017598625 -0.086404376 -0.031490743 0.009862019 0.0026035565
-0.0016493395 0.012963799 0.042698327 0.048520368 0.04078539 -0.009334391 -0.025954315 -0.08947025
-0.123654254 0.15978299 -0.11987709 -0.047518108 -0.006041288 0.033481326 -0.081934646 0.015939314
-0.15096356 0.024165114 -0.07486141 -0.018008756 0.019995568 -0.00040259113 0.064353555 -0.020281645
0.034892533 -0.047487784 0.013650328 -0.08367667 0.07084053 -0.0347787 -0.018161353 -0.0022571671
0.06702354 0.017398732 0.0014532456 -0.055517253 -0.031620946 -0.101122916 0.047766972 0.029537762
-0.0017443055 -0.03612669 0.035653647 0.0046609663 -0.01078923 -0.22300224 0.12055415 -0.060539495
-0.05643127 0.097807325 -0.00629805 -0.04342738 0.0496485 -0.0020011358 0.002734298 -0.004335692
-0.024437949 -0.15578632 -0.15202814 0.060173087 -0.037074327 0.014253449 -0.035336357 -0.03490247
-0.042098917 0.015963318 -0.009167164 0.046265483 -0.00802584 0.04869526 0.100775324 0.020987893
-0.015495156 -0.0710485 0.017493946 0.018310972 -0.019714173 -0.029508226 -0.0089745205 -0.055287607
-0.019339323 -0.024559554 -0.020537943 0.030658195 0.0015248773 0.01442886 -0.12176422 0.0011748875
-0.11018487 0.026685134 0.0345477 0.046714872 -0.025114192 -0.002222366 0.08320628 0.0011751802
-0.054581087 0.012080149 0.034304976 0.052934088 -0.072668634 0.15221986 -0.04658428 0.15313795
0.04057992 0.09555688 0.047118593 -0.03798284 -0.12000826 -0.10463583 -0.063074715 0.08262621
-0.1279716 0.06703643 -0.22932518 -0.05820562 -0.23066391 -0.15147273 -0.23799239 -0.03870093
-0.02321375 -0.07223944 -0.026831418 -0.04316552 -0.03277089 0.013298506 -0.017376348 0.012015312
0.11509828 0.046010163 0.030404178 -0.0021217496 -0.07523387 -0.047715556 -0.03372967 0.019677747
0.00685304 -0.011279114 -0.004050506 -0.017351229 0.03756584 -0.008278825 -0.021020208 -0.056433566
0.018788502 0.00093962013 -0.022357462 -0.03802361 0.00026885772 -0.0140631385 -0.00079693226 -0.0150032
-0.058166742 -0.03565616 -0.008961054 0.020288933 -0.0009151164 0.057696145 0.056362744 0.0025062722
0.05091729 -0.011279844 0.03751874 -0.004891609 -0.015590675 -0.027233072 -0.037853576 -0.002319739
-0.029895876 0.071680136 0.013130035 -0.0071208454 -0.036477085 -0.017842833 -0.026519673 -0.036432274
-0.032747418 0.053396765 -0.0030788386 0.010725464 -0.008399008 0.012318101 0.012249551 -0.023869693
-0.034836527 0.008517512 -0.023214051 -0.0037504274 0.0063437643 -0.018880295 0.03879737 0.028082909
-0.044921014 -0.03830127 -0.20228088 -0.010296438 -0.085207134 0.26851425 0.015303554 0.12351903
-0.20340036 -0.25334147 -0.049374953 -0.13051511 -0.15103304 0.085770145 -0.0875882 -0.09873914
-0.07399544 -0.037816 -0.026614785 -0.08487555 0.023413701 -0.0097318245 0.024469495 -0.008766916
-0.0014221898 0.0018176923 0.024820065 -0.09386758 -0.013664669 -0.09602423 -0.0051249242 0.0012728844
-0.16692609 -0.048065152 -0.024238698 0.08343258 0.008884811 0.029085264 0.019638773 -0.052128606
0.12816681 -0.014762404 0.002961643 -0.0776383 0.014618714 -0.031004386 -0.039552506 0.03856681

bias f4 [32]
00000000: 389c 103e 457a e8bd f251 67bd ab33 98bd
00000010: 143a acbd ddf5 f1bc 5a67 c2bd d326 e5bd
00000020: 6995 3bbd a512 01be 5314 cdbc 618d 47be
00000030: 4248 36bd cd67 9ebd 4319 7dbd 8fc4 d9bd
00000040: 7800 32be 2ca4 b93d 98da 95bd 864c a9bd
00000050: c9f5 f9bc da09 4cbd 2421 e9bd ad56 bebd
00000060: d52c ebbd b271 a8bd 8f7e cebd 9aa9 e3bd
00000070: d977 f1bd 8780 b8bc cd89 28bd 9454 02be
0.14122093 -0.11351446 -0.056474634 -0.0743173 -0.08409515 -0.029536182 -0.09492369 -0.11189046
-0.045796786 -0.12604769 -0.025034105 -0.19487526 -0.044502504 -0.07734642 -0.06179167 -0.10633194
-0.17382991 0.090645164 -0.07317084 -0.08266549 -0.030512707 -0.049814083 -0.11383274 -0.09293876
-0.114831604 -0.08224811 -0.10082733 -0.11116333 -0.11790437 -0.022522224 -0.041147042 -0.12727576

weight f4 [32]
00000000: 2de5 6e3f 9bef a73f dfbe 973f f58e a43f
00000010: a9f2 9d3f 15ff 843f 9b53 9c3f a244 b23f
00000020: 65be 803f b6c5 ce3f 8043 503f 83c6 c63f
00000030: ace6 b73f fb69 a23f 8e1c b43f 8e4f b13f
00000040: 449e bb3f fb60 563f 8c11 793f d2d5 a83f
00000050: bfdc 8b3f 1553 b23f 7b70 b03f 9681 7e3f
00000060: 6799 c73f 638e 993f a9cd a23f 1284 ba3f
00000070: e312 c93f 1760 533f 8f3d 913f ba4d ba3f
0.93318444 1.3119997 1.1855124 1.2856127 1.2339679 1.0390345 1.2213014 1.3927195
1.0058104 1.6154087 0.81352997 1.5529331 1.436727 1.2688593 1.4071214 1.3852403
1.4657674 0.8374173 0.972924 1.3190253 1.0926741 1.3931605 1.3784326 0.9941648
1.559369 1.1996578 1.2719012 1.4571555 1.5708889 0.82568496 1.1346911 1.455497

bias f4 [32]
00000000: 9815 ce3d 0e85 8cbd 79df 25bd 7f3c acbd
00000010: d03b 0fbd 7297 51bd c3f2 6dbd a9de f1bd
00000020: 9f0c 67bd 2379 efbd 8f18 c3bc 3d89 13be
00000030: 73bc 92bc f1a3 62bd a7c9 82bd 250d 98bd
00000040: 0196 07be 28b5 b33d f87a bdbc 307c f2bd
00000050: 2068 18bd 2b5d 82bd fc44 b7bd 7f20 20bd
00000060: 3b50 abbd 0337 a3bd 16aa 00be 1f50 85bd
00000070: 9c93 c2bd afb9 febc fcc0 f4bc ccee 10be
0.100627124 -0.06861316 -0.040496323 -0.08409976 -0.03496915 -0.05116982 -0.058092844 -0.11810047
-0.05640852 -0.11693027 -0.023815421 -0.14407821 -0.017912125 -0.055332128 -0.063861184 -0.07424382
-0.13240816 0.08774787 -0.023129925 -0.11840093 -0.037208676 -0.06365427 -0.089487046 -0.03909349
-0.08364912 -0.07969477 -0.12564883 -0.065094225 -0.095008105 -0.0310944 -0.029877178 -0.14153594

running_mean f4 [32]
00000000: 0000 0000 0000 0000 0000 0000 0000 0000
00000010: 0000 0000 0000 0000 0000 0000 0000 0000
00000020: 0000 0000 0000 0000 0000 0000 0000 0000
00000030: 0000 0000 0000 0000 0000 0000 0000 0000
00000040: 0000 0000 0000 0000 0000 0000 0000 0000
00000050: 0000 0000 0000 0000 0000 0000 0000 0000
00000060: 0000 0000 0000 0000 0000 0000 0000 0000
00000070: 0000 0000 0000 0000 0000 0000 0000 0000
0.0 0.0 0.0 0.0 0.0 0.0 0.0 0.0
0.0 0.0 0.0 0.0 0.0 0.0 0.0 0.0
0.0 0.0 0.0 0.0 0.0 0.0 0.0 0.0
0.0 0.0 0.0 0.0 0.0 0.0 0.0 0.0

running_var f4 [32]
00000000: 0000 803f 0000 803f 0000 803f 0000 803f
00000010: 0000 803f 0000 803f 0000 803f 0000 803f
00000020: 0000 803f 0000 803f 0000 803f 0000 803f
00000030: 0000 803f 0000 803f 0000 803f 0000 803f
00000040: 0000 803f 0000 803f 0000 803f 0000 803f
00000050: 0000 803f 0000 803f 0000 803f 0000 803f
00000060: 0000 803f 0000 803f 0000 803f 0000 803f
00000070: 0000 803f 0000 803f 0000 803f 0000 803f
1.0 1.0 1.0 1.0 1.0 1.0 1.0 1.0
1.0 1.0 1.0 1.0 1.0 1.0 1.0 1.0
1.0 1.0 1.0 1.0 1.0 1.0 1.0 1.0
1.0 1.0 1.0 1.0 1.0 1.0 1.0 1.0

weight f4 [4, 576]
00000000: 6208 8e3d ea83 b83d f176 d53d bd0b 813d
00000010: cec9 b13d 7a71 633d 2cb9 b03d 6756 093d
00000020: 8590 bb3d 59c6 0f3d 3718 c33d ccb3 2b3d
00000030: 065a b93d 3b9d 583d 8614 983d fc93 653d
00000040: d2dc c73d 5197 563d acf2 b9bd 9b1f 1cbd
00000050: e34f 9abd c9fc 91bc 58cd bebd 7fe5 f6bd
00000060: 650e 56bc 0778 4fbd a5ae 94bc 60ab 04bd
00000070: 3702 dbbd 7aaa 6abd 8494 b83b 9226 8fbd
00000080: 46dd c6bd 566c a7bd 7fad 53bd 6166 4abd
00000090: 3feb 0cbf 6b47 593d 63d2 d2bd eb4e f13d
000000a0: 2b31 8fbe a817 8e3d 678f 5cbe ca21 9e3d
000000b0: be5b 98be c398 1e3d 3677 67be f24d 4f3d
000000c0: bdd9 87be bed5 e73d 495c a6be 1a51 9a3d
000000d0: 5689 debe 71c1 ccba d3c0 333e 38b5 0cbf
000000e0: dd5a 52be eb10 a3be ab46 70be 5192 5abe
000000f0: 8440 35be 3922 bfbe 9d83 3cbd f9c5 93be
00000100: 9e88 85bd ef2e 93be dbba 4abe c6bb cebe
00000110: 20bd ff3d d5de d9be 6138 1fbd 5c8e 6abe
00000120: 83da b0bd ed66 cbbd 853b 1ebe 7dcf c8bd
00000130: 35bd 16be 30fc aabe 3227 20be 2b62 0dbe
00000140: 034c 4dbe b560 8ebe aec0 3bbe 9efe 74be
00000150: c1bb c9bd 9fc7 a1be 1d8c 2ebe cc8d 66be
00000160: 394d 31be f0ed c1be 8665 1a3d 3f27 e4bc
00000170: 91fa b83d fb5e d9bb d0f0 2abd 31df a93d
00000180: d220 82bd 4997 723b 4d65 863d ab4e 02be
00000190: c3c8 b83d 22f6 01be bcb4 103e 38d6 bdbc
000001a0: 15a8 133e 6133 e9bc fb5c 813e c080 f4bd
000001b0: bb43 c43d 25e3 18bd a908 893c 15f7 023e
000001c0: a13c f7bd 96c7 3ebe 5054 37be 71a9 2cbb
000001d0: e7a9 0ebe 911b c6be aafa 3abe 7e5b 1c3a
000001e0: 6449 e5bd a160 1ebe c01c 72bc 0e4d 8abe
000001f0: 80c1 b0bd 6093 c4bd ee7a 3bbd 935a 3dbd
00000200: 2544 34bd 0f1a 94bc 1b43 32bd 6230 b3bc
00000210: 1ab6 5ebc ae0d 09bd 46df 89bc 2686 e8bc
00000220: 2015 abbc 1347 92bc 568d b6bc ad8b 24bd
00000230: db2f 10bc dd1e 36bd ab3a 09bd 0e72 1fbd
00000240: 960a 993d ccef b2bd 4c64 9b3d ba25 56bd
00000250: 50ac 183e b74f 02be f866 573d 3fbb 56bd
00000260: 3884 253b d605 7ebd 53a6 303c 6d8b 003c
00000270: f05d 853d 63e4 d7bd b2e3 8b3c ce70 3fbd
00000280: b997 263c 5c19 2fbe 6247 2cbe 865d 203e
00000290: 8422 6abe 4794 6cbd e91c 1dbe 607e e7bd
000002a0: 3230 a3be 141d 543d 57d7 35be 3ba5 f2bd
000002b0: 24d4 6e3c bf5e 09be 6e8f 9cbd e5c5 5dbe
000002c0: e453 23be 4cb8 8abe 904f f13d d33d 093e
000002d0: 619a 603d 998f 10bd 8ff4 4b3d 00e0 613c
000002e0: ca81 3b3d d992 bf3c 784d 493c a611 1e3d
000002f0: 7bd9 023d 13df 213d 99de 3d3d f3b7 623b
00000300: 4c07 b33c c94d 083d f17a 003d 1c88 093d
00000310: 8b48 be3b af45 013e 80de 4cbd 8202 b73b
00000320: 2501 1fbe 41f4 9e3d 084a 2cbe 3447 6bbd
00000330: ccca 29be 717a 8abd a7e1 e2bd 5a32 0fbd
00000340: f06e e7bc fc8c 6ebd 3459 c7bd e32b 88bd
00000350: c374 99bd 6ab2 21be c9d0 a8bc ad1b b4bc
00000360: 2878 82bc 845c 13be 7fed 8c3d 8131 9cbd
00000370: acbc d63d 97f7 c3bd 8001 903d 8edb a0bd
00000380: 4d6c 253d 8f12 afbd 490b e93c 03e1 94bd
00000390: a29e 0a3d 48a0 93bd 3a11 e13c d729 94bc
000003a0: f185 69bd 8d7a 76bd 609d 8a3d bc39 8fbd
000003b0: e3a2 1cbe 6e3c 89bd fbd4 dfbc 79da 58bd
000003c0: 2fe8 26bd aafe 2ebd 74a5 fa3c 7254 023d
000003d0: 9f66 b0bd 5b04 cabc 92eb 04bc 26f6 87bd
000003e0: d89e 483d 2916 d9bc 3486 a33d f613 1fbd
000003f0: 9e4f debd 4680 af3d 58a0 0ebe 95a0 823d
0.06935193 0.090095356 0.10423077 0.06301067 0.08681069 0.05552814 0.08629069 0.033529665
0.09158424 0.03510127 0.09526103 0.041919515 0.09050374 0.05288432 0.074257895 0.056049332
0.09758915 0.0523904 -0.09079489 -0.03811608 -0.075347684 -0.017820733 -0.0931651 -0.12055492
-0.013064955 -0.050651576 -0.018149683 -0.03239 -0.10693782 -0.057291485 0.005632939 -0.069897786
-0.09710173 -0.0817496 -0.05167913 -0.049414042 -0.5504646 0.053046625 -0.10294034 0.117826305
-0.279672 0.06938106 -0.21539079 0.077212885 -0.29757494 0.038719904 -0.22604069 0.050611444
-0.2653331 0.11320065 -0.32492283 0.07535 -0.43464154 -0.0015621615 0.17554025 -0.5496402
-0.20542474 -0.31848845 -0.23464458 -0.21344878 -0.17700392 -0.37330797 -0.046023954 -0.2886198
-0.06520198 -0.28746745 -0.19797842 -0.40377635 0.124872446 -0.4255282 -0.038872126 -0.22905868
-0.08635428 -0.09931741 -0.15452392 -0.098052 -0.14720614 -0.3339553 -0.15639952 -0.1380698
-0.20048527 -0.27808157 -0.1833522 -0.23925254 -0.09850264 -0.3159761 -0.17045636 -0.22515029
-0.17314614 -0.37876844 0.037694477 -0.027850745 0.09032167 -0.006633637 -0.041733563 0.082945235
-0.06353916 0.0037016443 0.0656229 -0.12725322 0.09022667 -0.12691548 0.14131445 -0.023173437
0.14419587 -0.028466882 0.2526625 -0.119386196 0.09583231 -0.037325997 0.016727762 0.12789567
-0.12072111 -0.18630823 -0.17903256 -0.0026346112 -0.13932 -0.38692906 -0.18259683 0.0005964561
-0.11195639 -0.15466549 -0.014777362 -0.27011913 -0.08630657 -0.09598422 -0.04577153 -0.046228956
-0.0440103 -0.018078832 -0.043521028 -0.021873657 -0.013593221 -0.03346031 -0.016830098 -0.02838428
-0.020884097 -0.017856156 -0.022284191 -0.040172268 -0.008800472 -0.044463027 -0.033503216 -0.03892713
0.07472722 -0.08737144 0.075874895 -0.052282073 0.14909482 -0.12725721 0.052588433 -0.052424666
0.002525581 -0.062017284 0.010781842 0.007845742 0.06512058 -0.10541608 0.017076347 -0.04673844
0.010168009 -0.17099518 -0.16824105 0.15660676 -0.22864729 -0.057758596 -0.1534306 -0.11303401
-0.31872708 0.051785544 -0.17757927 -0.118479215 0.014576945 -0.13415049 -0.076445445 -0.21657522
-0.1594997 -0.27093732 0.117827535 0.1340249 0.054834727 -0.035293195 0.049793776 0.013786316
0.045778073 0.023385452 0.012286536 0.03859105 0.031945687 0.03951938 0.046354864 0.0034594506
0.021854065 0.033277307 0.031367246 0.03357707 0.0058069876 0.12624238 -0.05001688 0.0055850158
-0.1552778 0.077614315 -0.16825116 -0.05744095 -0.16581267 -0.06761635 -0.11078196 -0.03496013
-0.028251141 -0.058239922 -0.09733811 -0.06648996 -0.07492974 -0.15790716 -0.020607369 -0.021985853
-0.015926436 -0.1439076 0.06881236 -0.076266296 0.10485205 -0.095687084 0.07031536 -0.07854377
0.040386487 -0.08548462 0.028447764 -0.0726948 0.03384269 -0.072083056 0.027474035 -0.018086357
-0.057012502 -0.060175467 0.06768298 -0.06993434 -0.15296511 -0.06700979 -0.027323237 -0.052942727
-0.04074877 -0.042723335 0.030596472 0.031818815 -0.086133234 -0.02466028 -0.008112805 -0.06638746
0.04897961 -0.026499825 0.079845816 -0.038837396 -0.108550295 0.08569388 -0.13928354 0.06378285

bias f4 [4]
00000000: a9de 183e 4057 923e d320 2f3e 6c7c 423e
0.14928688 0.2858219 0.17102365 0.18992776
