cnn_eat_flat_reward_3food.ckpt (torch, 111288 bytes, 20 tensors)

weight f4 [16, 1, 2, 5]
0	0xbb31f251	-0.0027152488
1	0xbe21df07	-0.15807734
2	0x3e1f3950	0.15549207
3	0x3d4c0a7e	0.049814694
4	0x3ee16d01	0.44028476
5	0x3d594fda	0.053054668
6	0xbe2143f8	-0.15748584
7	0x3f105eed	0.56394845
8	0x3ed4b708	0.41545892
9	0xbc116be5	-0.008875822
10	0x3f07c59b	0.53035897
11	0xbc9c9774	-0.019115187
12	0x3ceb0a54	0.028691448
13	0xbe6192ca	-0.22028652
14	0xbc652fdb	-0.01398846
15	0x3f0d7806	0.55261266
16	0xbe4da52b	-0.20082538
17	0xbcce57ea	-0.025188405
18	0x3f1702e9	0.58988816
19	0xbe393518	-0.1808666
20	0x3f0f2cfb	0.5592801
21	0xbd665496	-0.05623301
22	0xbe56fe5f	-0.20995472
23	0xbe98bd3a	-0.29831868
24	0x3e6d8dc5	0.23198612
25	0xbe60015c	-0.21875519
26	0x3e523f89	0.20532049
27	0x3eef2366	0.46706694
28	0xbe6542fe	-0.22388837
29	0xbea37b8e	-0.31930202
30	0xbece7b68	-0.40328526
31	0xbdc20d6a	-0.09475215
32	0xbdc26a8f	-0.09492981
33	0xbe67c4da	-0.22633687
34	0x3d0554c3	0.03255154
35	0x3f3ad524	0.72981477
36	0x3e209355	0.15681203
37	0x3eb50583	0.35355768
38	0x3d8c65ec	0.068553776
39	0xbbc6d3fa	-0.00606775
40	0xbe7a42c1	-0.24439527
41	0x3e80dec0	0.25169945
42	0xbde48ef2	-0.11160077
43	0xbd95b6a3	-0.07310226
44	0xbeaa64ce	-0.33280033
45	0x3ea5fb32	0.3241821
46	0xbe9bacbe	-0.3040523
47	0xbe9d13f5	-0.30679289
48	0x3f0871e9	0.53298813
49	0x3ecc215e	0.39869207
50	0x3e4ad6af	0.19808458
51	0x3f167611	0.58773905
52	0xbca27b81	-0.019834282
53	0x3f0bd759	0.5462547
54	0x3ce637f8	0.02810286
55	0x3cbf42cb	0.023347279
56	0xbb5cbcf1	-0.0033681954
57	0x3da2f79b	0.07957383
58	0x3d0714d0	0.032978833
59	0xbc51a664	-0.012796018
60	0xbe70000e	-0.23437521
61	0x3e8723e2	0.26394564
62	0xbe9356ff	-0.2877731
63	0xbbcc940a	-0.0062432336
64	0x3eaf5298	0.34242702
65	0x3e8d103a	0.27551442
66	0xbe24e735	-0.16103823
67	0xbd2844b2	-0.041081138
68	0x3ef44889	0.4771159
69	0xbe9336d2	-0.28752762
70	0xbbf8d793	-0.007594058
71	0xbea05900	-0.31317902
72	0xbde3bb1e	-0.11119674
73	0xbeaa2ae6	-0.33235854
74	0xbea67b8b	-0.3251613
75	0xbcf10a49	-0.02942385
76	0xbe526eb9	-0.2055005
77	0xbe1b19e5	-0.15146597
78	0xbe58f7c2	-0.21188262
79	0xbe8868b1	-0.26642373
80	0xbe97b21e	-0.2962808
81	0x3bfa811c	0.0076447856
82	0x3ef70c7d	0.48251715
83	0x3dad2519	0.084543414
84	0xbe767a49	-0.24070086
85	0xbe8d0bbb	-0.27548012
86	0xba05d8eb	-0.00051058707
87	0xbe1040fb	-0.14087288
88	0xbe4f7d67	-0.20262681
89	0x3e853fec	0.2602533
90	0x3ee03978	0.43793845
91	0xbe8b0320	-0.27150822
92	0xbe05c292	-0.13062504
93	0xbe27c2b8	-0.16382873
94	0x3d67bb87	0.056575324
95	0x3ee4d519	0.4469383
96	0xbe5e2e53	-0.21697359
97	0x3c81941c	0.015817694
98	0xbd57d34d	-0.052691747
99	0x3e1ddbb8	0.15415847
100	0x3e1c4dc8	0.15264046
101	0x3eac55c6	0.3365919
102	0x3e7c5918	0.24643362
103	0xbc9cf643	-0.019160395
104	0x3f0c6bd4	0.5485203
105	0xbe016792	-0.12637165
106	0x3f0d9d72	0.5531837
107	0xbd184df5	-0.03718372
108	0xbe882cf4	-0.26596797
109	0xbc48b617	-0.012250445
110	0x3e713437	0.23555075
111	0x3ea50c9e	0.3223619
112	0xbe8c894e	-0.27448505
113	0x3b526836	0.0032105572
114	0xbbad45b8	-0.005287852
115	0xbe8052c6	-0.2506315
116	0xbea20c66	-0.31650084
117	0xbe226f6e	-0.1586282
118	0xbead112d	-0.33802167
119	0x3d39ee69	0.04539338
120	0xbe8f2c5b	-0.27963528
121	0x3f232499	0.6372772
122	0x3d07d11e	0.033158414
123	0xbda3022f	-0.07959401
124	0x3f19a1e1	0.6001263
125	0xbe561402	-0.2090607
126	0xbe85f2f0	-0.2616191
127	0x3dbb7d74	0.09154788
128	0xbda03847	-0.07823234
129	0xbe4df4fc	-0.20112985
130	0xbcbc4f00	-0.022986889
131	0xbd86f701	-0.06590081
132	0x3cd4d394	0.025979795
133	0x3da5da00	0.08098221
134	0xbe1b6bf2	-0.15177897
135	0x3f2f8405	0.6856082
136	0xbdd47a7b	-0.10374924
137	0xbe61a805	-0.2203675
138	0xbe505e81	-0.2034855
139	0x3f63b0ef	0.88941854
140	0xbe7430c9	-0.23846735
141	0xbdec5a4e	-0.11540662
142	0x3e337edb	0.1752886
143	0xbd130118	-0.035889715
144	0xbe45d630	-0.19319987
145	0x3dd8028b	0.1054736
146	0xbe0b449f	-0.13600396
147	0xbbdecbd6	-0.0067992015
148	0xbe177e78	-0.14794338
149	0x3e9be46e	0.30447716
150	0x3df3400a	0.11877449
151	0x3ee1e2bf	0.44118306
152	0x3f0c60a8	0.54834986
153	0xbc2908d5	-0.010317047
154	0xbd6ce5b6	-0.057836257
155	0x3e1206a5	0.14260347
156	0x3dd07c47	0.10179954
157	0x3e2bf6a2	0.16793302
158	0x3d36cf2a	0.04463116
159	0x3cf80c93	0.030279433

bias f4 [16]
0	0x3d8426f6	0.06452744
1	0xbee633db	-0.44961438
2	0xbe6f72a0	-0.2338357
3	0x3deba782	0.11506559
4	0x3d28a57e	0.04117345
5	0xbcf1004b	-0.029419085
6	0xbdf78bc5	-0.12087206
7	0x3bd63129	0.006536622
8	0x3e27cdd5	0.16387112
9	0x3ec43507	0.38321707
10	0xbe948480	-0.2900734
11	0xbe707a31	-0.23484112
12	0x3e1062c7	0.1410018
13	0x3d857870	0.06517112
14	0x3edfe5e8	0.43730092
15	0xbe98fd4b	-0.29880747

weight f4 [16]
0	0x3fa0f98c	1.2576156
1	0x3fa6d191	1.3032705
2	0x3f942550	1.1573887
3	0x3f9f86ec	1.246305
4	0x3f904c07	1.1273202
5	0x3fa4b87a	1.2868798
6	0x3f96bcfc	1.1776423
7	0x3f8156c4	1.0104604
8	0x3f90d9b9	1.1316444
9	0x3f8fba0e	1.1228654
10	0x3fa6d022	1.3032267
11	0x3f8db54c	1.1070952
12	0x3fa22d2a	1.2670033
13	0x3fa5f2e9	1.2964755
14	0x3f8d1ff2	1.1025374
15	0x3f9ca1db	1.2236894

bias f4 [16]
0	0xbe1ef96a	-0.15524831
1	0xbe708c5d	-0.23491044
2	0xbe8f8ffb	-0.28039536
3	0xbd099e37	-0.03359815
4	0xbe035b6b	-0.12827842
5	0xbdb99a74	-0.09062663
6	0xbdb378fb	-0.087633096
7	0xbd91e148	-0.07123047
8	0xbc12148e	-0.008916033
9	0x3df3f739	0.11912388
10	0xbe5b1d25	-0.21397837
11	0xbdca918b	-0.09891041
12	0xbcd42b09	-0.025899427
13	0xbe429635	-0.19002612
14	0x3e02e522	0.1278272
15	0xbe1f2892	-0.1554282

running_mean f4 [16]
0	0x3cad75f5	0.02117441
1	0xbc7d904d	-0.0154762985
2	0x3c091707	0.008367307
3	0x3c8057ff	0.01566696
4	0x3c9a6932	0.01884899
5	0x3b0b95be	0.002129897
6	0xbad67e6e	-0.0016364583
7	0x3c8bf89f	0.017086325
8	0x3c709682	0.014684321
9	0x3d1515d1	0.03639776
10	0xbc46c6ab	-0.012132327
11	0xbc0783ca	-0.008271167
12	0x3c52c603	0.0128645925
13	0x3cfd15e3	0.030894225
14	0x3d06b765	0.032889742
15	0xbc963f6f	-0.018340794

running_var f4 [16]
0	0x3f6ea354	0.9321797
1	0x3f7e6348	0.9937024
2	0x3f80294a	1.00126
3	0x3f7783aa	0.9668528
4	0x3f80f8d1	1.0075933
5	0x3f6f263f	0.93417734
6	0x3f763063	0.9616758
7	0x3f82b2be	1.0210798
8	0x3f7814cf	0.9690675
9	0x3f77d214	0.9680493
10	0x3f7d999a	0.990625
11	0x3f7e04a3	0.99225825
12	0x3f7ae2b5	0.9800218
13	0x3f7c584c	0.9857223
14	0x3f711c32	0.9418365
15	0x3f7517dd	0.9573954

weight f4 [64, 16, 2, 5]
0	0x3cd5a855	0.026081244
1	0x3dc2f286	0.09518914
2	0x3de48e1b	0.11159917
3	0x3de31807	0.11088567
4	0xbd411835	-0.047142226
5	0x3b842c1b	0.004033578
6	0x3d8a0037	0.06738322
7	0x3d1281e2	0.035768397
8	0xbdd672f4	-0.10471144
9	0xbc446225	-0.01198629
10	0xbdc9203f	-0.098206036
11	0xbdd44a5d	-0.10365746
12	0xba5cdb30	-0.00084249955
13	0x3d659aa9	0.0560557
14	0x3d12512e	0.03572195
15	0xbbed79c5	-0.007247182
16	0xbc0db340	-0.008648694
17	0x3d77210b	0.060334247
18	0x3d7daf8b	0.06193499
19	0xbc3c5fff	-0.011497497
20	0xbe6f7399	-0.23383941
21	0xbdc7b3b3	-0.09751072
22	0xbd90a45d	-0.070626
23	0xbc1b41f1	-0.009476171
24	0xbdd51d2b	-0.10405954
25	0xbe1bb05e	-0.15203997
26	0x3d37d6c9	0.04488257
27	0x3d8473b8	0.06467384
28	0xbd967c82	-0.07347967
29	0xbc21ba54	-0.009871084
30	0xbd6bf647	-0.057607915
31	0xbd817393	-0.06320872
32	0xbdec34b2	-0.11533488
33	0xbd9efac5	-0.07762674
34	0xbc0b904c	-0.00851829
35	0x3e08c500	0.133564
36	0x3d4afb12	0.049555846
37	0x3d51190f	0.05104929
38	0x3bcc023f	0.0062258537
39	0xbceae516	-0.02867369
40	0xbd13c5f5	-0.03607746
41	0x3c352777	0.011056772
42	0xbe099952	-0.13437393
43	0x3ad201f9	0.0016022316
44	0xbe2dbf6b	-0.16967551
45	0xbc7a2817	-0.015268347
46	0x3d8b10a8	0.06790286
47	0x3cdb6849	0.026783125
48	0xbc609fe5	-0.013709997
49	0xbcca33a4	-0.024682827
50	0x3c2be1dd	0.010490862
51	0xbdac7461	-0.08420635
52	0x3da5e94d	0.08101139
53	0x3d1d005f	0.038330432
54	0x3d1a6c50	0.03770095
55	0x3d9aa59b	0.07551118
56	0x3db26aa3	0.087117456
57	0x3d890b79	0.06691641
58	0xbded0140	-0.11572504
59	0xbd211115	-0.03932293
60	0x3d3e0530	0.046391666
61	0xbd58ea58	-0.052957863
62	0xbd0453c2	-0.03230644
63	0x3b9fe431	0.0048794975
64	0x3e1a0608	0.15041363
65	0x3d8b49e9	0.068012066
66	0x3bff560b	0.0077922395
67	0x3da1a5be	0.07892941
68	0xbddf923e	-0.10916565
69	0xbe1aed80	-0.15129662
70	0xbb8d8b6a	-0.004319598
71	0x3db71efe	0.08941458
72	0x3d160ae3	0.036631476
73	0x3db22b7a	0.08699699
74	0x3dde71fe	0.10861586
75	0x3d85aafb	0.065267526
76	0x3bd7bc9c	0.0065837633
77	0xbcb0ed54	-0.021597542
78	0xbb0ffdc0	-0.0021971315
79	0x3deec517	0.11658686
80	0x3d3cb89d	0.0460745
81	0x3cdd9c32	0.027052019
82	0x3ca33f56	0.019927662
83	0x3cc3469b	0.023837378
84	0x3ba0a461	0.004902408
85	0x3d6f789f	0.058464643
86	0x3cc1162d	0.023570145
87	0xbda589e6	-0.08082943
88	0xbc5e119e	-0.013554005
89	0xb90cef88	-0.00013440673
90	0xbbdfce2f	-0.006829999
91	0xbe0e5d08	-0.13902676
92	0x3d606898	0.05478725
93	0xbcf22458	-0.029558346
94	0x3e010fe0	0.12603712
95	0xbd1c2f8d	-0.038131285
96	0xbd12075a	-0.035651542
97	0xbc7b6cd3	-0.01534577
98	0xbb769252	-0.0037623835
99	0xbc8ca696	-0.017169278
100	0x3e0570c2	0.13031295
101	0x3dc5197a	0.09624
102	0xbdc99d27	-0.098444276
103	0x3c43ba23	0.011946234
104	0x3d39ee8f	0.045393523
105	0x3cea6386	0.02861191
106	0xbd179f8c	-0.03701739
107	0xbd1708bf	-0.036873575
108	0xbd4f194f	-0.050561246
109	0xbe36adfe	-0.1783981
110	0xbd038c22	-0.032116063
111	0x3d6001fc	0.054689392
112	0x3cf23f29	0.029571133
113	0xbd26fd6f	-0.040769037
114	0x3a9a6abc	0.0011781077
115	0xbceadc19	-0.028669404
116	0x3d24978c	0.04018359
117	0xbd2da916	-0.04239758
118	0x3d71358f	0.058888968
119	0x3d208b4d	0.039195348
120	0x3dbf2b89	0.093344755
121	0xbe00aaf3	-0.12565212
122	0x3a81f28d	0.0009914205
123	0xbb3f768e	-0.0029214951
124	0xbd3e7f70	-0.046508253
125	0xbbb219b7	-0.0054351944
126	0xbdbc70f5	-0.09201232
127	0x3e025d71	0.12730958
128	0x3d6d520a	0.057939567
129	0xbc382c8b	-0.011241089
130	0x3c665a40	0.014059603
131	0xbc739323	-0.014866623
132	0xbdda2b8d	-0.10652838
133	0x3c84fd72	0.016234133
134	0xbd910b66	-0.07082252
135	0x3ceb4ebc	0.028724067
136	0x3b25e86f	0.0025315543
137	0x3d048b7e	0.032359593
138	0x3dddc81a	0.10829182
139	0x3db6f700	0.0893383
140	0x3d20d5f9	0.03926656
141	0xbcf7b675	-0.03023837
142	0xbe33e7bc	-0.17568868
143	0xbd2f0a49	-0.042734418
144	0x3c5ec3bb	0.0135964705
145	0x3bcce545	0.006252917
146	0xbcf89e8f	-0.030349044
147	0xbd85e8e3	-0.0653856
148	0x3df5dcc0	0.12004995
149	0x3d8695d5	0.06571547
150	0xbbf6463b	-0.0075156963
151	0xbdc5acef	-0.09652125
152	0xbe168714	-0.14699966
153	0xbd1090e9	-0.035294447
154	0x3d71c923	0.05902971
155	0xbd97fbe7	-0.074210934
156	0x3d843497	0.06455343
157	0xbc855431	-0.016275497
158	0xbdb475b6	-0.08811514
159	0xbd7da550	-0.061925232
160	0xbcef7392	-0.029229913
161	0x3c7312b9	0.014836007
162	0x3c9ca0b7	0.019119604
163	0xbd56efab	-0.05247466
164	0xbd5ae8b5	-0.053444583
165	0x3d122d7c	0.03568791
166	0xbe158c81	-0.14604379
167	0xbc42f116	-0.0118983
168	0xbe2903e4	-0.1650539
169	0xbdfafd9e	-0.12255405
170	0x3d9cb374	0.076514155
171	0x3d040f4f	0.032241162
172	0x3c8f8676	0.01752017
173	0x3da0dcdc	0.078546256
174	0xbc3e81e9	-0.011627653
175	0xbcf6b2f5	-0.03011463
176	0xbddab532	-0.106790915
177	0x3c6549d5	0.013994654
178	0x3d78e186	0.06076195
179	0x3c37902f	0.01120381
180	0x3dac6c7b	0.084191285
181	0x3d8e3ae1	0.06944824
182	0x3d81c69c	0.0633671
183	0x3cc4a0a5	0.024002383
184	0x3ca58299	0.020203875
185	0x3c12753f	0.008939086
186	0xbd813969	-0.06309778
187	0xbb272eec	-0.0025510145
188	0x3c9b5b9a	0.018964577
189	0xbc987bd6	-0.018613737
190	0xbd1ad722	-0.037802823
191	0x3d88a873	0.06672754
192	0xbba0abc5	-0.004903289
193	0x3c8e599d	0.017376715
194	0x3d8d6ff6	0.069061205
195	0x3d72fed6	0.05932506
196	0xbe5fa6f7	-0.21841036
197	0xbce62152	-0.02809206
198	0xbe049cf6	-0.12950501
199	0xbe967c36	-0.2939164
200	0x3e6564bb	0.22401707
201	0x3c01e99f	0.007929235
202	0xbaa732b6	-0.0012756202
203	0x3d8e92f6	0.06961624
204	0xbd87d1b3	-0.06631794
205	0xbe0cf4f4	-0.13765317
206	0x3dbc2b53	0.09187951
207	0xbdad02e7	-0.08447819
208	0xbd087722	-0.03331674
209	0x3cf3549b	0.029703429
210	0x3d19c5d5	0.037542183
211	0x3d09a35b	0.033603054
212	0x3da1c0dc	0.07898113
213	0x3d64463a	0.055731036
214	0xbd56009b	-0.05224667
215	0xba05bcf4	-0.00051017036
216	0x3d6eea73	0.058329057
217	0xbca7ee61	-0.02049941
218	0x3cfc3862	0.030788604
219	0xbe212276	-0.15735802
220	0x3d7ccb68	0.06171742
221	0x3d9faa0c	0.07796106
222	0x3da6b7af	0.081405036
223	0x3ddabc6f	0.10680472
224	0xbd78f3fa	-0.06077955
225	0x3bea62c3	0.0071528866
226	0x3d035dbe	0.03207182
227	0xbc67e0ac	-0.014152687
228	0xbd541f9d	-0.05178796
229	0xbce3ef98	-0.027824208
230	0xbdd0c2f3	-0.101934336
231	0x3c0ff5b5	0.008786608
232	0xbd766b9b	-0.060161214
233	0xbd023d28	-0.031796604
234	0xbd9633c0	-0.07334089
235	0xbd82e6f0	-0.06391704
236	0x3dc713ac	0.09720549
237	0x3d221106	0.039567016
238	0x3cf99b04	0.030469425
239	0x3d942f72	0.07235612
240	0x3dd39797	0.10331648
241	0xbc240bfb	-0.010012622
242	0xbd8b3d67	-0.06798821
243	0xbba5bd42	-0.0050579617
244	0xbdfe1f39	-0.12408299
245	0x3d6f08f6	0.058358155
246	0x3d762492	0.06009347
247	0x3d890370	0.06690109
248	0x3d3a26f4	0.045447305
249	0xbcaa5eed	-0.020797217
250	0xbd817352	-0.06320824
251	0xbdc2ca07	-0.0951119
252	0xbb5057ea	-0.0031790682
253	0xbdab305e	-0.08358835
254	0x3cabb8e7	0.020962192
255	0xbd708b93	-0.05872686

bias f4 [64]
0	0x3d2b76a2	0.041861184
1	0xbcb9cb63	-0.02267999
2	0xbc882865	-0.016620824
3	0xbd118008	-0.03552249
4	0x3df04590	0.11732018
5	0xbd4ed406	-0.05049517
6	0xbdd86de2	-0.105678335
7	0x3dd81e46	0.10552649
8	0xbd7b271a	-0.061316587
9	0xbad20693	-0.0016023688
10	0xbbee1ee3	-0.0072668656
11	0xbc4623d8	-0.012093507
12	0xbc6f1e77	-0.014594666
13	0xbd6c6a9f	-0.05771887
14	0x3b82779a	0.003981543
15	0xbd0c938a	-0.03432039
16	0x3dd60638	0.10450405
17	0xbd29dccb	-0.04147033
18	0x3ce40dca	0.027838606
19	0xbd1ec454	-0.03876145
20	0xbe3e1d0a	-0.18565765
21	0xbdb1ddcd	-0.08684883
22	0x3d221e5b	0.03957973
23	0xbe0a82ef	-0.1352651
24	0x3d129b05	0.03579237
25	0x3d844a61	0.06459499
26	0xbdd1a9d1	-0.10237468
27	0xbdb2de44	-0.087338
28	0xbe536a7f	-0.20646094
29	0xbd6ebbfa	-0.058284737
30	0xbd21e81f	-0.03952801
31	0x3de781d5	0.1130406
32	0xbe1681e7	-0.14697991
33	0xbe0238f8	-0.12717044
34	0xbe01174f	-0.12606548
35	0x3d58ea27	0.05295768
36	0xbe02b9a6	-0.12766132
37	0x3d6f1d22	0.058377393
38	0xbd92aaa9	-0.07161457
39	0xbd4dda16	-0.05025681
40	0xbea96015	-0.33081117
41	0x3c208169	0.009796479
42	0xbdadc9cb	-0.084857546
43	0xbd2ffc5f	-0.04296529
44	0x3da89081	0.08230687
45	0xbe562be2	-0.20915177
46	0xbc0ab7c0	-0.008466661
47	0xbd515830	-0.051109493
48	0xbe31a568	-0.17348254
49	0xbb481ba3	-0.003053405
50	0xbe049971	-0.12949158
51	0xbce3f675	-0.02782748
52	0x3c918bef	0.01776692
53	0xbc73dc53	-0.014884072
54	0xbde405fa	-0.111339524
55	0xbe197c55	-0.14988835
56	0x3da81705	0.082075156
57	0xbd332cde	-0.04374396
58	0xbce7ba21	-0.028286995
59	0x3c13d528	0.009022988
60	0xbd8f1acb	-0.06987532
61	0x3e0bc7b1	0.13650395
62	0x3d1f2d57	0.0388616
63	0xbe29cc52	-0.16581848

weight f4 [64]
0	0x3f8c52af	1.0962733
1	0x3f8fb4c7	1.1227044
2	0x3f93f062	1.1557734
3	0x3f950c4b	1.1644377
4	0x3f89c004	1.0761724
5	0x3f89fe49	1.0780727
6	0x3fbfed6f	1.4994334
7	0x3f9ae584	1.2101293
8	0x3f9558aa	1.1667683
9	0x3f92cb57	1.1468304
10	0x3f9dad7d	1.231857
11	0x3f91708e	1.1362474
12	0x3f9100c6	1.1328361
13	0x3f969b04	1.1766057
14	0x3f8c81c0	1.0977097
15	0x3f9cc0f4	1.2246385
16	0x3f92996a	1.1453068
17	0x3f99edc5	1.2025687
18	0x3f887367	1.0660218
19	0x3f9ecdd2	1.2406561
20	0x3f8e53c9	1.1119319
21	0x3f861cd1	1.0477544
22	0x3fa01ca6	1.2508743
23	0x3f9634b3	1.1734833
24	0x3f99c62f	1.2013606
25	0x3f9a3d6b	1.2049993
26	0x3f9d37f9	1.2282706
27	0x3f99a36c	1.2002997
28	0x3f985be4	1.1903043
29	0x3f896745	1.073464
30	0x3f93857e	1.1525114
31	0x3f8f6cb3	1.1205047
32	0x3f93c6b1	1.1545011
33	0x3f89fde4	1.0780606
34	0x3f986fc2	1.1909106
35	0x3f92f6ca	1.1481564
36	0x3f8dea7f	1.1087188
37	0x3f9bf671	1.2184583
38	0x3f88d7b4	1.0690827
39	0x3f995c74	1.198134
40	0x3fcac65e	1.5841787
41	0x3f9eb9fe	1.240051
42	0x3f8882b6	1.066489
43	0x3f8b6469	1.0890018
44	0x3fb2fd4c	1.398355
45	0x3f953027	1.165532
46	0x3f99c3a9	1.2012836
47	0x3f941437	1.1568669
48	0x3f989589	1.1920635
49	0x3f964c01	1.1741945
50	0x3f976939	1.1828986
51	0x3f8aa35f	1.0831107
52	0x3f8ec5e1	1.1154138
53	0x3f9f08fd	1.2424618
54	0x3fa2a614	1.2706933
55	0x3f94b040	1.1616287
56	0x3f89173c	1.0710216
57	0x3fb00b2d	1.375341
58	0x3f92653e	1.1437147
59	0x3f93657e	1.1515348
60	0x3f914846	1.1350181
61	0x3f8ba17a	1.0908654
62	0x3f8a9149	1.0825588
63	0x3fdfd4c3	1.7486805

bias f4 [64]
0	0x3b54b1c9	0.00324546
1	0xbd1cec7d	-0.03831147
2	0xbd122857	-0.035683002
3	0xbdb61c31	-0.08892096
4	0x3d78094f	0.060555752
5	0xbd6a3172	-0.05717606
6	0xbe1edb66	-0.15513381
7	0x3da927fe	0.08259581
8	0xbe04c0ad	-0.12964125
9	0xbd52c99d	-0.051461805
10	0x3c13bd08	0.0090172365
11	0x3d33a1f7	0.043855634
12	0x3c324cb6	0.010882547
13	0xbc1b2396	-0.009468934
14	0x3c36a46f	0.011147602
15	0xbdd5a1af	-0.10431229
16	0x3cd59a5a	0.026074577
17	0xbcd358aa	-0.025799114
18	0x3d14f3d5	0.03636535
19	0x3cc3cd61	0.023901643
20	0xbddae928	-0.10689002
21	0xbd8d37aa	-0.06895383
22	0x3bf91e12	0.0076024616
23	0xbd81bfb8	-0.063353956
24	0xbd12fc53	-0.035885166
25	0x3d2af19e	0.04173433
26	0xbccdc82e	-0.025119867
27	0xbd2a7774	-0.041617826
28	0xbe25b228	-0.16181242
29	0xbc267e9d	-0.010162023
30	0xbcd6b7c6	-0.026210677
31	0x3d42b0cc	0.047531888
32	0xbe079afc	-0.13242716
33	0xbd935bf2	-0.071952716
34	0xbdd63cea	-0.10460837
35	0x3d4c368a	0.0498567
36	0xbde81896	-0.113328144
37	0xbc7ca83b	-0.015420969
38	0xbd54ccdd	-0.051953185
39	0xbd30c21f	-0.04315388
40	0xbe8eec67	-0.27914736
41	0xbc098e5b	-0.008395757
42	0xbddb58b0	-0.10710275
43	0xbd38e57d	-0.045140732
44	0x3c11d820	0.008901626
45	0xbe063681	-0.13106729
46	0xbd9bd378	-0.07608694
47	0xbcce8cf6	-0.0252137
48	0xbe0faa8d	-0.14029904
49	0xbd7194c3	-0.05897976
50	0xbd8d1b89	-0.068900175
51	0xbcc5c253	-0.024140513
52	0xbc02d075	-0.00798427
53	0x3bdc1019	0.006715786
54	0xbdbc41c8	-0.09192234
55	0xbdcf288c	-0.101151556
56	0x3c6067ca	0.01369662
57	0xbd44df88	-0.04806474
58	0xbd679f97	-0.05654868
59	0xbbc654f1	-0.0060526063
60	0xbc65adf6	-0.014018526
61	0x3d9134e8	0.07090169
62	0xbcde62df	-0.027146755
63	0xbe652e69	-0.22380985

running_mean f4 [64]
0	0x3d0e8e46	0.03480365
1	0xbd02b012	-0.031906195
2	0x3cbe5405	0.023233423
3	0x3b81c010	0.003959663
4	0x3a81233b	0.0009852418
5	0x3c84a7b8	0.016193256
6	0xbc8b6281	-0.017014744
7	0x3bb28d40	0.005448967
8	0x3c15874e	0.009126497
9	0x3ca56d4a	0.020193715
10	0xbc993cea	-0.018705804
11	0xbc48cd96	-0.012256047
12	0xbd53836d	-0.05163901
13	0xbbe15ef2	-0.0068777734
14	0xbcbc416e	-0.022980418
15	0xbc70b0a3	-0.014690551
16	0x3bd0037e	0.0063480726
17	0xb953a1a2	-0.00020182741
18	0xbb243064	-0.0025053257
19	0xbc9303b1	-0.017946096
20	0xbb36f3b4	-0.0027916254
21	0x3d1fbd90	0.03899914
22	0xba8eda51	-0.0010898804
23	0xbc3be145	-0.011467283
24	0x3cf96ff2	0.030448887
25	0x3cf0a598	0.029375836
26	0xbc8c97d0	-0.017162234
27	0xbb88485f	-0.004159018
28	0x3ca5acad	0.02022394
29	0xbc20b60c	-0.009809028
30	0x3ce0abcb	0.027425667
31	0x3d665948	0.05623749
32	0x3d200e40	0.03907609
33	0x3b90713e	0.004408031
34	0x3c0b9520	0.008519441
35	0x3a6e9888	0.00091017084
36	0xbcf74a2d	-0.030186737
37	0x3b9fdfb9	0.0048789647
38	0x3a9b7d12	0.0011862835
39	0xbd052b26	-0.032511853
40	0xbbfeeea0	-0.007779911
41	0xbc88f70f	-0.01671937
42	0x3c5a1575	0.01331078
43	0x3bcea085	0.0063057565
44	0x3cd3553e	0.025797483
45	0x3c489f2d	0.012244982
46	0x3c92a3d1	0.01790038
47	0xbc5810f6	-0.013187638
48	0xbc0d6cb7	-0.008631877
49	0x37dd51b8	2.6383306e-05
50	0x3c2c4bca	0.010516116
51	0xbcacae6c	-0.021079265
52	0x3c401092	0.011722701
53	0x3b73e850	0.0037217326
54	0x3b45200e	0.003007892
55	0xbc0bb797	-0.008527658
56	0x3c9a3e9e	0.018828686
57	0x3cac7546	0.021052014
58	0x3cce49ce	0.025181677
59	0x3cef8823	0.02923972
60	0x3c698c9a	0.014254713
61	0x3c99890b	0.018742105
62	0x3cba583c	0.022747152
63	0x3ba6582a	0.005076428

running_var f4 [64]
0	0x3f6b1d10	0.9184122
1	0x3f6fb71d	0.93638784
2	0x3f6c018d	0.92189866
3	0x3f6a3b3b	0.9149663
4	0x3f68b2e1	0.9089795
5	0x3f6c08b9	0.9220081
6	0x3f6b62a1	0.9194737
7	0x3f693deb	0.91110104
8	0x3f6a9132	0.916278
9	0x3f6a070b	0.91416997
10	0x3f6b8ee5	0.92014915
11	0x3f69ec99	0.91376644
12	0x3f6f7532	0.935382
13	0x3f6a128e	0.9143456
14	0x3f6c67eb	0.92346066
15	0x3f69a583	0.91268176
16	0x3f68e101	0.9096833
17	0x3f67f004	0.9060061
18	0x3f69bd10	0.9130411
19	0x3f6a5416	0.91534555
20	0x3f69d38e	0.9133843
21	0x3f6d5df1	0.9272147
22	0x3f698b85	0.91228515
23	0x3f69ff1f	0.9140491
24	0x3f6a8cbe	0.91621006
25	0x3f6af141	0.91774374
26	0x3f6a1a2a	0.91446173
27	0x3f6a42f3	0.91508406
28	0x3f6b84d0	0.9199953
29	0x3f6be070	0.9213934
30	0x3f6cfb31	0.9257079
31	0x3f6db7aa	0.92858374
32	0x3f6be96f	0.92153066
33	0x3f6ae211	0.917512
34	0x3f69eb20	0.913744
35	0x3f6b9c35	0.9203523
36	0x3f6be437	0.92145103
37	0x3f6a41ab	0.9150645
38	0x3f6a0ef8	0.9142909
39	0x3f6bf674	0.9217293
40	0x3f68a6ce	0.90879524
41	0x3f6a2f54	0.91478467
42	0x3f68d511	0.90950114
43	0x3f685e5d	0.90768987
44	0x3f6a0a30	0.91421795
45	0x3f69d002	0.9133302
46	0x3f68ee90	0.9098902
47	0x3f6a5661	0.91538054
48	0x3f687c74	0.908149
49	0x3f69ea26	0.9137291
50	0x3f681b5f	0.90666765
51	0x3f6bc8c6	0.9210323
52	0x3f6a9d13	0.91645926
53	0x3f69ea0e	0.91372764
54	0x3f6a6107	0.915543
55	0x3f6a9ed9	0.9164863
56	0x3f6b38b7	0.91883415
57	0x3f6a6280	0.9155655
58	0x3f6b5b59	0.9193626
59	0x3f6b3fcd	0.9189423
60	0x3f699bba	0.91253245
61	0x3f6cab24	0.9244864
62	0x3f6a08ec	0.91419864
63	0x3f69fbe6	0.9139999

weight f4 [32, 64, 2, 3]
0	0xbd4d40d1	-0.050110642
1	0xbd1add9d	-0.037809003
2	0xbd009319	-0.031390283
3	0xbba71353	-0.005098739
4	0x3cbf89fb	0.023381224
5	0x3da92a6a	0.08260043
6	0xbd22e7af	-0.039771732
7	0x3d7c2b2b	0.061564606
8	0x3d80178c	0.06254491
9	0x3dc4984e	0.09599362
10	0x3d67262c	0.056432888
11	0x3e031c9e	0.12803885
12	0x3d600609	0.054693256
13	0x3ce55bb8	0.027997836
14	0xbce17e73	-0.027526116
15	0xbd949f67	-0.07256966
16	0xbd8992fb	-0.067174874
17	0x3cb53e8d	0.022124553
18	0xbe20f34b	-0.15717809
19	0xbd1d1cad	-0.038357425
20	0xbdc2290d	-0.09480486
21	0xbd934dc3	-0.07192566
22	0xbbb1911c	-0.0054189097
23	0x3d3b12da	0.045672275
24	0x3d3c5b97	0.045985784
25	0x3b73fe46	0.0037230416
26	0x3bb65b8b	0.005565112
27	0x3db4e667	0.08833008
28	0xbd56f3a4	-0.052478448
29	0x3d8e9758	0.0696246
30	0xbdcf5bb4	-0.10124913
31	0xbe2bd05f	-0.16778706
32	0xbd25315c	-0.040330276
33	0x3c0836e1	0.008313865
34	0xbcd01ceb	-0.025404414
35	0xbd5f66f9	-0.05454156
36	0x3d01ac03	0.031658184
37	0x3de1d0b6	0.110261366
38	0xbc4f0197	-0.012634656
39	0xbebaaa63	-0.3645812
40	0xbe22e408	-0.159073
41	0xbd47cec7	-0.048781183
42	0x3cf33922	0.029690329
43	0x3d0820f3	0.033234548
44	0x395cf99f	0.00021073826
45	0xbd9b4b5c	-0.07582733
46	0xbd8e015f	-0.06933855
47	0xbce429b1	-0.027851911
48	0xbd3cdbe8	-0.046108156
49	0xbca4e5c0	-0.020129085
50	0x3d66810b	0.05627541
51	0x3bbce5ef	0.005764715
52	0x3dc9a500	0.098459244
53	0x3c6902e7	0.014221883
54	0x3d8f2dc5	0.06991152
55	0x3dac1269	0.08401949
56	0x3dcc6f95	0.0998222
57	0x3ce97fab	0.02850326
58	0x3d7f5b59	0.062342975
59	0x3d4f15e1	0.050557975
60	0xbd5e06ea	-0.054205813
61	0x3ba5bf0c	0.005058175
62	0x3c4c5cb7	0.012473277
63	0x3db29764	0.08720282
64	0xbd915a31	-0.07097281
65	0xbce97176	-0.028496485
66	0x3db635ad	0.088969566
67	0x3d597741	0.053092245
68	0x3d16b7ee	0.036796503
69	0xbd9369e1	-0.07197929
70	0x3d2d8a28	0.042368084
71	0xbccf5d4c	-0.025313042
72	0x3d1cb191	0.038255278
73	0xbdaa8dac	-0.08327803
74	0xbd9c9f5b	-0.07647582
75	0x3ccaaed3	0.024741566
76	0xbb69a787	-0.0035652833
77	0xbc964995	-0.018345634
78	0xbd331aba	-0.04372666
79	0x3da067b7	0.07832282
80	0xbc62169a	-0.013799334
81	0x3d910766	0.07081489
82	0xbc149893	-0.00906958
83	0xbe031da1	-0.12804271
84	0xbd49f50c	-0.04930596
85	0x3d7df81b	0.06200419
86	0x3c26ab31	0.010172651
87	0x3c5e7541	0.01357776
88	0x3c803ebf	0.01565492
89	0xbd1e9a13	-0.038721155
90	0x3b8e355b	0.0043398566
91	0xbde81c5b	-0.113335334
92	0xbd31455d	-0.04327904
93	0xbde6ecd5	-0.11275641
94	0xbd9d3cfa	-0.07677646
95	0xbb8f6ea5	-0.0043772035
96	0xbd00cf8d	-0.031447936
97	0x3d39fc33	0.04540653
98	0x3c9ebc01	0.019376757
99	0x3d8eabcf	0.06966364
100	0xbd31540e	-0.04329305
101	0xbc21d8c5	-0.009878342
102	0xbcd03a7d	-0.025418514
103	0x3d5254b0	0.051350296
104	0xbbd58793	-0.006516406
105	0x3c750937	0.01495581
106	0xbd891df6	-0.06695168
107	0xbd18c9b2	-0.037301727
108	0x3bfd9dc3	0.007739754
109	0x3c1c615b	0.009544696
110	0xbe0cedc3	-0.13762574
111	0x3db45a5f	0.088062994
112	0x3cfdc29b	0.030976584
113	0xbe04c02a	-0.1296393
114	0x3d9cd459	0.076576896
115	0x3ca7739a	0.020440865
116	0x3da347f6	0.0797271
117	0xbe3ab26d	-0.18232127
118	0x3e1d3555	0.15352376
119	0x3c860542	0.016359929
120	0xbd9dc84f	-0.077042215
121	0xbdbcbdfa	-0.09215923
122	0xbd9e2d82	-0.07723524
123	0x3ca5f3b4	0.020257808
124	0xbd8ca75b	-0.06867858
125	0xbd07c1d5	-0.033143837
126	0xbe142b98	-0.14469755
127	0xbdb570ad	-0.08859382
128	0xbe0ed715	-0.13949235
129	0xbbd567cf	-0.006512619
130	0x3dadd6ee	0.0848826
131	0x3ce82579	0.02833818
132	0xbe61442e	-0.21998665
133	0x3c756f6a	0.014980176
134	0xbe12b74c	-0.14327735
135	0x3d809b03	0.06279566
136	0xbb61ff9a	-0.0034484626
137	0x3a982042	0.0011606293
138	0xbd7d4774	-0.06183572
139	0x3da406c7	0.08009105
140	0x3ac81f6d	0.0015268155
141	0x3dd8de2c	0.10589251
142	0x3d8d3d0c	0.068964094
143	0x3de7ff5b	0.11328002
144	0xbdb5477d	-0.08851526
145	0xbe0e5156	-0.13898215
146	0xbd23d067	-0.03999367
147	0xbc5f0525	-0.013612066
148	0x3ce65528	0.028116778
149	0x3b99fa19	0.0046990034
150	0x3d80d1e5	0.06290034
151	0x3cefbe7f	0.02926564
152	0x3c5bd602	0.013417723
153	0xbce35c73	-0.027754044
154	0x3e075515	0.1321605
155	0xbe2f7df2	-0.17137888
156	0xbe2ae33d	-0.16688247
157	0x3c802f55	0.01564757
158	0xbd247bee	-0.04015725
159	0xbe85a80a	-0.26104766
160	0x3b3b8f8c	0.0028619496
161	0x3dbf893f	0.093523495
162	0x3d55466a	0.052069105
163	0x3cba61d0	0.022751719
164	0xbd101082	-0.035171993
165	0x3cb9d6ef	0.022685496
166	0x3d6af939	0.057366583
167	0x3dccfd34	0.10009232
168	0x3cd4c941	0.025974872
169	0xbc6ed5a3	-0.014577302
170	0x3d5a8fe4	0.05335988
171	0xbddb2008	-0.10699469
172	0x3d2b617d	0.04184102
173	0x391b2423	0.00014795414
174	0xbd94e3ff	-0.07270049
175	0xbda4c50e	-0.08045398
176	0x3c9765e9	0.018481212
177	0xbc03833e	-0.008026896
178	0xbd82029a	-0.063481525
179	0x3d40a0ac	0.04702823
180	0xbcf18be2	-0.029485647
181	0xbd5c88e4	-0.053841487
182	0x3cbf6fda	0.023368765
183	0xbd585690	-0.052816927
184	0x3d6bc0a7	0.057556774
185	0x3d4bcb6b	0.04975454
186	0xbc633284	-0.013867024
187	0xbd298e4d	-0.041395474
188	0x3d04988b	0.03237204
189	0xbc897f28	-0.016784266
190	0xbd4ce866	-0.05002632
191	0x3ce1718b	0.027519962
192	0x3daf06cc	0.08546218
193	0x3d0c734f	0.034289654
194	0x3d37d28b	0.044878524
195	0xbd9cc5ce	-0.07654916
196	0xbd04485e	-0.032295577
197	0xbcb8997c	-0.022534125
198	0xbd37a6db	-0.04483686
199	0xbd8afd78	-0.067866266
200	0x3d534d2f	0.05158728
201	0xbbaf2170	-0.005344562
202	0xbe03b33c	-0.12861341
203	0x3dbc8040	0.09204149
204	0x3da48e91	0.08035005
205	0xbc50b877	-0.012739292
206	0x3d560f49	0.05226067
207	0x3dca36c9	0.09873731
208	0x3c13dbcb	0.009024571
209	0xbcb7f7cf	-0.022457032
210	0xbd69c5aa	-0.057073273
211	0xbce63027	-0.028099133
212	0x3cb1826a	0.021668632
213	0xbdafab47	-0.085775904
214	0xbdf3fa11	-0.11912931
215	0xbd44ad76	-0.048016988
216	0x3d589dce	0.05288487
217	0x3e1f22d2	0.15540627
218	0xbd5b1c2e	-0.05349367
219	0xbdf3fea9	-0.11913807
220	0x3bb4a071	0.00551229
221	0xbcf4aae0	-0.029866636
222	0x3d863d9b	0.06554719
223	0x3bd6a5fd	0.006550549
224	0x3db2290f	0.086992376
225	0xbdb034d0	-0.08603823
226	0xbdd63149	-0.10458619
227	0xbd795ee4	-0.06088151
228	0xbc0bb3f7	-0.008526794
229	0xbcdcfeb5	-0.026976923
230	0x3ddefa61	0.108876
231	0xbce846ff	-0.028354166
232	0x3a217ee0	0.00061605684
233	0xbca0a8b8	-0.019611701
234	0x3be9dbd6	0.007136802
235	0xbe0b50be	-0.1360502
236	0xbe34d3a4	-0.1765886
237	0x3be51d8d	0.006992048
238	0xbde90355	-0.11377589
239	0xbd69c440	-0.057071924
240	0x3b80d5f9	0.0039317575
241	0xbd5e7ac6	-0.054316305
242	0xbcda9647	-0.026682986
243	0x3ca3a9c9	0.01997842
244	0x3cc6eb05	0.024281988
245	0xbd803266	-0.06259613
246	0xbdc49e80	-0.09600544
247	0x3d315717	0.043295946
248	0x3db421eb	0.08795532
249	0xbd939a7e	-0.072072014
250	0x3d404699	0.046942327
251	0x3d5b6c46	0.053570054
252	0xbdaa8b3c	-0.08327338
253	0x3cb424ba	0.021990169
254	0x3bbb899a	0.0057231905
255	0xbdd84460	-0.105599165

bias f4 [32]
0	0xbbdd2083	-0.0067482605
1	0xbcfb0bef	-0.030645339
2	0xbd05d7c7	-0.032676484
3	0xbd5d3451	-0.05400497
4	0x3c8d451c	0.017244868
5	0xbdae36dc	-0.08506557
6	0xbcdbea45	-0.026845107
7	0x3c71eec9	0.0147664035
8	0xbc9f9572	-0.01948044
9	0xbced61cb	-0.028977295
10	0xbcd7c08b	-0.026336929
11	0xbc2c187a	-0.010503883
12	0xbd70941d	-0.058735
13	0xbb7d3176	-0.0038634217
14	0x3c1f1d6c	0.009711605
15	0xbda32336	-0.079657
16	0xbcb94f6d	-0.022620881
17	0xbd039ac4	-0.032130018
18	0xbd06264b	-0.032751363
19	0x3d281c64	0.0410427
20	0xbca45cd7	-0.0200638
21	0xbd916386	-0.07099061
22	0x3c1b570d	0.009481204
23	0xbd9f9792	-0.077925816
24	0x3c8c0815	0.017093698
25	0xbd21c659	-0.0394958
26	0xbd426519	-0.047459695
27	0xbd2035bb	-0.03911374
28	0xbc2a61a0	-0.010399252
29	0xbc488077	-0.01223766
30	0x3c649895	0.013952394
31	0xbdb045d2	-0.08607067

weight f4 [32]
0	0x3fc47a6b	1.5349859
1	0x3f904e44	1.1273885
2	0x3fa83c56	1.3143413
3	0x3fa3e4c2	1.2804186
4	0x3f97f514	1.1871667
5	0x3fb2e819	1.397708
6	0x3fa8a204	1.3174443
7	0x3f9113ed	1.1334206
8	0x3fb29800	1.3952637
9	0x3f9c490b	1.2209791
10	0x3fcee034	1.6162171
11	0x3fb4f0b0	1.4135952
12	0x3fb3f91e	1.40604
13	0x3fa6548b	1.299455
14	0x3fc142cc	1.509851
15	0x3f9d0db7	1.226981
16	0x3f9e5c8b	1.2371992
17	0x3f9e54ee	1.2369668
18	0x3f8e96e1	1.1139795
19	0x3f9828d8	1.1887465
20	0x3fa6a968	1.3020449
21	0x3f8dc4fb	1.1075739
22	0x3f9706f0	1.1798992
23	0x3fb0a774	1.3801103
24	0x3f94ddcd	1.1630188
25	0x3f983683	1.1891636
26	0x3fb54b8b	1.4163679
27	0x3f9bd32c	1.217382
28	0x3f974a7d	1.1819607
29	0x3f9b2186	1.2119606
30	0x3f98056f	1.1876658
31	0x3fd7105f	1.6801871

bias f4 [32]
0	0x3cce166e	0.02515718
1	0xbce946c1	-0.02847612
2	0xbc44aa27	-0.012003458
3	0xbcb81638	-0.022471532
4	0xbbea9f47	-0.0071601006
5	0xbdc12982	-0.09431745
6	0xbd1b70fb	-0.037949543
7	0xbba4a93b	-0.0050250567
8	0xbcbdffa6	-0.023193192
9	0xbcad58d5	-0.021160522
10	0xbd6d680b	-0.05796055
11	0xbabd2e24	-0.0014433307
12	0xbd848d38	-0.06472248
13	0xbcac7a5d	-0.021054441
14	0xbc7ff3be	-0.0156220775
15	0xbd5b37d7	-0.05352005
16	0xbd0498fc	-0.03237246
17	0x3c26c4e9	0.010178783
18	0xbd1ea73f	-0.038733717
19	0x39925ea8	0.00027917814
20	0xbc129f93	-0.008949178
21	0xbdb22015	-0.086975254
22	0xbd2707a4	-0.04077877
23	0xbcec1036	-0.028816324
24	0xbd031b7d	-0.032008637
25	0xbce2ba5b	-0.027676752
26	0xbd98dda5	-0.0746415
27	0x3acdaa5b	0.0015691029
28	0xbd564b9e	-0.052318208
29	0x3bb8d621	0.0056407605
30	0x3bd38d9a	0.006456089
31	0xbd8aeaf8	-0.06783098

running_mean f4 [32]
0	0xbc9a5db6	-0.018843513
1	0x3a94fc1e	0.0011366641
2	0xbd54c3e0	-0.051944613
3	0x3bb90843	0.005646737
4	0x39d397bd	0.0004035811
5	0x3bfbfcab	0.0076900325
6	0xbbda5412	-0.006662854
7	0x3cf62d4a	0.030050892
8	0x3cb18cce	0.021673586
9	0xbd01c6f9	-0.031683896
10	0xbbe702d5	-0.007049898
11	0xbca58b4a	-0.02020802
12	0x3d1521bf	0.036409136
13	0xbcaf6041	-0.021408202
14	0xbc04a7f3	-0.008096683
15	0x3bef69a6	0.0073062954
16	0x3be563ab	0.0070004067
17	0x3d05f1a6	0.032701157
18	0x3d2739d6	0.04082664
19	0x3cbcd897	0.023052497
20	0xbcb56a1a	-0.02214532
21	0x3d46f836	0.048576556
22	0x3cc0542e	0.02347764
23	0xbcd2def3	-0.025741076
24	0x3b709ffa	0.0036716447
25	0xbd00194e	-0.031274132
26	0x3c8011f0	0.015633553
27	0xbc5d54d6	-0.013508996
28	0xbccbb144	-0.0248648
29	0xbb744822	-0.003727444
30	0xbca9bbc9	-0.020719426
31	0xbb281ce6	-0.002565199

running_var f4 [32]
0	0x3f6a4a15	0.9151929
1	0x3f688140	0.9082222
2	0x3f6e0498	0.9297576
3	0x3f6a334b	0.91484517
4	0x3f69a5f2	0.9126884
5	0x3f696ff9	0.9118648
6	0x3f69a0ca	0.9126097
7	0x3f682eaf	0.90696234
8	0x3f691071	0.9104071
9	0x3f698c42	0.9122964
10	0x3f694f43	0.9113657
11	0x3f687dfd	0.9081724
12	0x3f6b346c	0.91876864
13	0x3f689ff1	0.9086905
14	0x3f69850d	0.91218644
15	0x3f69dfa9	0.91356903
16	0x3f68e5a1	0.90975386
17	0x3f6bc424	0.9209616
18	0x3f690870	0.910285
19	0x3f68b682	0.90903485
20	0x3f690e6f	0.9103765
21	0x3f6abb96	0.91692483
22	0x3f691c9c	0.9105928
23	0x3f69b0d9	0.91285473
24	0x3f693cd4	0.9110844
25	0x3f6a7a8e	0.91593254
26	0x3f6b8689	0.9200216
27	0x3f6b2db8	0.91866636
28	0x3f69247b	0.9107129
29	0x3f694ec6	0.91135824
30	0x3f69cee9	0.91331345
31	0x3f691019	0.9104019

weight f4 [4, 576]
0	0x3e29716c	0.16547173
1	0xbc02cbca	-0.007983157
2	0xbc28f18a	-0.010311494
3	0xbdec7149	-0.11545045
4	0x3dd24f8e	0.1026908
5	0xbca16726	-0.019702505
6	0x3cbe3675	0.023219327
7	0x3d16cae1	0.036814574
8	0x3dd5f382	0.10446836
9	0x3c42cee7	0.01189015
10	0x3daf13b7	0.08548682
11	0x3c3fec0c	0.011713993
12	0x3e3aa3aa	0.18226495
13	0xbcb9e38c	-0.02269151
14	0x3e18c5a5	0.14919145
15	0xbac67253	-0.0015140272
16	0x3d1c116b	0.03810255
17	0x3bc5aecd	0.006032801
18	0x3d7cec81	0.061748985
19	0x3d334154	0.043763474
20	0xbd92d81c	-0.07170126
21	0x3d98814d	0.07446537
22	0xbce37810	-0.027767211
23	0x3cc93bda	0.024564672
24	0x3cbddd83	0.023176914
25	0x39c2dff2	0.00037169416
26	0x3c5b962f	0.013402506
27	0x3bc9a925	0.006154197
28	0xbc71a1e8	-0.014748074
29	0xbca41096	-0.02002744
30	0xbdb8f7bd	-0.09031627
31	0x3ca44fd9	0.020057606
32	0x3db6f8b8	0.08934158
33	0xbdb18415	-0.08667771
34	0x3dcacb47	0.09902053
35	0xbd4e7466	-0.050403975
36	0x3cb760f8	0.022385105
37	0x3d6174c0	0.055042982
38	0x3ca73f15	0.020415822
39	0xbd2880b4	-0.041138366
40	0x3c0182e3	0.007904741
41	0x3dbd4fee	0.09243761
42	0xbe48408f	-0.19555877
43	0xbd21ec38	-0.039531916
44	0xbdd04e5a	-0.101711944
45	0xbccf79be	-0.025326606
46	0xbdf25eca	-0.11834486
47	0x3cc6cf9b	0.024268916
48	0xbe103015	-0.14080842
49	0x3d95f25b	0.07321616
50	0xbdbaa612	-0.09113707
51	0x3da6d57d	0.081461884
52	0xbe69422e	-0.22779152
53	0xbd235f08	-0.03988555
54	0xbde68060	-0.11254954
55	0xbbd94c47	-0.0066314074
56	0xbd2a8005	-0.041625995
57	0xbbebf02d	-0.007200262
58	0xbca5f54a	-0.020258565
59	0x3c2df768	0.010618068
60	0xbd3f19fc	-0.04665564
61	0xbd84e184	-0.06488326
62	0x3dd41a2c	0.103565544
63	0x3de73c54	0.112908036
64	0xbd48063e	-0.048834078
65	0x3c718b84	0.014742736
66	0x3dedc343	0.11609509
67	0x3ad03e3d	0.0015887689
68	0xbc929449	-0.017892973
69	0xbc493b13	-0.012282151
70	0xbcde66b3	-0.02714858
71	0x3d2e17ea	0.042503275
72	0x3d94bd21	0.07262636
73	0x3d06a462	0.03287161
74	0xbd17a16a	-0.03701917
75	0xbd71cc94	-0.05903299
76	0xbdcb5e45	-0.0993009
77	0xbdb0dc0b	-0.0863572
78	0xbe0cbc17	-0.13743626
79	0xbda0f514	-0.07859245
80	0x3d4f12b9	0.050554965
81	0x3b8c039e	0.004272892
82	0x3d87660d	0.066112615
83	0x3d1241a8	0.035707146
84	0xbdf9ebe6	-0.12203197
85	0x3d5f3171	0.05449051
86	0x3c45c2b7	0.012070349
87	0x3c032d46	0.0080063995
88	0x3d03b194	0.032151774
89	0xbca7eba3	-0.020498103
90	0xbc62d6c9	-0.013845154
91	0xbe9af94a	-0.30268317
92	0xbd8572fd	-0.06516073
93	0xbdfbf41a	-0.12302418
94	0xbe0e3aa7	-0.13889562
95	0xbe38462b	-0.17995517
96	0x3bb43356	0.005499284
97	0xbe444130	-0.19165492
98	0xbd8836fb	-0.06651112
99	0xbe6a8e3d	-0.22905822
100	0xbd12e171	-0.03585953
101	0xbe615fa3	-0.22009139
102	0xbbb6d48f	-0.005579538
103	0xbe468532	-0.19386747
104	0x3c8d43ee	0.017244305
105	0xbe555d4c	-0.20836371
106	0x3c411a8a	0.011786113
107	0xbea3ee37	-0.3201768
108	0xbe6aa9b6	-0.22916302
109	0xbaaec137	-0.0013332729
110	0xbe763a11	-0.24045588
111	0xbb3c2297	-0.002870714
112	0xbe2e6da1	-0.17034008
113	0x3d2e345a	0.042530395
114	0xbd8cd6d5	-0.068769135
115	0x3c40a85f	0.011758893
116	0xbe7c359d	-0.24629827
117	0xbdb8c469	-0.09021837
118	0xbd56cf0c	-0.05244355
119	0xbc1bdf34	-0.009513665
120	0xbe2ea8a6	-0.17056522
121	0xbdc860f4	-0.09784117
122	0xbdfd9113	-0.12381186
123	0xbcca6b5f	-0.024709402
124	0xbe173973	-0.14768009
125	0x3c994f7f	0.018714665
126	0x397b3106	0.00023955488
127	0xbd9ab7b2	-0.07554568
128	0x3d8c0440	0.06836748
129	0xbc400f11	-0.011722342
130	0x3d097206	0.033556007
131	0x3ceedfb4	0.029159404
132	0x3d698ce7	0.05701914
133	0x3dadf6d9	0.08494348
134	0xbacc2e5e	-0.0015577783
135	0xbcfa5b55	-0.030561129
136	0x3ac800cc	0.0015259027
137	0xbd0841c1	-0.033265833
138	0x3d090d35	0.03345986
139	0xbd8621aa	-0.0654939
140	0xbce21a6c	-0.02760049
141	0xbbe06f8d	-0.0068492354
142	0x3d6a6ac4	0.057230726
143	0x3d1410d0	0.036148846
144	0x3dade7e8	0.08491498
145	0x3db0933e	0.08621834
146	0xbc7c855e	-0.015412657
147	0x3e0b1aad	0.13584395
148	0xbd25f6be	-0.040518515
149	0x3e811d17	0.25217506
150	0x3c0786d4	0.008271892
151	0x3e3939b3	0.18088417
152	0x3d627d79	0.05529544
153	0x3d61e142	0.055146463
154	0x3c194855	0.009355624
155	0x3def586a	0.116867855
156	0x3de9bfc2	0.11413528
157	0x3e28737a	0.16450301
158	0x3d8455fe	0.06461714
159	0x3df16433	0.117866896
160	0xbd7c1ad2	-0.061549015
161	0x3b88b8d4	0.004172424
162	0x38117f3c	3.468919e-05
163	0x3d86d856	0.065842316
164	0xbd1403b9	-0.036136363
165	0xbcaa3b69	-0.020780282
166	0xbdca863c	-0.098888844
167	0x3c837b12	0.016049895
168	0xbd0629c0	-0.03275466
169	0xbd0768a5	-0.03305878
170	0x3d2e0c4b	0.042492192
171	0xbc0d2ffd	-0.008617398
172	0x3d0dc738	0.034613818
173	0x3cf29e60	0.029616535
174	0xbd5590f5	-0.052140195
175	0x3d2abd9b	0.041684728
176	0xbd639d45	-0.055569906
177	0xbc8a06f9	-0.016849028
178	0xbc16675a	-0.009179914
179	0xbcd7375b	-0.026271513
180	0xbe7dd62e	-0.24788734
181	0x3e0f99b1	0.14023472
182	0xbdd8f06c	-0.10592732
183	0x3cef1106	0.029182922
184	0xbe0205b2	-0.12697485
185	0xbdfa3a41	-0.12218142
186	0xbd64a8ec	-0.05582516
187	0xbd733c4b	-0.05938367
188	0x3de14a99	0.110005565
189	0x3da0372e	0.07823025
190	0xbca6f30b	-0.020379564
191	0xbd865600	-0.06559372
192	0x3d14adec	0.036298677
193	0xbc3346e9	-0.010942199
194	0xbd9cc119	-0.07654018
195	0x3e969d58	0.2941692
196	0xbd31bd19	-0.04339323
197	0x3e0555b3	0.13020973
198	0xbc957b39	-0.018247234
199	0xbe2a6365	-0.16639479
200	0x3d4de8bd	0.050270785
201	0xbce2a613	-0.027667081
202	0x3d9a0822	0.075210825
203	0x3d110359	0.035403583
204	0x3d02aa18	0.031900495
205	0x3d459ffd	0.04824828
206	0x3d7e5d90	0.062100947
207	0x3d4d063e	0.05005478
208	0x3d376c5a	0.044781066
209	0x3d83b044	0.064301044
210	0x3be65803	0.007029535
211	0xbd38e2a3	-0.045138013
212	0x3d00d457	0.031452503
213	0x3c131132	0.008976268
214	0x3cce6679	0.025195347
215	0xbd8e379c	-0.069442004
216	0xbe52b9a5	-0.2057863
217	0xbd42b3f2	-0.04753489
218	0x3e2b7243	0.16742806
219	0x3d086bdd	0.03330599
220	0x3b4dc9f1	0.0031400884
221	0x3de8b7a1	0.113631494
222	0x3e23a7cb	0.15981977
223	0xbc9387de	-0.018009122
224	0xbd20484d	-0.03913145
225	0xbc8a1c85	-0.016859302
226	0x3cf29e5c	0.029616527
227	0xbcdbcf00	-0.026832104
228	0x3ae6badf	0.0017603299
229	0x3ddb3a1b	0.10704442
230	0x3db7ae8f	0.08968841
231	0xbdbe4d7a	-0.09292121
232	0xbd13b350	-0.036059678
233	0x3db5477b	0.088515244
234	0xbcc44a90	-0.023961335
235	0x3df3a097	0.118958645
236	0x3dc6a6d2	0.09699787
237	0x3d1d5c34	0.03841801
238	0x3dc440ea	0.09582694
239	0x3c002ebb	0.007823641
240	0x3ad313e4	0.001610395
241	0x3d192fb6	0.037399016
242	0x3e487291	0.19574954
243	0x3de4aae6	0.11165409
244	0xbd4c16ca	-0.04982642
245	0x3d33c25c	0.043886527
246	0xbbed6e1a	-0.007245791
247	0x3d709e29	0.058744583
248	0x3e29c57c	0.1657924
249	0xba4d81b6	-0.0007839458
250	0xbd7c2b7b	-0.061564904
251	0x3d1e55c1	0.038656
252	0x3e0c777c	0.13717455
253	0x3e0d7585	0.13814361
254	0x3e3f681a	0.18692055
255	0xbbe8bf22	-0.007102863

bias f4 [4]
0	0x3d1e358a	0.038625278
1	0x3cdde24d	0.027085448
2	0x3d5776eb	0.052603643
3	0x3d3e62d0	0.046480954
