cnn_eat_gamma_reward_3food.ckpt (torch, 111284 bytes, 20 tensors)

weight f4 [16, 1, 2, 5]
-0.0075065414 0.13268952 -0.24719909 -0.19665073 -0.08725428 0.43350357 0.5670821 0.29481554
0.3541602 0.30568585 0.007836011 -0.2975426 0.26786307 0.43086612 -0.21678081 0.5872949
-0.25391528 -0.3060674 -0.22837901 0.42539787 0.13976915 0.39584932 -0.18440814 -0.17032143
0.20389727 0.5287789 -0.058144804 -0.1669016 -0.12391685 -0.37757337 -0.16541417 -0.35406902
-0.13995104 0.19866687 -0.39572304 0.4423651 0.025663352 -0.12622285 0.09484548 0.42286128
0.66933095 0.10290807 -0.06531975 0.32022887 -0.13509434 -0.094286546 0.515298 -0.26031256
0.0016909305 -0.083648525 -0.2012723 0.3332307 0.020792034 0.45330575 0.55389535 -0.07806621
-0.05336262 -0.1725715 0.60909647 -0.017402483 0.09595418 0.16481738 0.31728843 0.4267848
-0.21955344 -0.10752109 0.26287022 -0.030553829 0.006251107 0.41393682 -0.4218441 -0.28176576
0.27578288 -0.26507223 -0.069126874 0.3155723 0.2909034 0.02683728 -0.07228464 -0.061903644
0.57680523 -0.32935745 -0.373001 -0.24522583 -0.2139341 -0.3252061 0.27424437 0.26119465
-0.15421763 -0.36018118 0.12576552 0.110864304 0.42356932 0.42084458 -0.22982943 -0.28494674
-0.1310874 -0.15213843 -0.1638638 -0.29949614 -0.036043342 -0.22997735 0.1322761 0.119369656
-0.16466552 -0.06971661 -0.4194601 -0.17570168 -0.13948783 0.73032784 0.6156813 -0.049636595
0.3163915 -0.4022722 0.24825011 -0.035443828 -0.16374947 0.030732416 0.49006626 0.25434786
0.13706043 0.6047408 -0.10318115 0.21022528 0.10479356 -0.2603898 -0.08860696 -0.24621297
-0.014333273 0.20435637 -0.38845536 -0.27352968 0.27837712 -0.088738136 0.28662014 -0.4029342
-0.20228077 -0.10746596 -0.16135319 -0.004286863 -0.330899 0.3539701 0.2623215 0.21370614
-0.025316838 -0.4105457 0.4910393 0.024190139 -0.2740678 0.013178953 0.41479355 -0.0973153
-0.23518111 -0.039131816 0.5731379 -0.13134153 0.54651093 -0.14788933 -0.21734963 0.3268132
00000000: 6ff9 f5bb c3df 073e c221 7dbe cf5e 49be
00000010: 5fb2 b2bd 2ef4 dd3e 4b2c 113f 10f2 963e
00000020: 7c54 b53e db82 9c3e 9d62 003c 8157 98be
00000030: 5925 893e 7c9a dc3e cafb 5dbe f558 163f
00000040: 2f01 82be deb4 9cbe 30dc 69be c0cd d93e
00000050: a51f 0f3e c3ac ca3e 7dd5 3cbe be68 2ebe
00000060: 72ca 503e 0e5e 073f 3f29 6ebd 41e8 2abe
00000070: 1ec8 fdbd 4c51 c1be 5562 29be 8948 b5be
00000080: 534f 0fbe 546f 4b3e 369c cabe ae7d e23e
00000090: f33b d23c 9040 01be 593e c23d 4681 d83e
000000a0: 4659 2b3f 77c1 d23d 5cc6 85bd 0af5 a33e
000000b0: 2c56 0abe 4e19 c1bd 92ea 033f b047 85be
000000c0: 36a2 dd3a eb4f abbd 531a 4ebe 379d aa3e
000000d0: 0e54 aa3c b117 e83e 16cc 0d3f 2de1 9fbd
000000e0: c392 5abd 95b6 30be bfed 1b3f a78f 8ebc
000000f0: a083 c43d e3c5 283e a173 a23e 8a83 da3e
00000100: 9ed2 60be 0434 dcbd ed96 863e 064c fabc
00000110: 16d6 cc3b 87ef d33e f3fb d7be 9a43 90be
00000120: 6a33 8d3e 8cb7 87be 6492 8dbd b192 a13e
00000130: 4af1 943e dbd9 db3c f809 94bd ad8e 7dbd
00000140: 82a9 133f 8aa1 a8be fdf9 bebe 7b1c 7bbe
00000150: 8a11 5bbe 6a81 a6be c269 8c3e 4ebb 853e
00000160: 3aeb 1dbe ab69 b8be adc8 003e d30c e33d
00000170: 14de d83e f178 d73e 6858 6bbe 8ae4 91be
00000180: c63b 06be 2dca 1bbe e9cb 27be 8f57 99be
00000190: 2fa2 13bd 2f7f 6bbe 6373 073e 1478 f43d
000001a0: 149e 28be 95c7 8ebd 79c3 d6be 24eb 33be
000001b0: e6d5 0ebe c4f6 3a3f 4a9d 1d3f be4f 4bbd
000001c0: 11fe a13e 9ff6 cdbe 4735 7e3e 8c2d 11bd
000001d0: f1ad 27be 8cc2 fb3c f7e9 fa3e e239 823e
000001e0: 9259 0c3e 4bd0 1a3f a450 d3bd 4c45 573e
000001f0: 029e d63d d051 85be 9177 b5bd 411f 7cbe
00000200: 1bd6 6abc cc42 513e 9fe3 c6be 150c 8cbe
00000210: 7287 8e3e 57bc b5bd e0bf 923e 644d cebe
00000220: b122 4fbe 1d17 dcbd c539 25be d078 8cbb
00000230: 986b a9be 923b b53e 014f 863e c8d5 5a3e
00000240: 4265 cfbc 0c33 d2be 8169 fb3e 662a c63c
00000250: 9d52 8cbe 89ec 573c d25f d43e 3e4d c7bd
00000260: 51d3 70be af48 20bd 2ab9 123f 657e 06be
00000270: 24e8 0b3f 4d70 17be e790 5ebe 0f54 a73e

bias f4 [16]
0.18153045 -0.23374665 0.02976383 0.075442605 -0.23719418 0.052131042 -0.22459249 0.25049245
-0.23535392 -0.43288746 0.14647128 -0.24635793 0.11409937 0.31413576 -0.08844591 0.14399098
00000000: 1ee3 393e 485b 6fbe 47d3 f33c a781 9a3d
00000010: 08e3 72be 5c87 553d 93fb 65be 8c40 803e
00000020: 9e00 71be 6da3 ddbe 91fc 153e 4145 7cbe
00000030: eeac e93d 67d6 a03e 2123 b5bd 5f72 133e

weight f4 [16]
1.2273761 1.2390889 1.2663757 1.2357757 1.3590431 1.21588 1.3626236 1.1766741
1.2983239 1.402576 1.1999618 1.372956 1.1964384 1.1186407 1.2485785 1.1633228
00000000: a91a 9d3f 779a 9e3f 9918 a23f e62d 9e3f
00000010: 20f5 ad3f f5a1 9b3f 736a ae3f 429d 963f
00000020: 7a2f a63f 9c87 b33f 5998 993f 06bd af3f
00000030: e524 993f 9e2f 8f3f 6cd1 9f3f c3e7 943f

bias f4 [16]
-0.07094072 -0.25641942 -0.03277074 -0.06656139 -0.1645005 -0.1769924 -0.1587892 -0.049036045
-0.1698163 -0.16825739 -0.13112995 -0.09130991 -0.09794498 0.0054461355 -0.1853696 -0.13478951
00000000: 5e49 91bd 6849 83be 9d3a 06bd 5751 88bd
00000010: d272 28be 7f3d 35be a399 22be 05da 48bd
00000020: 53e4 2dbe aa4b 2cbe ee46 06be b100 bbbd
00000030: 6197 c8bd 7f75 b23b 87d1 3dbe 4306 0abe

running_mean f4 [16]
0.037625052 -0.0011505266 0.009307204 0.00980563 -0.0033156122 0.018726017 -0.0036902751 0.025877472
-0.01553822 -0.032974336 0.017602134 -0.0016392885 0.019164104 0.008225279 0.006256383 0.033792347
00000000: ba1c 1a3d 44cd 96ba 3e7d 183c cba7 203c
00000010: be4a 59bb 4e67 993c 8bd8 71bb fefc d33c
00000020: 0594 7ebc 1910 07bd 5a32 903c 65dd d6ba
00000030: 0afe 9c3c 52c3 063c 5802 cd3b d869 0a3d

running_var f4 [16]
0.92507553 0.9239623 0.91706836 0.923727 0.9113337 0.9263792 0.90743375 0.910583
0.9198155 0.9198679 0.91768867 0.9239341 0.9103533 0.92100966 0.91529024 0.92335254
00000000: c0d1 6c3f cb88 6c3f fec4 6a3f 5f79 6c3f
00000010: 2a4d 693f 3027 6d3f 944d 683f f81b 693f
00000020: 0779 6b3f 767c 6b3f a5ed 6a3f f286 6c3f
00000030: ea0c 693f 4ac7 6b3f 7650 6a3f d560 6c3f

weight f4 [64, 16, 2, 5]
0.0021310828 0.075111434 0.060236346 0.023638742 0.10107977 -0.12968692 -0.10690398 0.06463887
0.00019693021 -0.19567451 0.17421836 0.047804914 -0.10219239 0.011981245 -0.0046808575 -0.101730585
-0.064493984 0.06125794 0.038159788 0.09995319 0.05467127 -0.08148168 0.006341217 0.03808209
-0.13693836 -0.0709194 0.12602217 -0.017469436 -0.08372557 -0.0112718865 -0.23611453 -0.13022645
0.0565693 -0.04407672 -0.048085842 -0.11320022 -0.119253196 -0.017033726 0.12145899 -0.092399955
0.09881153 0.037429754 -0.083414264 0.13026498 0.043772563 0.08627872 0.12668562 0.054941036
0.073939845 -0.09622132 -0.06473233 -0.07423135 -0.05084463 0.012091054 0.06992816 0.03360632
0.01554449 0.019237451 -0.019371947 -0.0012171719 -0.026499702 0.041949935 -0.08496473 0.06732974
0.04231387 -0.0552953 -0.017749634 0.052907757 -0.014858672 0.08783164 0.03127318 -0.116158456
-0.056611758 0.011320216 0.12689216 -0.051830582 -0.08061622 -0.043479796 -0.046820745 0.07662424
0.064291455 -0.0008602093 0.03585072 0.13095458 0.055841573 0.010044896 0.04120349 -0.032831337
0.06544257 0.041819733 -0.07820627 0.048363138 0.05279164 0.05938686 0.19208658 0.009444683
0.022900537 -0.015939903 0.047253236 -0.03504982 0.17578346 -0.049831543 0.047265965 0.04066035
-0.0593322 -0.01926935 0.02162241 0.08338678 0.0010197847 -0.09386635 0.10225783 -0.097184606
-0.07852866 0.09971165 -0.011548446 -0.051019356 -0.084283344 0.03741643 0.10189403 -0.031692266
0.053574007 -0.10369684 0.0050568394 0.017471828 -0.014022982 -0.013693809 -0.0005343178 0.021616815
-0.045445934 0.06602598 0.031136867 -0.020705445 0.066860765 0.07439438 -0.14945555 0.012964146
0.0048531834 0.034529597 -0.0054350784 -0.1203967 0.08992694 0.12988041 -0.1296608 -0.071412206
-0.0702679 0.0030422704 0.06412931 0.033008266 0.034552418 -0.0153672965 -0.07331053 -0.009866591
0.021545935 0.09414485 -0.14502814 -0.15557608 -0.0679336 0.0804095 0.0022960205 -0.15172285
0.024921067 -0.007322666 -0.100600034 -0.09552849 -0.009624877 -0.22521855 0.016845204 -0.034125004
0.108426146 0.012539674 -0.012609826 -0.043021645 -0.021377312 0.011683131 0.14882442 -0.16964641
0.113276936 0.009895485 -0.12666988 -0.032170396 -0.022163758 0.00016500785 0.042711113 -0.02081238
-0.008269057 -0.20452297 -0.021307962 -0.13682914 -0.13173597 -0.059868667 -0.21079265 -0.008507339
0.09056624 -0.008469463 0.062837124 -0.1842503 -0.025294425 0.008652423 -0.019062987 -0.062313434
0.06926422 0.11686729 0.0790144 0.06961369 0.013378443 0.09223775 0.028010648 0.00064402184
-0.06222572 0.08600018 0.15766232 -0.088274665 -0.022347404 -0.0004754317 -0.065766774 0.018704312
0.0054083443 0.025943168 0.021810068 -0.17227383 -0.10579456 -0.009218395 0.009449957 -0.04649936
0.10063042 -0.07102905 0.009464726 -0.038185976 0.042380568 -0.022762597 -0.058516707 0.018552084
-0.0045458144 -0.06273345 0.029864809 0.0923911 -0.04131188 -0.084275134 0.07434723 0.07153156
0.21314065 -0.082029216 0.056155477 -0.123225205 0.05685834 0.11618165 -0.16241553 -0.044941846
-0.01851422 -0.05057382 -0.008081341 0.050816845 -0.043679345 0.11939128 -0.056490943 0.06620593
00000000: a3a9 0b3b 06d4 993d 63ba 763d 09a6 c13c
00000010: e902 cf3d a6cc 04be 79f0 dabd 6261 843d
00000020: 0d7f 4e39 e65e 48be 4c66 323e 16cf 433d
00000030: 3e4a d1bd fc4c 443c e161 99bb 2058 d0bd
00000040: 6c15 84bd 9be9 7a3d 704d 1c3d 42b4 cc3d
00000050: fbee 5f3d dedf a6bd fcc9 cf3b f7fb 1b3d
00000060: 9239 0cbe 313e 91bd f50b 013e 101c 8fbc
00000070: 5078 abbd b8ad 38bc 02c8 71be 155a 05be
00000080: 36b5 673d ca89 34bd a9f5 44bd 84d5 e7bd
00000090: 053b f4bd 508a 8bbc 7ebf f83d 303c bdbd
000000a0: b35d ca3d f14f 193d 19d5 aabd 2f64 053e
000000b0: dc4a 333d e6b2 b03d e0b9 013e da09 613d
000000c0: c66d 973d af0f c5bd 6292 84bd 9b06 98bd
000000d0: 7542 50bd 8e19 463c 7f36 8f3d c8a6 093d
000000e0: 51ae 7e3c dc97 9d3c ebb1 9ebc 8389 9fba
000000f0: e715 d9bc b2d3 2b3d fd01 aebd 2de4 893d
00000100: 4f51 2d3d 537d 62bd ae67 91bc ceb5 583d
00000110: ca71 73bc 13e1 b33d 4e18 003d 7ce4 edbd
00000120: bbe1 67bd 6d78 393c 05f0 013e 4e4c 54bd
00000130: 1e1a a5bd df17 32bd 1cc7 3fbd 2bed 9c3d
00000140: 3dab 833d ab7f 61ba 34d8 123d f518 063e
00000150: 22ba 643d 5993 243c fec4 283d 277a 06bd
00000160: c106 863d 2b4b 2b3d 9c2a a0bd 6d18 463d
00000170: 0c3c 583d a33f 733d 58b2 443e dfbd 1a3c
00000180: e899 bb3c 6694 82bc 9c8c 413d 6690 0fbd
00000190: 9400 343e 291c 4cbd f599 413d 788b 263d
000001a0: 5206 73bd c2da 9dbc 7b21 b13c b0c6 aa3d
000001b0: 4caa 853a 003d c0bd 8e6c d13d b908 c7bd
000001c0: a2d3 a0bd 9f35 cc3d b135 3dbc acf9 50bd
000001d0: bf9c acbd f841 193d d1ad d03d c0cf 01bd
000001e0: 6b70 5b3d 025f d4bd d8b3 a53b 1421 8f3c
000001f0: a6c0 65bc ff5b 60bc 7611 0cba bf15 b13c
00000200: 8425 3abd a138 873d be12 ff3c 779e a9bc
00000210: 4cee 883d 155c 983d e00a 19be 9267 543c
00000220: 7407 9f3b e86e 0d3d be18 b2bb 8c92 f6bd
00000230: 9e2b b83d 5fff 043e cdc5 04be 9040 92bd
00000240: 9ee8 8fbd d460 473b 3a56 833d ad33 073d
00000250: d686 0d3d 1dc7 7bbc d523 96bd 7ba7 21bc
00000260: 1a81 b03c 04cf c03d 4282 14be 564f 1fbe
00000270: c520 8bbd bcad a43d d578 163b 3c5d 1bbe
00000280: 4427 cc3c f9f2 efbb 6407 cebd 71a4 c3bd
00000290: a9b1 1dbc b19f 66be f4fe 893c a9c6 0bbd
000002a0: 870e de3d 3473 4d3c 7299 4ebc 7737 30bd
000002b0: 791f afbc 9a6a 3f3c 6e65 183e cab7 2dbe
000002c0: bdfd e73d ac20 223c c0b5 01be 1bc5 03bd
000002d0: c590 b5bc f505 2d39 d9f1 2e3d b97e aabc
000002e0: f07a 07bc 786e 51be 098e aebc f01c 0cbe
000002f0: cbe5 06be d938 75bd 07da 57be 5e62 0bbc
00000300: cb7a b93d 81c3 0abc c0b0 803d 1cac 3cbe
00000310: 4136 cfbc e4c2 0d3c fb29 9cbc 5f3c 7fbd
00000320: 66da 8d3d 1e58 ef3d 4dd2 a13d 9f91 8e3d
00000330: 4231 5b3c 25e7 bc3d 9676 e53c 93d3 283a
00000340: 66e0 7ebd dd20 b03d 3b72 213e 59c9 b4bd
00000350: e711 b7bc 5d43 f9b9 bbb0 86bd c939 993c
00000360: 7b38 b13b c486 d43c 07ab b23c 8d68 30be
00000370: d1aa d8bd c008 17bc fed3 1a3c 1d76 3ebd
00000380: 5217 ce3d ae77 91bd f011 1b3c e668 1cbd
00000390: 3f97 2d3d a078 babc 37af 6fbd 8afa 973c
000003a0: 0ef5 94bb 657a 80bd 0ba7 f43c 8c37 bd3d
000003b0: a536 29bd 7198 acbd 5c43 983d 237f 923d
000003c0: 8b41 5a3e effe a7bd 4903 663d 7f5d fcbd
000003d0: 4ae4 683d a5f0 ed3d 4250 26be f114 38bd
000003e0: 22ab 97bc 7e26 4fbd 9a67 04bc 5325 503d
000003f0: 1de9 32bd 6a83 f43d 0c63 67bd fa96 873d

bias f4 [64]
-0.011531771 0.071197025 -0.14454862 -0.044405036 -0.000375945 0.022930864 0.018087074 0.025590522
-0.047860965 0.05355251 0.05092177 0.01058587 -0.025866982 -0.14442031 -0.1425154 0.032045424
0.07232647 0.03237562 0.0036332589 0.048943765 0.006663297 -0.099638425 -0.10218713 -0.0753447
-0.1164711 0.08986204 -0.03158078 -0.09581971 -0.13990064 0.07495177 -0.033171333 -0.00575703
-0.08888944 -0.14602053 -0.12907523 -0.011167964 -0.13006422 -0.13251993 -0.058681797 -0.054362174
-0.043600485 -0.055127002 -0.020221885 0.06727453 -0.11090029 -0.058625843 -0.1763954 -0.0639082
0.043313865 -0.002064942 0.0060417987 -0.010272135 -0.174413 0.024813002 0.07483265 0.018035809
0.056304127 3.502846e-05 -0.026060613 -0.009449395 -0.10825872 -0.0454112 0.028690822 0.032917827
00000000: c1ef 3cbc bfcf 913d 8e04 14be 0ee2 35bd
00000010: 7c1a c5b9 82d9 bb3c 582b 943c 37a3 d13c
00000020: dc09 44bd e059 5b3d 5993 503d 5b70 2d3c
00000030: fee6 d3bc ebe2 13be 8fef 11be 1042 033d
00000040: e61f 943d 4c9c 043d f81b 6e3b 4279 483d
00000050: c957 da3b 3b0f ccbd 7c47 d1bd 524e 9abd
00000060: 6688 eebd 9709 b83d d95a 01bd 203d c4bd
00000070: 1d42 0fbe 5080 993d aade 07bd 78a5 bcbb
00000080: ab0b b6bd 6886 15be 4c2c 04be d6f9 36bc
00000090: 8e2f 05be 4eb3 07be 535c 70bd dfaa 5ebd
000000a0: 6c96 32bd dacc 61bd 5ea8 a5bc 3bc7 893d
000000b0: b11f e3bd a721 70bd ffa0 34be 4de2 82bd
000000c0: e169 313d fa53 07bb 48fa c53b 754c 28bc
000000d0: 5299 32be a344 cb3c dc41 993d d5bf 933c
000000e0: 289f 663d 86eb 1238 117d d5bc a3d1 1abc
000000f0: bfb6 ddbd 1801 3abd 0409 eb3c d8d4 063d

weight f4 [64]
1.1674615 1.202455 1.2779338 1.1423442 1.1572962 1.1243628 1.1447055 1.2203273
1.1139249 1.1157038 1.201259 1.1183345 1.1018512 1.1783665 1.1555369 1.0362755
1.2145694 1.1183566 1.1757883 1.1302754 1.1155093 1.215199 1.1784548 1.2522868
1.1279969 1.0711712 1.1723105 1.1710559 1.1260896 1.1496007 1.2062632 1.1852754
1.1739606 1.3681483 1.1987549 1.1063671 1.102087 1.0746571 1.0441899 1.1449068
1.2343652 1.1107653 1.1132796 1.1648247 1.1410288 1.1443074 1.2439882 1.2090153
1.0817981 1.1019998 1.0510176 1.0976188 1.2143402 1.0884783 1.0443995 1.106623
1.1590879 1.1083307 1.1119596 1.1979917 1.1218439 1.0714709 1.0618421 1.1452823
00000000: 616f 953f 0cea 993f 5693 a33f 5638 923f
00000010: 4822 943f 1feb 8f3f b685 923f af33 9c3f
00000020: 1795 8e3f 62cf 8e3f dbc2 993f 9625 8f3f
00000030: 7609 8d3f b7d4 963f a2e8 933f ada4 843f
00000040: 0377 9b3f 4f26 8f3f 3b80 963f ddac 903f
00000050: 02c9 8e3f a48b 9b3f 9bd7 963f ef4a a03f
00000060: 3462 903f 231c 893f 450e 963f 29e5 953f
00000070: b423 903f 1e26 933f d566 9a3f 1bb7 973f
00000080: 5744 963f 7c1f af3f cd70 993f 709d 8d3f
00000090: 3011 8d3f 5d8e 893f 04a8 853f 4e8c 923f
000000a0: aeff 9d3f 8f2d 8e3f f27f 8e3f fa18 953f
000000b0: 3b0d 923f aa78 923f 013b 9f3f 03c1 9a3f
000000c0: 5c78 8a3f 540e 8d3f bf87 863f c67e 8c3f
000000d0: 806f 9b3f 4253 8b3f e2ae 853f d3a5 8d3f
000000e0: fe5c 943f c8dd 8d3f b154 8e3f cb57 993f
000000f0: 9598 8f3f f525 893f 71ea 873f 9c98 923f

bias f4 [64]
-0.08753903 0.0041940734 -0.07369466 -0.027012229 0.037720956 -0.033631228 -0.019713981 -0.04134895
-0.034917444 0.009392658 0.021724004 -0.06152634 -0.059229843 -0.06901996 -0.092790596 -0.01912949
0.04780176 -0.004222261 -0.030193863 -0.0012545061 -0.014080258 -0.04130528 -0.083495155 -0.08759034
-0.064095594 0.021982597 -0.0848545 -0.029014457 -0.06032578 0.024960192 -0.027154705 0.014178168
-0.11954027 -0.07927676 -0.062196847 -0.04637393 -0.057987943 -0.077987224 -0.018437775 -0.05728574
-0.0609351 -0.076077856 0.0065614562 0.038690366 -0.05175072 -0.023758197 -0.113166906 -0.07401342
0.028759178 0.052055374 -0.00035943204 -0.009551665 -0.13288967 0.024397405 0.014427899 0.015136598
-0.009898928 -0.016777296 0.038284007 -0.0050245095 -0.07261651 -0.03680572 -0.03581592 0.004853045
00000000: aa47 b3bd 706e 893b 3aed 96bd c048 ddbc
00000010: 4a81 1a3d e6c0 09bd 377f a1bc 845d 29bd
00000020: 9805 0fbd aae3 193c 8af6 b13c 0b03 7cbd
00000030: fe9a 72bd 565a 8dbd ff08 bebd 73b5 9cbc
00000040: c7cb 433d e45a 8abb 1f59 f7bc 3d6e a4ba
00000050: e2b0 66bc ba2f 29bd 82ff aabd 9062 b3bd
00000060: 8d44 83bd d914 b43c 32c8 adbd baaf edbc
00000070: 2a18 77bd 5179 cc3c 8b73 debc 8c4b 683c
00000080: 87d1 f4bd db5b a2bd 1fc2 7ebd 97f2 3dbd
00000090: c484 6dbd c4b7 9fbd d10a 97bc 74a4 6abd
000000a0: 1597 79bd b5ce 9bbd 7c01 d73b ca79 1e3d
000000b0: 90f8 53bd 8da0 c2bc 0dc4 e7bd 5994 97bd
000000c0: 5e98 eb3c 0438 553d 2772 bcb9 967e 1cbc
000000d0: 3b14 08be 11dd c73c ff62 6c3c 7eff 773c
000000e0: 1d2f 22bc 8a70 89bc b1cf 1c3d a4a4 a4bb
000000f0: f7b7 94bd 98c1 16bd b7b3 12bd 4b06 9f3b

running_mean f4 [64]
0.0055560563 -0.015186076 -0.0068170885 0.013868229 -0.04207634 0.024953183 -0.00051683886 -0.014676543
0.008463336 -0.012563413 -0.0010825262 0.007787398 0.0013292402 -0.020564232 -0.0035102475 0.008626081
-0.01382387 0.0018450083 -0.010657796 0.0054936605 0.009830331 -0.030630115 0.027922576 -0.018020596
0.005555003 0.03308689 -0.020462314 -0.009432648 -0.011919344 0.0061438605 -0.010415756 0.009708656
-0.016067952 -0.03354497 -0.02271581 0.0046496983 0.019785607 -0.018428957 0.012834305 -0.007956964
0.023784118 -0.008283446 0.008563787 0.010310743 -0.044764414 -0.02888926 -0.01496657 -0.0037234414
0.024120236 0.002042735 0.008814825 0.007497411 -0.004174059 -0.013308327 0.01761677 0.0077992724
-0.009218852 -0.009707568 -0.020832298 -0.011152742 -0.008891515 0.009358922 0.023438584 0.020760657
00000000: 940f b63b 05cf 78bc e261 dfbb 9237 633c
00000010: 3e58 2cbd 9e6a cc3c 787c 07ba e275 70bc
00000020: cea9 0a3c c6d6 4dbc 8de3 8dba 6e2d ff3b
00000030: e639 ae3a 5276 a8bc 2e0c 66bb 6854 0d3c
00000040: 837d 62bc 35d4 f13a 099e 2ebc 2a04 b43b
00000050: 660f 213c 02ec fabc e3bd e43c ee9f 93bc
00000060: be06 b63b 1e86 073d 95a0 a7bc 658b 1abc
00000070: 5a49 43bc 7052 c93b d9a6 2abc 0e11 1f3c
00000080: f0a0 83bc 7366 09bd 8216 babc 7f5c 983b
00000090: 6d15 a23c 53f8 96bc fa46 523c ed5d 02bc
000000a0: e9d6 c23c 4ab7 07bc 204f 0c3c 64ee 283c
000000b0: e45a 37bd 2ba9 ecbc 5836 75bc fb04 74bb
000000c0: cd97 c53c 68df 053b 0e6c 103c d8ac f53b
000000d0: 8bc6 88bb 2b0b 5abc 0b51 903c 0a91 ff3b
000000e0: ab0a 17bc 7e0c 1fbc 7fa8 aabc feb9 36bc
000000f0: b8ad 11bc 2a56 193c 4602 c03c 4112 aa3c

running_var f4 [64]
0.9121086 0.9226569 0.9107449 0.90693563 0.9225373 0.9112155 0.9147015 0.91062224
0.90775555 0.9094183 0.90472835 0.9068347 0.90954727 0.9148699 0.9238432 0.9139703
0.9053352 0.9032157 0.90648764 0.9058487 0.90565616 0.905084 0.9188757 0.9115619
0.91010064 0.9162789 0.9091414 0.9150732 0.90410185 0.9086132 0.9091434 0.90714073
0.90575314 0.9139858 0.90737885 0.9058741 0.91005 0.9134324 0.9072319 0.90943366
0.91433793 0.9047721 0.9080499 0.9041304 0.91681004 0.90468097 0.90614027 0.9079497
0.9066409 0.90646815 0.9027488 0.9057075 0.912773 0.9069183 0.9083715 0.90802664
0.91947407 0.9093237 0.91240805 0.9072928 0.9035373 0.90499324 0.90477395 0.90508026
00000000: f37f 693f 3e33 6c3f 9426 693f ef2c 683f
00000010: 682b 6c3f 6b45 693f e129 6a3f 8a1e 693f
00000020: ab62 683f a3cf 683f 479c 673f 5226 683f
00000030: 17d8 683f ea34 6a3f fd80 6c3f f5f9 693f
00000040: 0cc4 673f 2539 673f 930f 683f b3e5 673f
00000050: 15d9 673f 96b3 673f 703b 6b3f 1f5c 693f
00000060: 5bfc 683f 4191 6a3f 7ebd 683f 3d42 6a3f
00000070: 3873 673f e09a 683f 9fbd 683f 603a 683f
00000080: 70df 673f f9fa 693f fb49 683f 5de7 673f
00000090: 09f9 683f b5d6 693f 5a40 683f a5d0 683f
000000a0: 0d12 6a3f 259f 673f f575 683f 1775 673f
000000b0: 10b4 6a3f 2c99 673f cff8 673f 646f 683f
000000c0: 9e19 683f 4c0e 683f 8c1a 673f 72dc 673f
000000d0: 7eab 693f cc2b 683f 098b 683f 6f74 683f
000000e0: a762 6b3f 70c9 683f 9393 693f 5744 683f
000000f0: 384e 673f a3ad 673f 449f 673f 57b3 673f

weight f4 [32, 64, 2, 3]
-0.09804504 0.0019861811 -0.040008813 0.083447605 -0.027350945 -0.045315392 -0.053684607 -0.00094644545
-0.015361132 0.14663628 -0.0018921946 0.021174213 0.0875885 0.009523707 0.079020515 -0.06361115
-0.04941294 -0.0494209 0.06924895 0.067157306 -0.033792786 -0.15169351 0.03973965 -0.0677293
-0.033157263 -0.058555104 -0.097230606 -0.048920613 -0.04991902 -0.0015864149 -0.075186074 -0.0275747
-0.00070696906 -0.01371175 -0.012926863 0.03230131 -0.14863421 0.06444122 0.023219172 0.027923118
-0.06537851 0.029959356 -0.082844436 -0.02020928 -0.17051959 -0.03794441 -0.259233 0.0034299558
0.024908148 -0.033244554 -0.17700976 0.020686967 -0.042674296 -0.04065797 -0.0021518013 -0.012119821
-0.075721644 -0.116238795 0.051805105 -0.0302868 -0.04182112 -0.03397801 0.0618893 -0.057657678
0.09839715 -0.018583266 0.0006026156 0.04749442 -0.08721429 0.09644354 -0.08199918 -0.0137131335
-0.015538311 -0.0069532767 -0.0851307 -0.11197979 -0.056142822 0.0021988854 0.03126003 0.06666963
0.05844569 0.045835488 -0.032797717 -0.11383458 -0.08973426 0.0074485545 -0.015664361 -0.04427597
0.056039035 -0.08762721 -0.008166734 -0.06105372 0.05393026 0.008866609 -0.0335979 -0.0627949
-0.031307127 0.032694895 0.05058002 -0.055065703 0.03339892 -0.032582194 0.09574157 0.12834571
-0.03716888 0.053135917 0.054543912 0.013434482 -0.032752417 0.018066362 0.009714894 0.041687258
-0.00019428505 0.023042643 0.0031991384 -0.067843266 0.08049023 -0.087201044 0.03056925 -0.02264091
0.010282906 0.004588746 -0.062105052 0.01620867 -0.035959333 -0.020677393 -0.035737846 0.17911567
0.0003125975 0.0216458 0.052708477 0.0070017152 -0.023698334 -0.027559102 0.0057897777 0.06588546
-0.030836444 0.04726182 0.010235901 0.030306889 0.023765612 -0.0010708298 0.085704096 0.009943927
-0.07083663 -0.04563971 -0.022766469 0.0055444306 -0.068656415 -0.09054955 0.08914802 -0.04948787
0.057156954 0.08730007 -0.032047108 -0.0143249715 -0.07027173 -0.03756185 0.017871935 0.0197542
0.20933306 0.042314198 -0.068547964 -0.104525104 0.0726366 0.09226703 0.044548225 -0.03453689
-0.0028270532 0.023606127 -0.09112209 0.011839468 0.028281225 -0.04459288 0.035030827 0.06044367
0.07067785 0.015770357 0.07999293 0.04238887 -0.041578572 0.047275145 -0.07080141 -0.0002910193
-0.053140316 -0.05806409 0.090856485 0.021565646 0.08606107 -0.076394975 -0.06470942 -0.05092543
0.11954329 -0.046981703 0.116917826 -0.0016126373 -0.03126003 0.005158173 -0.043399625 -0.022120573
-0.06638963 0.0031301521 0.08309999 0.040174004 -0.029503977 0.023221184 -0.092319064 0.11715451
0.029816177 -0.039636504 -0.051994924 -0.032851405 0.06431655 0.09248325 -0.0066709584 -0.05749434
0.010014661 0.075752124 -0.010148572 0.04103325 0.10545809 -0.09105353 0.038144473 -0.057928525
0.04972629 0.027884193 0.0714229 -0.02733504 -0.0731092 -0.002823187 0.061078146 0.08789888
0.03569804 0.051373933 -0.026225483 0.10016091 0.21027176 -0.011924288 0.105104804 -0.013127317
-0.0146269705 0.06795411 -0.09760144 0.06608963 -0.011518519 0.010647221 -0.118112855 0.0038037775
-0.009473024 0.017008785 -0.037253544 -0.0054145004 0.07152441 0.03622536 -0.009379826 0.040006395
00000000: d7cb c8bd 972a 023b 48e0 23bd 94e6 aa3d
00000010: 170f e0bc a29c 39bd 64e4 5bbd e11a 78ba
00000020: 42ad 7bbc d227 163e 8403 f8ba 8b75 ad3c
00000030: 9961 b33d 5309 1c3c 82d5 a13d 9046 82bd
00000040: 3965 4abd 926d 4abd 65d2 8d3d c589 893d
00000050: 4e6a 0abd 8b55 1bbe 0bc6 223d a9b5 8abd
00000060: e9cf 07bd 7ad7 6fbd d720 c7bd fb60 48bd
00000070: e377 4cbd 40ef cfba 28fb 99bd 56e4 e1bc
00000080: e453 39ba 3fa7 60bc 31cb 53bc 614e 043d
00000090: 9133 18be c2f9 833d 2236 be3c 06bf e43c
000000a0: 2be5 85bd 536d f53c 58aa a9bd ef8d a5bc
000000b0: b09c 2ebe 996b 1bbd 30ba 84be 1cc9 603b
000000c0: 2c0c cc3c 712b 08bd 0c42 35be b777 a93c
000000d0: 3ecb 2ebd f988 26bd 3c05 0dbb 3792 46bc
000000e0: f313 9bbd 9b0e eebd 9731 543d 061c f8bc
000000f0: 9f4c 2bbd 872c 0bbd a27f 7d3d 752a 6cbd
00000100: 7284 c93d ef3b 98bc d9f8 1d3a 8289 423d
00000110: 689d b2bd 3184 c53d 30ef a7bd 0dad 60bc
00000120: 6694 7ebc 50d8 e3bb 0159 aebd a955 e5bd
00000130: 04f6 65bd 2d1b 103b 840a 003d 168a 883d
00000140: bf64 6f3d febd 3b3d e656 06bd 1b22 e9bd
00000150: 99c6 b7bd 0113 f43b 8c52 80bc b85a 35bd
00000160: 3089 653d e575 b3bd c4cd 05bc 7713 7abd
00000170: fae5 5c3d 4145 113c f49d 09bd 9d9a 80bd
00000180: e73b 00bd 15eb 053d ff2c 4f3d 938c 61bd
00000190: 4ecd 083d e874 05bd 2814 c43d 0f6d 033e
000001a0: 653e 18bd 0ca5 593d 7069 5f3d 4d1c 5c3c
000001b0: 6627 06bd e8ff 933c 382b 1f3c 42c0 2a3d
000001c0: ffb8 4bb9 edc3 bc3c a3a8 513b 69f1 8abd
000001d0: 10d8 a43d 7696 b2bd 5d6c fa3c 6e79 b9bc
000001e0: a279 283c 315d 963b de61 7ebd 0bc8 843c
000001f0: 184a 13bd a363 a9bc d961 12bd 196a 373e
00000200: 20e4 a339 8852 b13c d8e4 573d a56e e53b
00000210: 0223 c2bc a0c3 e1bc 2db8 bd3b f5ee 863d
00000220: b69c fcbc 9c95 413d 7bb4 273c 2746 f83c
00000230: 1ab0 c23c 165b 8cba a185 af3d daeb 223c
00000240: cc12 91bd b4f0 3abd bf80 babc 0eae b53b
00000250: bc9b 8cbd 0b72 b9bd 3d93 b63d cbb3 4abd
00000260: 691d 6a3d 61ca b23d d443 03bd 49b3 6abc
00000270: a0ea 8fbd 74da 19bd 2a68 923c 8fd3 a13c
00000280: 685b 563e a751 2d3d e062 8cbd 4211 d6bd
00000290: 7fc2 943d 7ff6 bc3d 3378 363d 8e76 0dbd
000002a0: 1546 39bb a361 c13c 389e babd 54fa 413c
000002b0: 07ae e73c 06a7 36bd 7c7c 0f3d c893 773d
000002c0: 8cbf 903d d630 813c 55d3 a33d f49f 2d3d
000002d0: 4b4e 2abd 95a3 413d 5400 91bd f393 98b9
000002e0: a9a9 59bd 9cd4 6dbd f712 ba3d 70aa b03c
000002f0: c940 b03d f874 9cbd 5f86 84bd 2f97 50bd
00000300: 1dd3 f43d e36f 40bd 9d72 ef3d 215f d3ba
00000310: 840a 00bd e405 a93b cec3 31bd 3436 b5bc
00000320: 49f7 87bd 3d23 4d3b 5430 aa3d 7f8d 243d
00000330: 53b2 f1bc 5a3a be3c c711 bdbd b4ee ef3d
00000340: 0e41 f43c e359 22bd a1f8 54bd 328f 06bd
00000350: 65b8 833d dc67 bd3d 0e98 dabb 2f7f 6bbd
00000360: 8814 243c ee23 9b3d 3246 26bc 7b12 283d
00000370: 69fa d73d 467a babd 613d 1c3d 7646 6dbd
00000380: cbad 4b3d 646d e43c 2b46 923d bced dfbc
00000390: 47ba 95bd 3805 39bb 142d 7a3d 5404 b43d
000003a0: 1c38 123d 796d 523d d3d6 d6bc 2a21 cd3d
000003b0: 7b51 573e 175e 43bc 3041 d73d f513 57bc
000003c0: f6a5 6fbc 862b 8b3d 44e3 c7bd 005a 873d
000003d0: 2cb8 3cbc ae71 2e3c 27e5 f1bd cc48 793b
000003e0: be34 1bbc 0256 8b3c 2c97 18bd 1f6c b1bb
000003f0: 647b 923d 0b61 143d d7ad 19bc bfdd 233d

bias f4 [32]
-0.011518058 -0.010531417 -0.020262124 0.020752778 0.011896361 0.049832426 -0.02001058 -0.02168179
0.049119767 -0.011962288 0.049747318 -0.0076627857 0.004593009 0.04494625 -0.10115264 -0.041422233
-0.031505015 -0.036668096 0.04988427 0.011022415 -0.060735147 -0.013201899 -0.021290317 -0.005066315
0.062317446 -0.072706364 -0.11841988 -0.041599363 -0.013102858 -0.05933805 -0.052266654 0.0105589
00000000: 3db6 3cbc f78b 2cbc c1fc a5bc bb01 aa3c
00000010: f4e8 423c 161d 4c3d 3aed a3bc 029e b1bc
00000020: cf31 493d 79fd 43bc d8c3 4b3d 1b18 fbbb
00000030: f480 963b 8f19 383d 1e29 cfbd 5caa 29bd
00000040: 670b 01bd 4931 16bd 7353 4c3d 5c97 343c
00000050: 6bc5 78bd c74c 58bc 0869 aebc 5503 a6bb
00000060: 9440 7f3d 13e7 94bd 1f86 f2bd 1864 2abd
00000070: 5fad 56bc 750c 73bd 8f15 56bd 3dff 2c3c

weight f4 [32]
1.220879 1.1288583 1.1969016 1.2075404 1.1199641 1.1848912 1.18103 1.2599717
1.1940523 1.1802074 1.0846229 1.186936 1.2099456 1.0882502 1.3060473 1.0889311
1.3535401 1.1889638 1.189995 1.2155019 1.0645901 1.1411555 1.2198077 1.1062229
1.1942195 1.1517042 1.2533181 1.1483428 1.3227081 1.2717608 1.134163 1.1567613
00000000: c345 9c3f 6e7e 903f 1234 993f af90 9a3f
00000010: fc5a 8f3f 84aa 973f fe2b 973f c146 a13f
00000020: b5d6 983f 0911 973f ecd4 8a3f 85ed 973f
00000030: 7fdf 9a3f c84b 8b3f 8f2c a73f 1862 8b3f
00000040: cd40 ad3f f72f 983f c251 983f 9195 9b3f
00000050: 7d44 883f 6211 923f a922 9c3f b698 8d3f
00000060: 2fdc 983f 0b6b 933f ba6c a03f e6fc 923f
00000070: 804e a93f 0fc9 a23f 412c 913f c110 943f

bias f4 [32]
0.03614131 0.020387258 0.02499475 -0.016388098 -0.038292333 0.029122267 -0.043369807 -0.05230916
0.0069696 0.004419904 0.0541448 0.026008012 -0.028999707 0.012410531 -0.060912423 -0.010065
-0.06335668 0.0017915866 0.049605425 -0.017376088 -0.020507963 -0.032154877 0.0052773473 -0.02041918
0.020234458 -0.047763932 -0.07531711 -0.0011604801 -0.007347581 -0.030802203 -0.011447581 -0.025611518
00000000: e908 143d 2e03 a73c cac1 cc3c 5540 86bc
00000010: 6cd8 1cbd d291 ee3c 8aa4 31bd 2142 56bd
00000020: 3e61 e43b d8d4 903b f0c6 5d3d c10e d53c
00000030: cb90 edbc 8a55 4b3c 4e7f 79bd abe7 24bc
00000040: 26c1 81bd acd3 ea3a 0f2f 4b3d 4c58 8ebc
00000050: 5100 a8bc d5b4 03bd 99ed ac3b 2046 a7bc
00000060: bcc2 a53c 1da4 43bd db3f 9abd 401b 98ba
00000070: fac3 f0bb e754 fcbc a38e 3bbc 3fcf d1bc

running_mean f4 [32]
0.0028189379 0.027061298 -0.03372429 -0.024493914 0.005922408 0.0055166045 -0.012598592 0.0022924065
0.015864957 -0.0015760029 -0.011322862 -0.053958498 -0.008711013 0.017583035 -0.039467342 -0.003391286
-0.0114032095 -0.046443548 0.015754078 0.008551993 -0.018571122 -0.028946873 -0.03270926 0.0074397945
0.018401371 -0.017195718 0.015691908 -0.025487464 -0.023223657 0.0056544496 0.018275134 -0.02806789
00000000: eebd 383b a8af dd3c 7b22 0abd 76a7 c8bc
00000010: c210 c23b a2c4 b43b 536a 4ebc 333c 163b
00000020: 3af7 813c e291 ceba 8683 39bc 9603 5dbd
00000030: a3b8 0ebc 4c0a 903c 82a8 21bd 5640 5ebb
00000040: 87d4 3abc 973b 3ebd b20e 813c a91d 0c3c
00000050: 7722 98bc fe21 edbc 25fa 05bd 85c9 f33b
00000060: 79be 963c 09de 8cbc 518c 803c 16cb d0bc
00000070: 8a3f bebc f648 b93b bcb5 953c a2ee e5bc

running_var f4 [32]
0.9132485 0.91360444 0.9161702 0.9164485 0.93764716 0.91395646 0.91892165 0.9140807
0.91301566 0.91233224 0.9162433 0.91975474 0.9104217 0.9077211 0.9190839 0.9160959
0.9087715 0.91479254 0.91765684 0.9144103 0.9068644 0.93732893 0.91035813 0.91083765
0.90963185 0.9235928 0.92186296 0.91185987 0.9092466 0.91176087 0.9086223 0.9275632
00000000: a7ca 693f fbe1 693f 218a 6a3f 5e9c 6a3f
00000010: a509 703f 0df9 693f 733e 6b3f 3101 6a3f
00000020: 65bb 693f 9b8e 693f ec8e 6a3f 0c75 6b3f
00000030: 6611 693f 6960 683f 1549 6b3f 4385 6a3f
00000040: 40a5 683f d82f 6a3f 8feb 6a3f cb16 6a3f
00000050: 4428 683f caf4 6f3f 3b0d 693f a82c 693f
00000060: a2dd 683f 9470 6c3f 36ff 6b3f a66f 693f
00000070: 63c4 683f 2969 693f 799b 683f c874 6d3f

weight f4 [4, 576]
0.0087188855 0.002946539 -0.027282232 -0.056112107 0.14997381 0.003196431 -0.031289402 -0.02477681
0.11572896 0.07258326 0.019800762 -0.03858826 -0.0062848073 -0.019389177 0.017894592 0.0359929
0.08651534 -0.014992754 0.052732434 -0.0777285 -0.017699804 -0.11015657 -0.042597383 -0.05647658
0.092985235 0.02962836 0.087476306 -0.0051694335 0.018630404 -0.066836275 0.08220913 0.031813353
-0.011273725 0.033916116 0.042457912 -0.14167148 -0.037326653 -0.031451467 0.0852569 0.029885694
0.048059832 0.06823258 -0.026315078 0.0705542 -0.091058105 -0.041911673 -0.035100635 0.0751889
-0.013786356 0.06661747 0.04223577 0.10942119 0.003076603 0.021446832 0.13674939 -0.0061080186
0.013042658 -0.025710005 0.054797277 -0.046676636 0.009796468 0.14649388 0.07948283 0.07441907
-0.112652786 0.1143283 -0.103758626 0.014663735 -0.015734624 -0.060786724 -0.11755017 0.032127857
0.07389479 -0.066806614 -0.0005470818 -0.037118483 0.025516963 -0.0343157 -0.02680341 -0.07401706
0.055870786 0.0063786656 0.19095239 0.06392018 -0.04281458 -0.06596427 -0.04381432 -0.04955519
0.07052672 -0.031706665 -0.099687114 -0.09053235 0.12072517 -0.11496946 -0.035659015 0.022719081
0.06666785 -0.068416186 0.06418168 0.014944139 -0.0013260526 -0.0636492 0.06203488 0.020259805
-0.024934152 -0.037375774 0.11662225 -0.092691936 -0.00052105513 -0.08405807 0.025022484 0.040791072
-0.0042178235 0.08704414 -0.08388248 0.108693 0.023319783 0.013329858 -0.10983244 0.023858352
-0.02084878 -0.052867256 -0.053395588 -0.065469846 -0.033818528 0.049388878 0.14687333 0.06389223
0.06598674 -0.02678565 -0.05419619 0.053757217 0.12675953 -0.0578021 -0.050717343 0.08961852
0.07103544 -0.067366555 0.15134694 0.006725582 0.002186747 0.024721019 0.019207127 0.029292852
0.029582657 0.06886342 0.0006516322 0.16074973 0.047289312 0.14485566 -0.06700224 0.0047153197
-0.0032549098 0.10473024 0.064944796 0.03769167 0.02527355 0.07136867 0.008971961 0.023433924
0.15362248 0.1833997 -0.02794494 -0.07046637 0.032015435 -0.044544496 -0.08238467 -0.08041977
-0.05959171 -0.1348735 -0.102068 -0.10753511 -0.13038251 -0.13649349 -0.008236776 -0.064134724
-0.016322175 -0.08702156 0.0060549723 -0.008134415 -0.0031793138 0.047453534 0.0026824037 -0.00016634181
-0.04207685 0.012632394 -0.037421104 -0.018438973 0.010423466 -0.0038470775 0.03896033 -0.06808473
-0.03791374 0.07959387 0.08808735 -0.020629374 0.051412806 0.060693495 0.033292312 0.022586145
0.029345244 -0.02239844 -0.016889531 -0.0033251226 -0.048025224 -0.03535727 -0.025509313 0.0453038
0.19320022 0.009197244 -0.007556595 0.025222598 0.049655993 -0.021039749 0.06825695 0.022980519
0.06545945 0.10471209 0.059619013 -0.12837014 -0.06788649 -0.036047373 -0.062356215 -0.10750893
-0.12156808 -0.02654175 0.032139417 -0.03971834 -0.012929863 -0.058309946 0.034585238 0.041398127
0.0032612782 0.09119329 -0.056810685 0.03959716 -0.038981386 -0.11007797 -0.088512115 -0.09544259
0.040733416 -0.06163873 -0.1116518 0.0036354424 0.03818865 -0.005490761 -0.041294 0.043484576
0.0018699629 0.028920814 -0.029118987 0.09639806 -0.02599559 -0.09600651 -0.12884462 0.063099176
00000000: a8d9 0e3c b91a 413b fd7e dfbc cfd5 65bd
00000010: bc92 193e 377b 513b 5129 00bd bdf8 cabc
00000020: 4e03 ed3d 88a6 943d 3535 a23c b90e 1ebd
00000030: c9f0 cdbb 0dd6 9ebc ae97 923c 4b6d 133d
00000040: f42e b13d 2ba4 75bc f7fd 573d 1f30 9fbd
00000050: 2eff 90bc c599 e1bd 987a 2ebd fd53 67bd
00000060: 0b6f be3d 2db7 f23c c726 b33d 5a64 a9bb
00000070: ca9e 983c 75e1 88bd 435d a83d b84e 023d
00000080: 6eb5 38bc a0eb 0a3d 59e8 2d3d 5412 11be
00000090: d5e3 18bd 41d3 00bd 2b9b ae3d d8d2 f43c
000000a0: 63da 443d 86bd 8b3d b892 d7bc b87e 903d
000000b0: ac7c babd 93ab 2bbd afc5 0fbd a3fc 993d
000000c0: 2be0 61bc bd6e 883d 6aff 2c3d 3818 e03d
000000d0: d5a0 493b 44b1 af3c 0808 0c3e c625 c8bb
000000e0: dfb0 553c ca9d d2bc 1c73 603d 0030 3fbd
000000f0: 5d81 203c 7e02 163e e5c7 a23d 0669 983d
00000100: 81b6 e6bd f524 ea3d 677f d4bd 2a40 703c
00000110: e6e5 80bc 80fb 78bd 25be f0bd 8098 033d
00000120: 2756 973d e8d1 88bd 0a6a 0fba 8d09 18bd
00000130: f308 d13c 9f8e 0cbd d392 dbbc 4296 97bd
00000140: c4d8 643d 2004 d13b 0689 433e 95e8 823d
00000150: 575e 2fbd 4618 87bd a576 33bd 62fa 4abd
00000160: 5070 903d d9de 01bd c228 ccbd 0669 b9bd
00000170: c23e f73d 1c75 ebbd 300f 12bd 5e1d ba3c
00000180: 2789 883d c91d 8cbd af71 833d 43d8 743c
00000190: f1ce adba 835a 82bd 4918 7e3d e4f7 a53c
000001a0: b542 ccbc 5717 19bd a5d7 ee3d 45d5 bdbd
000001b0: 6b97 08ba a326 acbd f4fb cc3c 8a14 273d
000001c0: ab35 8abb 3344 b23d 94ca abbd 709a de3d
000001d0: 2109 bf3c 7a65 5a3c d5ef e0bd 9772 c33c
000001e0: 10cb aabc 568b 58bd 55b5 5abd 0e15 86bd
000001f0: 4c85 0abd fe4b 4a3d f665 163e eed9 823d
00000200: 0e24 873d 946d dbbc d3fc 5dbd 8730 5c3d
00000210: 40cd 013e e5c1 6cbd fdbc 4fbd ea89 b73d
00000220: 077b 913d 7af7 89bd b1fa 1a3e 4562 dc3b
00000230: 874f 0f3b bc83 ca3c 4458 9d3c 90f7 ef3c
00000240: 5457 f23c 4408 8d3d 4cd2 2a3a 949b 243e
00000250: 70b2 413d 0b55 143e 7838 89bd f882 9a3b
00000260: 5350 55bb cf7c d63d c701 853d 9562 1a3d
00000270: 7a0a cf3c bd29 923d 22ff 123c 80f8 bf3c
00000280: 364f 1d3e 22cd 3b3e c9ec e4bc ac50 90bd
00000290: 9e22 033d 4a74 36bd 4bb9 a8bd 1fb3 a4bd
000002a0: 7016 74bd 471c 0abe 0709 d1bd 5e3b dcbd
000002b0: fe82 05be f3c4 0bbe 8bf3 06bc 1159 83bd
000002c0: 15b6 85bc 5c38 b2bd ca68 c63b 3646 05bc
000002d0: 095c 50bb a35e 423d 44cb 2f3b 0a6c 2eb9
000002e0: c658 2cbd 1af8 4e3c df46 19bd 540d 97bc
000002f0: 2fc7 2a3c 401f 7cbb de94 1f3d 0270 8bbd
00000300: 704b 1bbd 1c02 a33d 2467 b43d effe a8bc
00000310: 3c96 523d be99 783d 855d 083d 9406 b93c
00000320: 7065 f03c ef7c b7bc ea5b 8abc 4dea 59bb
00000330: 19b6 44bd c9d2 10bd e8f8 d0bc 7a90 393d
00000340: 47d6 453e 0ab0 163c 509d f7bb 9f9f ce3c
00000350: 1564 4b3d 8d5b acbc 4dca 8b3d a441 bc3c
00000360: 9b0f 863d 4b73 d63d 1133 743d 7673 03be
00000370: 1208 8bbd 69a6 13bd 3b69 7fbd a42d dcbd
00000380: aff8 f8bd 166e d9bc 9fa4 033d b3af 22bd
00000390: c7d7 53bc 69d6 6ebd 40a9 0d3d 1591 293d
000003a0: 2bbb 553b 8cc3 ba3d 52b2 68bd a230 223d
000003b0: f2aa 1fbd 8f70 e1bd d745 b5bd 6877 c3bd
000003c0: 15d8 263d e578 7cbd b3a9 e4bd 9a40 6e3b
000003d0: b46b 1c3d d7eb b3bb e623 29bd e21c 323d
000003e0: 8b19 f53a 58eb ec3c f18a eebc 596c c53d
000003f0: b4f4 d4bc 109f c4bd d8ef 03be 243a 813d

bias f4 [4]
0.041235454 0.06086622 -0.012624053 0.0046286457
00000000: 82e6 283d dc4e 793d 1ed5 4ebc e5ab 973b
