cnn_eat_flat_reward.ckpt (torch, 111287 bytes, 20 tensors)

weight f4 [16, 1, 2, 5]
000000 48 a6 b5 3c 4c e8 96 3b 00 b7 14 bd 2e 71 6d 3e
       0.022174016 0.0046053287 -0.036307335 0.23187706
000010 3f 64 0b 3f a0 0a b5 bc 0e c6 cd 3e 39 21 4d bc
       0.5444984 -0.022099793 0.40190166 -0.012520128
000020 8f e7 9c 3c 8c 08 b9 ba e3 a7 34 bc a1 98 99 3e
       0.019153384 -0.0014116927 -0.011026355 0.2999926
000030 c3 ea e3 bc 92 6e d3 3e 28 46 81 bd d1 00 47 bd
       -0.027821904 0.41295296 -0.06312209 -0.048584763
000040 55 00 c9 bb 5a eb 05 bc 03 9c 69 bd 17 d9 13 3f
       -0.006134073 -0.008173788 -0.05703355 0.5775313
000050 dd 7d b8 bd 9e 73 80 3e 95 7c 6f bc 84 82 9d 3e
       -0.090083815 0.2508821 -0.014617105 0.30763638
000060 c5 d1 47 bd d1 b4 e8 bc 6d 53 32 bc e2 d2 c4 bc
       -0.048784036 -0.028406532 -0.010884148 -0.024026338
000070 ed de c4 3e 22 be 88 bd 72 c3 9b 3d 35 4e 54 bc
       0.3845133 -0.0667689 0.076056376 -0.012958099
000080 34 fc c3 3c 24 eb 30 bd 7c 4f de bd 22 36 94 3e
       0.02392397 -0.043192998 -0.10855004 0.2894755
000090 ef 6a a7 3e f3 27 67 bd 69 68 74 bd d1 4a 11 be
       0.3269877 -0.056434583 -0.059669886 -0.14188696
0000a0 95 0f 00 3b 23 7b 43 3c 88 a1 64 3e d4 9e 59 3d
       0.0019540538 0.011931214 0.22327244 0.053129986
0000b0 1f 4c fb 3e 6c 00 4c 3c 50 3c a5 3e 38 02 81 3d
       0.49081513 0.012451272 0.32272577 0.06299251
0000c0 57 02 9c bd 28 e0 b0 bd 89 bf d9 3c 56 a3 60 3b
       -0.07617634 -0.086365044 0.026580589 0.0034277043
0000d0 97 77 74 3e b6 51 a8 3e fc 7b 81 3e 3b 83 49 bd
       0.23873745 0.3287484 0.25289905 -0.049197417
0000e0 fd 65 c1 3c 84 d1 a3 3c 01 16 0e bd 0a 24 47 3c
       0.023608202 0.019997366 -0.034688953 0.0121545885
0000f0 07 90 d7 bd 47 fe f0 3e 47 56 52 bd b1 2c 46 3e
       -0.10525518 0.47068998 -0.05135181 0.19352986
000100 32 f8 96 3c e6 7f 6b bd b9 cf 9d bd e8 8c bf 3e
       0.018428896 -0.05749502 -0.077056356 0.3741219
000110 fb 3f bf bd a4 cc 84 bd 27 92 00 3f 44 5b 44 bc
       -0.09338375 -0.064843446 0.5022301 -0.01198465
000120 1b 42 11 bd 76 1d 84 3e 13 62 70 3c 43 de a0 3e
       -0.035463434 0.25803727 0.01467182 0.31419572
000130 30 36 c2 bb db ef 64 3e 2e 0c 7c 3e 48 59 dc bc
       -0.00592687 0.22357123 0.24614021 -0.026898041
000140 7a 1e 7c 3c 8f bd 93 3e bf 7b 14 bc 8e ea 1c 3a
       0.015388126 0.2885556 -0.0090627065 0.0005985879
000150 44 35 88 3e ad 5d ca 3e dd 89 07 bd 23 e1 3f bd
       0.26603138 0.39524594 -0.03309046 -0.046845566
000160 4f df 67 bc 7d 20 a7 3e 35 d2 4a be 04 62 95 3e
       -0.014152362 0.32641974 -0.1980675 0.29176342
000170 d2 11 49 bd 45 b8 05 be b6 32 a4 bc ce 13 ac bd
       -0.04908926 -0.13058574 -0.020043712 -0.08402215
000180 7f f4 a0 bd b9 37 db bd f9 c2 09 3d 93 8f 68 3e
       -0.07859134 -0.10703988 0.033633206 0.22711019
000190 61 de 87 bd 6a 42 a1 bd 0f ab 4b 3b 2a 08 ae bc
       -0.06634212 -0.078739956 0.00310773 -0.021244127
0001a0 77 ab 1c bc 1b 7d 46 3f fa 53 20 bd 0e eb 4d bc
       -0.009562365 0.77534646 -0.039142586 -0.012568248
0001b0 3d 67 b7 bb 5c aa 53 ba 47 dc 2e bd 69 cb 28 ba
       -0.0055970238 -0.0008074397 -0.04269054 -0.0006439002
0001c0 cd 6a 2d bc 7d 6d de bc 65 19 b0 bb 91 79 97 3e
       -0.010584545 -0.027151817 -0.005374121 0.29584935
0001d0 5c b1 a9 3e 51 a5 84 bc 0b a1 d1 3e 3a e4 c3 3e
       0.33143127 -0.01619211 0.4094318 0.3826006
0001e0 63 ce 94 bd 77 f0 78 bd 6e 42 22 3e 4a 89 a4 3e
       -0.07265928 -0.0607762 0.15845653 0.32135993
0001f0 3d 50 0c bc af dd 00 bd 8a fc ad 3e 66 1b 5c 3e
       -0.008564052 -0.031461414 0.33981735 0.21494827
000200 9b b5 7b 3e 66 b5 b6 3b dc 63 03 3f 97 8d 72 3e
       0.24580996 0.0055758236 0.5132425 0.23686825
000210 63 cb 96 bc a0 4b c9 bc fe bb 6c bc 69 00 81 3d
       -0.01840753 -0.024572194 -0.014449118 0.06298906
000220 f4 05 e6 bb f4 fb 9c 3a 6d 62 0b bd 17 a8 05 3f
       -0.0070197526 0.0011976943 -0.034029413 0.5220961
000230 8e c3 d2 bd 35 60 a9 ba 38 83 ea bd 7b 41 b8 3d
       -0.10291205 -0.0012922349 -0.11450809 0.089968644
000240 50 ab 14 3e c3 ee 99 3e b5 c8 d4 3d 6b 91 86 3c
       0.14518476 0.30064973 0.10389844 0.016426763
000250 27 77 79 bc 15 7d 13 3d c5 4a 54 bd 53 f2 24 bd
       -0.015226162 0.03600796 -0.05182912 -0.04027016
000260 91 3e e2 3e ae 8a c3 bc 38 55 fa bb 9b 40 dc bc
       0.4418836 -0.023869839 -0.0076395534 -0.026886275
000270 fe de c7 3e 8c 4f 3e bd 98 f2 92 bc 77 c6 e0 3e
       0.39037317 -0.04646258 -0.017937943 0.43901417

bias f4 [16]
000000 d4 ca b6 be e5 f1 c5 be a8 f7 17 3e 36 76 0b be
       -0.3570162 -0.38661113 0.14840567 -0.13619313
000010 4f c8 d5 be 4e 7b af 3e f1 7a dc be 62 d4 b7 be
       -0.41754386 0.34273762 -0.43062547 -0.35904223
000020 bf ba c9 be 61 90 62 be 5f 73 12 bf 55 18 0a bf
       -0.39400288 -0.22125389 -0.5720729 -0.5394338
000030 23 32 f2 be 39 d5 1e bf d4 1c 8f 3e da 94 20 bf
       -0.47303876 -0.620441 0.27951682 -0.6272713

weight f4 [16]
000000 f9 2e 8c 3f 90 5b 83 3f f6 fa 2d 3f 39 41 39 3f
       1.0951835 1.0262318 0.6796106 0.72365147
000010 16 3e 75 3f a3 d0 56 3f 24 42 7d 3f 90 5c 75 3f
       0.9579786 0.83912104 0.9892905 0.95844364
000020 15 a1 7b 3f 1c c2 20 3f f1 71 b0 3f c6 ed 89 3f
       0.98292667 0.6279619 1.3784772 1.0775688
000030 cc 8c 75 3f 0c 6b 8c 3f dc c2 2c 3f d7 13 8d 3f
       0.95917964 1.0970168 0.6748483 1.102168

bias f4 [16]
000000 e7 31 02 bf 0d 3c db be 16 39 bc bd 1e 9f 80 be
       -0.50857395 -0.42819253 -0.09190576 -0.25121397
000010 f6 89 93 be 6d 7e 11 3d fc bf b3 be dc 9d 11 bf
       -0.28816193 0.03552096 -0.3510741 -0.568815
000020 8c 1c bf be b1 a6 c7 bd e5 05 0e bf 24 a3 b5 be
       -0.37326467 -0.09748591 -0.55477744 -0.3547603
000030 88 7a e5 be 4e c1 d1 be d3 cb ac 3c 0d 5b 9f be
       -0.44820046 -0.40967792 0.021093285 -0.31124154

running_mean f4 [16]
000000 00 00 00 00 00 00 00 00 00 00 00 00 00 00 00 00
       0.0 0.0 0.0 0.0
000010 00 00 00 00 00 00 00 00 00 00 00 00 00 00 00 00
       0.0 0.0 0.0 0.0
000020 00 00 00 00 00 00 00 00 00 00 00 00 00 00 00 00
       0.0 0.0 0.0 0.0
000030 00 00 00 00 00 00 00 00 00 00 00 00 00 00 00 00
       0.0 0.0 0.0 0.0

running_var f4 [16]
000000 00 00 80 3f 00 00 80 3f 00 00 80 3f 00 00 80 3f
       1.0 1.0 1.0 1.0
000010 00 00 80 3f 00 00 80 3f 00 00 80 3f 00 00 80 3f
       1.0 1.0 1.0 1.0
000020 00 00 80 3f 00 00 80 3f 00 00 80 3f 00 00 80 3f
       1.0 1.0 1.0 1.0
000030 00 00 80 3f 00 00 80 3f 00 00 80 3f 00 00 80 3f
       1.0 1.0 1.0 1.0

weight f4 [64, 16, 2, 5]
000000 29 8d 60 bd bd 10 4a be 3b 86 b2 be 05 bb 9c 3e
       -0.05482212 -0.19732948 -0.34868035 0.30611435
000010 8d f1 4b be 25 03 84 bc 0c e0 90 bd 87 06 dd bb
       -0.19916363 -0.01611478 -0.070739836 -0.006745163
000020 8d 98 5d 3e 6a 50 13 be 88 62 e5 bd ef ab 25 bd
       0.21640225 -0.14386144 -0.11200434 -0.04044717
000030 6f b7 50 3e d5 af 03 be 7a b7 31 3e cc 81 ae 3d
       0.20382474 -0.12860043 0.17355147 0.085208505
000040 41 bc ba bd f8 6c 1d be 66 1a 12 3e 54 1d 02 bf
       -0.09117938 -0.153736 0.14267883 -0.50826
000050 4d 4b 71 be 68 df 24 bd 59 11 71 be 3c 25 34 3d
       -0.23563881 -0.04025212 -0.23541774 0.043980822
000060 93 f4 95 be 0c 13 35 3d 78 a6 da bd ec d2 ec 3d
       -0.29288158 0.044207618 -0.10676283 0.11563668
000070 f8 b4 e7 3d d3 7f 0b bf 95 e5 15 be 5c 32 a1 bd
       0.11313814 -0.5449192 -0.1463836 -0.078709334
000080 f4 97 27 be c1 42 66 3d e4 d7 6c 3d 75 be 92 bd
       -0.1636656 0.056216005 0.057823077 -0.07165233
000090 1f 85 d4 3c 4d dc 0b be 60 6c 53 bc 89 aa 0e 3d
       0.025942383 -0.13658257 -0.012904257 0.034830604
0000a0 30 3d d2 3c df 23 8c bc 53 ad 45 be e7 91 ae 3e
       0.025663942 -0.017106948 -0.19304399 0.3409569
0000b0 9c d4 3b bd bc fd 97 bc 49 79 f1 3c 7e 5b 53 3e
       -0.045857057 -0.018553607 0.029476779 0.2064037
0000c0 23 02 b8 bd 46 fa 39 3d e8 cd 61 be 00 c9 09 be
       -0.089847825 0.045404695 -0.22051203 -0.13455582
0000d0 3b b6 30 3c 9c 29 2a be 8e e2 bc 3c 77 10 a4 bd
       0.010785635 -0.16617435 0.023057248 -0.08010953
0000e0 64 01 18 bd b6 c9 4b bd 90 6d 01 bf 6f 13 54 be
       -0.0371107 -0.049752913 -0.50557804 -0.20710538
0000f0 80 96 6c 3c ac 95 0b bd 36 88 25 3d d0 3b ca bd
       0.014440179 -0.034078285 0.040413104 -0.098746896
000100 1f b8 66 3e be 49 62 bd 75 e3 8f bc 79 69 7f bc
       0.22531174 -0.055246107 -0.017564515 -0.0155891115
000110 ce da 38 3e fc 46 11 be aa 29 b8 3c 67 ed 89 3d
       0.18052217 -0.14187235 0.022480804 0.06734734
000120 38 4a 60 3a 96 5e 49 be e0 81 4a be 9b 4b 36 3e
       0.00085559813 -0.19664988 -0.19776106 0.17802279
000130 2b 2e 64 3e a6 18 a2 3d 33 e2 07 3e 12 4e 48 3e
       0.22283237 0.079148576 0.13269882 0.19561031
000140 c8 1f 70 be 56 fc e4 bc b1 2e 3a 3e df 60 0d 3c
       -0.23449624 -0.027952354 0.18181874 0.008629053
000150 11 f5 c7 3c 39 46 9a 3c 2b d9 2a be 0a 5d b3 3c
       0.024408849 0.018832313 -0.16684406 0.02189495
000160 e4 45 30 3e bc 97 cd bd d8 a2 d4 3d 7f 95 21 be
       0.17214161 -0.10038707 0.103826225 -0.15779684
000170 81 eb 1a 3e ed c2 3f 3d 6e d1 9f b9 46 96 9e 3c
       0.151289 0.046816755 -0.0003048288 0.019358765
000180 66 d4 db 3d 4f 48 33 3c 29 4b 5b 3d 44 0a 7f 3d
       0.10733871 0.010942533 0.053538475 0.06226565
000190 51 e8 57 3d b0 32 bf 3c bc a5 cd 3d e4 5c 93 bd
       0.05271179 0.0233396 0.10041377 -0.07195452
0001a0 5f 66 52 3b 64 55 81 3c 2d e3 07 3d 3e 91 3c be
       0.0032104475 0.015787788 0.033175636 -0.1841478
0001b0 0c a5 74 be d5 96 33 be 80 aa 90 3d 4c c7 a0 3d
       -0.23891085 -0.17538007 0.0706377 0.07850513
0001c0 e8 3b ac 3d 98 51 f5 3d 16 c8 0d be b8 82 ba 3d
       0.08409864 0.119784534 -0.13845858 0.09106964
0001d0 80 ed fb 3d 55 d4 02 be 9f 3b 3a 3c bb b9 e5 3b
       0.12301159 -0.1277631 0.011366754 0.007010666
0001e0 4c 3d 10 be cb 18 95 3d cb d1 44 be 23 df d0 bd
       -0.14085883 0.072801195 -0.19220655 -0.1019881
0001f0 42 d9 dc be ad 84 9d bc b0 88 d2 3d 69 be b6 3d
       -0.43134505 -0.019228304 0.10279977 0.089230366
000200 52 47 0f be f2 a0 35 be 20 02 91 be 00 75 99 3d
       -0.1399205 -0.17737177 -0.28321934 0.07493019
000210 a7 c7 e1 3e 9a ba 09 3e 63 a6 61 3e 6f f8 43 be
       0.44097635 0.13450089 0.22036128 -0.19137739
000220 58 88 fb bd bf ed 12 be 36 b6 84 3e db 1c 43 be
       -0.12281865 -0.14348505 0.25920266 -0.19053976
000230 16 be 9b bd 38 6e ad 3c ea 9e 24 be 4c b0 1d 3c
       -0.076046154 0.02117072 -0.16076246 0.009624552
000240 ef c5 d4 3d 1d ee 2c be 02 ed d8 bd 86 0c a8 3c
       0.10389315 -0.16887708 -0.10592081 0.020513784
000250 2e 29 15 3d 9a c7 28 3d 0d 76 7d be d2 6f 6b 3c
       0.036416225 0.04120598 -0.24752064 0.014369922
000260 52 0c bc 3e be 62 12 bc 3e 82 6c 3d f4 d3 32 bd
       0.3672815 -0.008934675 0.057741396 -0.043659166
000270 45 1f 98 3d f2 08 3c 3d 2b c4 d6 3e 8b c1 4d 3e
       0.07427839 0.04590697 0.4194654 0.20093362
000280 84 8f a2 bd fc 70 ea bb 75 4e 91 3e a8 77 0e 3e
       -0.0793753 -0.007154582 0.2838017 0.13912833
000290 64 b9 34 be b0 f9 07 3e 1d 0e a5 bd 90 8e df bd
       -0.17648846 0.13278842 -0.080593325 -0.109158635
0002a0 9c 4f b2 bd 6a 8a 2d 3d a0 7e 60 3e 48 dd 26 3d
       -0.087065905 0.04236833 0.21923304 0.040738374
0002b0 af e6 7c 3d 81 35 5a bd 60 02 95 bd 56 93 12 bf
       0.061743435 -0.05327368 -0.072758436 -0.57256067
0002c0 ad d6 11 3e 3d e1 99 bd 4d d0 27 3e 1a 83 ef be
       0.14242049 -0.07513664 0.16388054 -0.4677971
0002d0 51 9c bb be af 2b cd bc 88 7e 96 bd 17 9e a7 bd
       -0.36642697 -0.025045244 -0.07348353 -0.0818445
0002e0 28 13 37 3c 93 20 0d be 62 43 59 bd 22 73 8a bd
       0.011174001 -0.13781957 -0.053042777 -0.06760241
0002f0 81 90 f3 3d 08 78 a8 bd 67 71 f9 bd 40 38 c0 3c
       0.11892796 -0.08226019 -0.12179833 0.023464322
000300 72 4e b2 bd 28 3b 19 3c 13 4b b7 3b 2e 3d 48 be
       -0.087063685 0.009352483 0.0055936663 -0.19554588
000310 cb 11 42 3e 9d fc 1d 3e e4 d9 4b bd 4a 47 9f bd
       0.189521 0.15428396 -0.049768344 -0.07777269
000320 f0 6d 39 be bc 09 95 bb 9f f3 92 bd 18 f8 4d 3e
       -0.18108344 -0.0045482796 -0.07175373 0.20114172
000330 0c 89 bd 3c 06 cf a5 3d 48 c8 b2 bd ed e6 4f 3c
       0.023136638 0.08096127 -0.08729607 0.012689334
000340 35 28 a4 3d 2b 62 e7 3a f8 55 53 3d cc eb 20 bc
       0.080154814 0.0017653158 0.051595658 -0.009821843
000350 cc 60 36 bd 98 3a 9c bd e4 c1 31 be 6e 70 df bd
       -0.044525906 -0.07628363 -0.1735912 -0.10910116
000360 17 af 23 bd fc 24 af ba 7a ef 35 be 9a ab c6 bb
       -0.0399619 -0.0013362463 -0.17767134 -0.006062937
000370 cc 3a f6 3c 28 04 e4 bc 69 0c 66 3e ef 4d 51 3d
       0.030057333 -0.027834013 0.22465672 0.051099714
000380 d3 7f 45 bd 75 54 f2 3d d6 d6 be bc 6b 0e 8c be
       -0.048217606 0.11832515 -0.023295801 -0.2735475
000390 70 97 4d 3e ef 0a 81 be b4 4d cb bd 03 4f 48 bd
       0.200773 -0.25203654 -0.0992693 -0.048903476
0003a0 5a 2e 0c 3a b6 55 d6 bd f8 dc 27 3d c6 ad 71 bd
       0.0005347483 -0.10465567 0.040982217 -0.059003614
0003b0 c1 ad de 3c c2 9b 0e be 1c 39 e7 bd c4 fc 14 3d
       0.027182462 -0.13926604 -0.112901896 0.03637387
0003c0 0e 42 fb 3c 65 55 ab 3c 2c 83 34 3e 52 50 51 be
       0.030671146 0.020914743 0.17628163 -0.20440796
0003d0 e2 15 ce 3c c4 0b 8b 3b be f2 39 be 93 7f 0c 3e
       0.025156919 0.004243346 -0.18159005 0.1372054
0003e0 b4 5c 3b 3e e2 59 1e 3d 10 75 3c 3d da 0c 1b 3d
       0.18297082 0.038659938 0.046010077 0.037854053
0003f0 2d 13 94 3c 27 24 9f be 78 eb cf bd 6e 95 ee 3c
       0.01807555 -0.3108227 -0.10152334 0.029123988

bias f4 [64]
000000 a8 06 17 bd 4d 12 61 be 34 6d 75 bd e5 27 61 be
       -0.036871582 -0.21979637 -0.059918597 -0.21987875
000010 b2 54 6d be a5 42 bf be 9a 9b 36 be c4 e2 86 bd
       -0.2317684 -0.37355533 -0.17832795 -0.06586221
000020 4b 4f 71 be 71 d3 42 bd 18 fd 2a be e5 c0 90 bc
       -0.23565404 -0.047564927 -0.1669811 -0.017670104
000030 03 89 83 be ff 02 dd bd 71 7f 7a bd 2f 44 ca bc
       -0.2569047 -0.10791587 -0.061156694 -0.024690716
000040 34 a4 06 be 8f 8c 97 be 4e 4a f4 bd 92 b2 54 be
       -0.13148576 -0.29599425 -0.11928235 -0.20771244
000050 28 ee 85 be 1f 32 62 be 4d e5 07 be f6 32 9f 3c
       -0.2615826 -0.22089432 -0.13271065 0.01943348
000060 08 63 7a be c5 5d 7d 3c 1c 85 ca bd 5d 7a 27 3d
       -0.2445184 0.015464251 -0.0988867 0.04088818
000070 f0 3e 9e 3c 2b 61 06 bd 5f 16 47 be 45 23 a5 be
       0.01931712 -0.03280751 -0.19442128 -0.3225347
000080 38 03 5c be 88 af ad bd e7 6b 5f 3c 84 2f 20 be
       -0.21485603 -0.084807456 0.013636566 -0.15643126
000090 74 56 a1 be 50 b4 94 be d8 09 47 be 89 77 ae bc
       -0.3151127 -0.29043818 -0.19437349 -0.021297233
0000a0 d2 86 b9 bd 74 c0 9a bd 6e fa 42 be 18 62 2d be
       -0.09058918 -0.07556239 -0.19040844 -0.16931951
0000b0 b5 99 53 be db 63 41 be a7 10 29 be f1 b8 17 be
       -0.20664103 -0.18885748 -0.16510259 -0.14816643
0000c0 12 7e 97 be e1 e2 85 bc 8c e5 84 be 7b 8d ac be
       -0.29588372 -0.016343536 -0.2595638 -0.3370169
0000d0 7c b9 b1 bd e5 44 33 be 83 85 bd bd 09 59 44 be
       -0.086779565 -0.1750675 -0.09253981 -0.19174589
0000e0 a6 06 ab bd c3 07 1a be 55 d0 ac be fa 0e 70 be
       -0.083508775 -0.15042023 -0.33752695 -0.23443213
0000f0 10 8d c9 be 75 b0 3d be 40 09 7f be 81 ec 16 be
       -0.39365435 -0.18524344 -0.24905872 -0.14738657

weight f4 [64]
000000 f2 fb aa 3f 1b b8 96 3f 9d 43 8a 3f 26 90 a0 3f
       1.3358138 1.1774935 1.0801884 1.2543991
000010 f0 2e 8e 3f a0 9c ad 3f 94 a7 75 3f 79 1e 9c 3f
       1.1108074 1.3563423 0.9595883 1.21968
000020 b2 e1 96 3f 43 3e 25 3f 10 4f aa 3f 7a 9b 6b 3f
       1.1787627 0.6454813 1.3305378 0.92034113
000030 ea f9 a5 3f 8e c5 82 3f 01 aa 76 3f 00 d5 76 3f
       1.2966893 1.0216539 0.96353155 0.9641876
000040 d3 d7 b7 3f 1b fb 9c 3f 8f 78 a7 3f 08 24 c2 3f
       1.4362739 1.2264131 1.3083667 1.5167246
000050 29 de b8 3f bb 40 b9 3f 52 b0 db 3f b8 d4 7c 3f
       1.4442798 1.4472879 1.7163184 0.98762083
000060 08 cf 9c 3f 17 7c 71 3f 03 1b 8d 3f 1e 1e 94 3f
       1.2250681 0.9432997 1.1023868 1.1571691
000070 44 8f 84 3f 17 44 84 3f 72 7e 9d 3f 55 9b 81 3f
       1.0356221 1.0333279 1.2304213 1.0125529
000080 6e ca 74 3f 29 d5 78 3f af a3 8a 3f 87 b1 a7 3f
       0.95621383 0.97200257 1.0831202 1.3101052
000090 48 79 97 3f e3 f7 a9 3f 36 92 8e 3f ba 09 9c 3f
       1.1833887 1.3278774 1.113837 1.2190468
0000a0 34 9d a8 3f 1d ec a5 3f 79 6b 75 3f 8d 97 61 3f
       1.3172975 1.2962681 0.95867115 0.88121873
0000b0 70 b1 b6 3f 7b 7f ca 3f df c3 82 3f 72 a9 b8 3f
       1.42729 1.5820154 1.0216025 1.4426711
0000c0 60 2c b8 3f d7 f1 8d 3f 5e 74 7f 3f b6 17 87 3f
       1.4388542 1.1089429 0.9978694 1.0554111
0000d0 40 68 6c 3f ee b6 8f 3f b2 68 a2 3f b7 ed b6 3f
       0.9234657 1.1227701 1.26882 1.4291295
0000e0 c5 17 99 3f 05 36 94 3f f6 e3 96 3f 49 0d 71 3f
       1.1960379 1.1578985 1.1788318 0.94160897
0000f0 0a 4f 9f 3f 18 82 a3 3f ad ba 95 3f a4 86 97 3f
       1.2445996 1.2774076 1.1697594 1.1837964

bias f4 [64]
000000 0d 0c 97 bc 97 94 14 be 7c 45 5c bd fe ad 42 be
       -0.018438363 -0.14509808 -0.053777203 -0.19011685
000010 1a 1c 7d be f5 6f a9 be 89 fd 27 be 16 0a d1 bd
       -0.24717751 -0.3309323 -0.1640531 -0.10207002
000020 4c c9 40 be 19 3a a0 bd f2 8a 1d be eb f8 3a bd
       -0.18826789 -0.07823581 -0.15385035 -0.045647543
000030 de 8a 3e be 68 6d e1 bd 1b 40 ea bd a2 ed a5 bc
       -0.18607661 -0.11007196 -0.114380084 -0.020254914
000040 70 23 64 bd bf 60 62 be 82 7e 1a be 5c e4 47 be
       -0.05569786 -0.22107218 -0.15087321 -0.19520706
000050 cf 8b 47 be e9 c5 5f be 84 2f 0f be c7 93 2b bd
       -0.19486926 -0.2185284 -0.1398297 -0.04188898
000060 d3 13 6c be 75 06 42 bd 81 e2 14 be 46 57 e4 bc
       -0.23054437 -0.04736944 -0.1453953 -0.027873646
000070 89 50 2d bd 62 f2 13 bd 8a 98 ff bd 82 35 7c be
       -0.042313132 -0.036119826 -0.124802664 -0.24629787
000080 29 ce 6f be c1 11 ba bd 91 4f 0e bd 5b 81 33 be
       -0.23418488 -0.090854175 -0.03474385 -0.17529814
000090 b9 a0 83 be 41 7e 77 be 42 9f 02 be ea 91 77 bd
       -0.2570856 -0.24169256 -0.12756065 -0.06044189
0000a0 b2 3b 99 bd 83 04 5b bc b7 3c 2c be 9a 60 44 be
       -0.07482089 -0.013367775 -0.16820036 -0.19177476
0000b0 10 9e 3e be 9a e2 e7 bd c9 7b f8 bd 2b ba e5 bd
       -0.18614984 -0.11322518 -0.12132985 -0.11217149
0000c0 af 7f 83 be d0 e4 ae bd af a2 58 be c7 e3 87 be
       -0.25683352 -0.08539736 -0.21155809 -0.26540968
0000d0 1b ab 2d bd 9d da fc bd 87 2b e0 bd b0 a8 85 be
       -0.042399507 -0.12346385 -0.10945802 -0.2610526
0000e0 7b 79 dc bc 54 3c 47 be b7 08 9b be 1e e6 1e be
       -0.026913395 -0.19456607 -0.30280086 -0.1551747
0000f0 c5 2d c7 be 40 4e 2a be db 71 57 be fa c1 16 be
       -0.38902107 -0.16631413 -0.21039526 -0.14722434

running_mean f4 [64]
000000 00 00 00 00 00 00 00 00 00 00 00 00 00 00 00 00
       0.0 0.0 0.0 0.0
000010 00 00 00 00 00 00 00 00 00 00 00 00 00 00 00 00
       0.0 0.0 0.0 0.0
000020 00 00 00 00 00 00 00 00 00 00 00 00 00 00 00 00
       0.0 0.0 0.0 0.0
000030 00 00 00 00 00 00 00 00 00 00 00 00 00 00 00 00
       0.0 0.0 0.0 0.0
000040 00 00 00 00 00 00 00 00 00 00 00 00 00 00 00 00
       0.0 0.0 0.0 0.0
000050 00 00 00 00 00 00 00 00 00 00 00 00 00 00 00 00
       0.0 0.0 0.0 0.0
000060 00 00 00 00 00 00 00 00 00 00 00 00 00 00 00 00
       0.0 0.0 0.0 0.0
000070 00 00 00 00 00 00 00 00 00 00 00 00 00 00 00 00
       0.0 0.0 0.0 0.0
000080 00 00 00 00 00 00 00 00 00 00 00 00 00 00 00 00
       0.0 0.0 0.0 0.0
000090 00 00 00 00 00 00 00 00 00 00 00 00 00 00 00 00
       0.0 0.0 0.0 0.0
0000a0 00 00 00 00 00 00 00 00 00 00 00 00 00 00 00 00
       0.0 0.0 0.0 0.0
0000b0 00 00 00 00 00 00 00 00 00 00 00 00 00 00 00 00
       0.0 0.0 0.0 0.0
0000c0 00 00 00 00 00 00 00 00 00 00 00 00 00 00 00 00
       0.0 0.0 0.0 0.0
0000d0 00 00 00 00 00 00 00 00 00 00 00 00 00 00 00 00
       0.0 0.0 0.0 0.0
0000e0 00 00 00 00 00 00 00 00 00 00 00 00 00 00 00 00
       0.0 0.0 0.0 0.0
0000f0 00 00 00 00 00 00 00 00 00 00 00 00 00 00 00 00
       0.0 0.0 0.0 0.0

running_var f4 [64]
000000 00 00 80 3f 00 00 80 3f 00 00 80 3f 00 00 80 3f
       1.0 1.0 1.0 1.0
000010 00 00 80 3f 00 00 80 3f 00 00 80 3f 00 00 80 3f
       1.0 1.0 1.0 1.0
000020 00 00 80 3f 00 00 80 3f 00 00 80 3f 00 00 80 3f
       1.0 1.0 1.0 1.0
000030 00 00 80 3f 00 00 80 3f 00 00 80 3f 00 00 80 3f
       1.0 1.0 1.0 1.0
000040 00 00 80 3f 00 00 80 3f 00 00 80 3f 00 00 80 3f
       1.0 1.0 1.0 1.0
000050 00 00 80 3f 00 00 80 3f 00 00 80 3f 00 00 80 3f
       1.0 1.0 1.0 1.0
000060 00 00 80 3f 00 00 80 3f 00 00 80 3f 00 00 80 3f
       1.0 1.0 1.0 1.0
000070 00 00 80 3f 00 00 80 3f 00 00 80 3f 00 00 80 3f
       1.0 1.0 1.0 1.0
000080 00 00 80 3f 00 00 80 3f 00 00 80 3f 00 00 80 3f
       1.0 1.0 1.0 1.0
000090 00 00 80 3f 00 00 80 3f 00 00 80 3f 00 00 80 3f
       1.0 1.0 1.0 1.0
0000a0 00 00 80 3f 00 00 80 3f 00 00 80 3f 00 00 80 3f
       1.0 1.0 1.0 1.0
0000b0 00 00 80 3f 00 00 80 3f 00 00 80 3f 00 00 80 3f
       1.0 1.0 1.0 1.0
0000c0 00 00 80 3f 00 00 80 3f 00 00 80 3f 00 00 80 3f
       1.0 1.0 1.0 1.0
0000d0 00 00 80 3f 00 00 80 3f 00 00 80 3f 00 00 80 3f
       1.0 1.0 1.0 1.0
0000e0 00 00 80 3f 00 00 80 3f 00 00 80 3f 00 00 80 3f
       1.0 1.0 1.0 1.0
0000f0 00 00 80 3f 00 00 80 3f 00 00 80 3f 00 00 80 3f
       1.0 1.0 1.0 1.0

weight f4 [32, 64, 2, 3]
000000 d3 e7 99 be ff 2b 03 be 08 30 99 be 02 13 7d 3d
       -0.3005968 -0.12809752 -0.29919457 0.061785705
000010 e3 7c d7 3d 4c fb 31 3e e7 ca a5 bd 93 ee 23 bd
       0.10521867 0.17381018 -0.08095341 -0.040022444
000020 19 7c b7 bd f6 33 22 3c 20 aa 46 bc 5e 41 e8 3c
       -0.089592166 0.009900084 -0.012125522 0.028351482
000030 a9 08 17 bd 64 74 29 bc 59 dd 39 bd e3 f0 a1 3c
       -0.036873493 -0.010342691 -0.04537711 0.019768184
000040 33 05 00 bc 3c 8e 0b 3d 4a 86 5e b9 6f 23 76 3d
       -0.00781374 0.034071192 -0.00021221596 0.060092386
000050 1f ad 0b 3d 2d 19 1d 3d 48 bc c2 3b 18 2a 85 bb
       0.034100648 0.038354088 0.005942855 -0.004063856
000060 83 37 9f bd c2 b7 eb 3d ec 1b d1 3b bf b1 c1 bc
       -0.0777426 0.115096584 0.0063815024 -0.023644326
000070 0d 37 d5 3c 68 be 0e bd 9e 30 03 be b9 aa 01 be
       0.026027227 -0.034849554 -0.12811515 -0.12662782
000080 e5 a0 15 be 65 8b 3a 3d 5d 86 01 bc 30 5f 56 bd
       -0.14612158 0.045543093 -0.00790557 -0.05233687
000090 db aa a7 3c df 5a ee 3c a6 4d 08 3d 0e 67 87 3b
       0.020467212 0.029096065 0.033277176 0.004132158
0000a0 7c b5 7a 3c 3c da 83 3c 20 a4 9f 3d f2 c6 12 3b
       0.015302058 0.016095273 0.07794976 0.0022396413
0000b0 89 07 58 bd 0a a8 5b bd 47 3b d7 bc a1 e1 4a bc
       -0.05274156 -0.05362705 -0.026273383 -0.012382896
0000c0 0e 0f 67 3d 4c 83 06 3b 7c 24 87 3c 1e 01 4a bd
       0.05641084 0.0020525036 0.01649689 -0.04931747
0000d0 4b f5 23 3d 38 54 a0 bd d6 6a 12 bc a0 fe e7 3c
       0.04002885 -0.078285635 -0.0089366045 0.028319657
0000e0 01 77 97 bc 7b c8 0a bc ec 14 63 bb 7b 94 91 3c
       -0.018489363 -0.00847065 -0.0034649922 0.017770996
0000f0 54 a6 d6 bd 3c 58 9d be f3 90 d5 3d 39 b9 01 3d
       -0.10480943 -0.3073138 0.104280375 0.031670783
000100 66 5a 2b bd e5 c1 fe 3d 1d fb c2 3c bd 48 61 3d
       -0.041834258 0.12439326 0.02380138 0.05500101
000110 a9 c6 79 3d 5d 65 d4 3c 28 0f a0 bc 5a 83 02 bd
       0.060980473 0.02592724 -0.019538477 -0.031863548
000120 89 50 e3 bc d6 ac 67 bd 88 f3 75 bd fe 64 d0 3c
       -0.027748363 -0.056561314 -0.060046703 0.025438782
000130 7f a7 03 bd f9 36 00 bd bb b6 11 bc 28 a0 e1 bc
       -0.03214216 -0.031302426 -0.008893664 -0.027542189
000140 f0 12 ec bd 47 f5 26 3d 8e 2a 3d bc f5 30 8f 3d
       -0.115270495 0.04076126 -0.01154579 0.0699176
000150 31 b6 f0 3c a0 9c 1b 3d 3f 11 ee 3c 70 3d 7c bd
       0.02938375 0.037991166 0.029060958 -0.06158203
000160 c4 68 25 3b 9d b4 5c bd 8a 76 76 3d d2 18 dc 3b
       0.0025239447 -0.053883184 0.06017164 0.006716826
000170 90 9f ba bc 33 15 0c bd fd 45 de 3c 27 9b be bb
       -0.022781163 -0.034199905 0.027132982 -0.0058168354
000180 88 84 c4 3d 13 4b 84 3d 1a 48 5e bd bb 83 2e 3d
       0.09595591 0.06459632 -0.05426798 0.042606097
000190 dc b9 7e bc 46 7a 29 3d de ae 70 bd 01 42 dc bc
       -0.015547242 0.041376375 -0.058760516 -0.026886942
0001a0 6b 4a 77 bd bf 66 2e 3c 0d 7c 1b 3d 05 bd 63 3d
       -0.060373705 0.010644614 0.0379601 0.055600185
0001b0 12 36 aa 3c 78 8d 6b bd 02 87 78 bc 51 db db bc
       0.020777736 -0.057507962 -0.015168907 -0.026837977
0001c0 32 f2 4a 3b 5b b4 e7 3c 90 dd b5 bd c5 ad 12 bd
       0.0030967114 0.028284242 -0.0888015 -0.03581025
0001d0 92 a3 03 bd da 44 2b 3c 97 3d 88 bd 72 b1 33 3d
       -0.032138415 0.010453427 -0.06652372 0.043870397
0001e0 58 69 96 bc 25 24 b6 bb 3c a7 28 3b 80 c4 d2 bd
       -0.018360779 -0.005558508 0.0025734445 -0.10291386
0001f0 74 cf f1 bd 1d 8d 03 3b 75 f8 c9 3a bc a2 13 3e
       -0.11807147 0.0020073124 0.0015409129 0.14417547
000200 dc 41 f6 bd 7f 1b 8a 3d 61 40 9d bd 46 fd 41 bd
       -0.120242804 0.06743526 -0.07678295 -0.04736068
000210 3b 97 d9 bd b3 98 0a be 2b 8a e4 bd 4c a9 82 3c
       -0.10624548 -0.13534813 -0.11159166 0.015949868
000220 e5 23 64 3d 5d ad c7 3d 3a b9 7c bc 39 ad 2a bb
       0.055698294 0.09749863 -0.015425021 -0.002604319
000230 37 cb f2 bb c1 da c0 3c 03 bb 90 3b d9 1f 9e bc
       -0.007409479 0.02354181 0.004416825 -0.019302296
000240 fc 28 c9 3d ce 4c 84 3d cc 62 87 bb 29 f2 c5 bd
       0.0982227 0.06459962 -0.0041316506 -0.09665329
000250 1f 88 24 be e9 fe b8 bc 73 5f 93 bc d3 7d 88 3c
       -0.16067551 -0.022582488 -0.01798985 0.01666156
000260 cd 95 3c bb b4 d7 0d 3b bc a8 ab bb bb 02 4f bc
       -0.0028775812 0.0021643462 -0.0052386206 -0.012634928
000270 b7 94 69 3d aa 45 47 3c 59 54 86 bc b4 a9 84 3a
       0.05702659 0.012162605 -0.016397642 0.0010121376
000280 e3 b1 d0 3c af d8 67 bc 81 24 0a 3d ac 39 ca bd
       0.025475448 -0.0141507825 0.03372622 -0.09874281
000290 ae 85 c0 3d 6b e9 25 bd 1a d8 b9 3c 48 48 4d 3a
       0.094004974 -0.040505808 0.022686053 0.00078309
0002a0 11 17 12 bd 21 33 43 bc b8 73 c6 bc de 8f 94 3c
       -0.03566653 -0.011914046 -0.0242251 0.018135007
0002b0 a4 bc 8a 3a a5 70 ed 3b 7b 6c 1b 3d c7 1c 91 3d
       0.0010584784 0.0072460943 0.037945252 0.07085567
0002c0 04 db 79 3d 8c b2 e8 3b 2a 47 29 bc 12 6d a8 3c
       0.060999885 0.0071013626 -0.010331908 0.020559821
0002d0 68 5f 0b bd fb 7b 29 bc b6 62 41 bc 68 2d 0c 3c
       -0.034026533 -0.010344501 -0.01180332 0.008555748
0002e0 0b 60 55 3d 3c 0f 1b bd 99 ae e0 bb 2e d6 b0 3c
       0.052093547 -0.037856326 -0.006856751 0.021586504
0002f0 34 cd fb bc 47 f8 22 3c 09 a9 84 bd 69 75 b0 3c
       -0.030737497 0.009946889 -0.064775534 0.02154036
000300 5e 1e 10 bc da 9a 7c 3c 20 59 9a bc 2d 0e 9e bb
       -0.008796303 0.015417779 -0.018841326 -0.004823467
000310 53 09 2e 3c cf 1a 7f bb ef dd 28 bd a5 42 22 3d
       0.01062234 -0.0038925891 -0.041227277 0.03961434
000320 5f 3b 82 bb 52 f3 5c 3d 52 d5 1f bd b5 37 ca bb
       -0.0039743627 0.053942986 -0.039021797 -0.0061711916
000330 c5 00 82 bb 56 a4 d7 3b 78 d1 46 3c 18 01 17 3d
       -0.003967377 0.0065808697 0.012134902 0.036866277
000340 e5 5b a4 bc 14 15 a0 3c 20 dc 3c be 8b ad 9e bd
       -0.02006335 0.0195413 -0.18443346 -0.077479444
000350 89 4d a7 bd 82 65 18 3e 9b 31 41 3d c1 62 09 3e
       -0.081690855 0.14882472 0.047166448 0.13416578
000360 ba c9 3e be 72 c6 43 bd 7d 40 13 bd c6 7e cc bd
       -0.1863164 -0.047796674 -0.035950173 -0.099851176
000370 07 94 f3 bd 9e f0 a1 3d cf 0d 72 3c ae 4c af bc
       -0.11893468 0.07907222 0.0147738 -0.021398868
000380 4d 85 ef 3c 2f 33 91 bd 85 11 d6 3c 15 bb 93 3b
       0.029238367 -0.070898406 0.0261314 0.004508386
000390 23 f7 73 3c a6 8b 35 bb c6 34 32 bd 65 a4 d3 3a
       0.014890465 -0.0027701645 -0.04350736 0.0016147016
0003a0 34 cc 8e bc 82 39 80 3c 4e ac 84 3c 08 ab 6e bd
       -0.017431356 0.015652422 0.016195443 -0.058268577
0003b0 a6 73 9d 3c f2 97 51 bd 0f e5 b4 bc 85 98 c4 bc
       0.019220185 -0.051170297 -0.02208188 -0.023998508
0003c0 82 7b 60 bd 59 fb 87 bb 92 66 b1 bd 9c fc bb 3d
       -0.054805286 -0.004149836 -0.08662142 0.09179041
0003d0 11 c3 37 bd ad 19 ed 3b 26 b7 f2 3c 08 ce dd bd
       -0.044863764 0.007235727 0.029628348 -0.10830313
0003e0 c5 69 f7 3c ec 1a ee bc ad 76 f5 bb 50 b9 84 bd
       0.030201802 -0.029065572 -0.007490954 -0.06480658
0003f0 36 3e 80 bc 33 1e 8f bd 4a 45 36 bc e0 76 62 3d
       -0.015654664 -0.06988182 -0.011124918 0.05528915

bias f4 [32]
000000 62 e8 16 3e ce 8f 1c be 0c 3a 83 bd 01 f2 04 be
       0.14737085 -0.15289232 -0.06407556 -0.12982942
000010 54 89 06 be e6 10 9e bd 7a 49 25 be ba e8 1c be
       -0.13138324 -0.07718067 -0.1614131 -0.15323153
000020 0e a0 6e bd f9 c1 13 be a9 c4 24 bd bf 5f 94 be
       -0.05825811 -0.14429463 -0.040226612 -0.28979298
000030 7f f0 9d bd 50 0d 0d be f4 96 e3 bd 1b 16 43 be
       -0.077118866 -0.1377461 -0.111127764 -0.19051401
000040 3d 6a 3c be 7b 64 68 3d f7 26 19 be 4a 08 17 be
       -0.18399902 0.05673645 -0.1495627 -0.14749256
000050 ba 8a b0 bd fe d6 e0 bd 26 d8 05 be 7e 54 f1 bd
       -0.0862021 -0.109785065 -0.13070735 -0.11783694
000060 d1 b6 37 be 84 b4 ca bd c4 0b e5 bd 34 79 2c be
       -0.17940833 -0.09897712 -0.11183885 -0.1684311
000070 c1 d3 3c be a7 7f d6 bc 2b 39 2c bd 62 71 1b be
       -0.18440153 -0.026183916 -0.042046707 -0.15179971

weight f4 [32]
000000 26 ca 6b 3f d8 3d aa 3f 81 14 9d 3f 2e 2e bf 3f
       0.9210533 1.3300123 1.2271882 1.4935968
000010 f5 c9 9f 3f cc e6 94 3f c5 05 c4 3f 7b 02 99 3f
       1.2483507 1.1632934 1.5314261 1.1953882
000020 67 50 92 3f 58 ca d8 3f d4 c1 6c 3f 46 fc fc 3f
       1.1430787 1.693675 0.9248326 1.9764488
000030 f5 bd c3 3f c5 29 cd 3f d1 57 d3 3f bc f7 e9 3f
       1.5292345 1.6028372 1.6511174 1.8278728
000040 92 bd db 3f 14 70 53 3f e6 57 e7 3f b2 92 cb 3f
       1.7167227 0.8259289 1.80737 1.5904143
000050 a8 a4 95 3f 9d e4 c3 3f ca 4d bc 3f 09 d7 a0 3f
       1.1690874 1.5304142 1.4711239 1.2565624
000060 23 0d f7 3f bc 46 a6 3f 55 e8 9c 3f 79 f5 de 3f
       1.9300884 1.2990336 1.2258402 1.7418662
000070 d6 6a d2 3f 83 d9 4c 3f ed a2 9c 3f 82 77 9e 3f
       1.6438854 0.80019397 1.2237221 1.2380221

bias f4 [32]
000000 66 64 dc 3d 8c 5c dc bd dd 52 43 bd 72 91 0e be
       0.10761337 -0.107598394 -0.047686446 -0.1392267
000010 d9 8f a7 bd fe b0 c9 bd d9 80 fe bd 43 e3 22 be
       -0.08181734 -0.09848212 -0.124269195 -0.15907006
000020 65 0e 8c bd 84 35 0a be dd 34 1d bd 97 5f 74 be
       -0.06838683 -0.13496977 -0.038380492 -0.2386459
000030 a0 c9 4d bd 95 56 ec bd d1 20 e7 bd 2b d7 21 be
       -0.050241113 -0.11539952 -0.11285556 -0.15804736
000040 3d ae 11 be c4 01 60 3d 41 3e cb bd dc 30 3b be
       -0.14226623 0.054689184 -0.09923983 -0.18280357
000050 68 64 bd bd 4d ae fc bd 1b 48 d9 bd 7f 09 82 bd
       -0.092476666 -0.12337933 -0.10609456 -0.063494675
000060 86 69 17 be 10 96 c4 bd 6e 91 0b be 29 03 fa bd
       -0.14786348 -0.09598935 -0.13629696 -0.12207634
000070 e8 1e 25 be ba 92 0b bd 05 30 f9 bc 17 a5 29 be
       -0.16125071 -0.034075476 -0.030418405 -0.16566883

running_mean f4 [32]
000000 00 00 00 00 00 00 00 00 00 00 00 00 00 00 00 00
       0.0 0.0 0.0 0.0
000010 00 00 00 00 00 00 00 00 00 00 00 00 00 00 00 00
       0.0 0.0 0.0 0.0
000020 00 00 00 00 00 00 00 00 00 00 00 00 00 00 00 00
       0.0 0.0 0.0 0.0
000030 00 00 00 00 00 00 00 00 00 00 00 00 00 00 00 00
       0.0 0.0 0.0 0.0
000040 00 00 00 00 00 00 00 00 00 00 00 00 00 00 00 00
       0.0 0.0 0.0 0.0
000050 00 00 00 00 00 00 00 00 00 00 00 00 00 00 00 00
       0.0 0.0 0.0 0.0
000060 00 00 00 00 00 00 00 00 00 00 00 00 00 00 00 00
       0.0 0.0 0.0 0.0
000070 00 00 00 00 00 00 00 00 00 00 00 00 00 00 00 00
       0.0 0.0 0.0 0.0

running_var f4 [32]
000000 00 00 80 3f 00 00 80 3f 00 00 80 3f 00 00 80 3f
       1.0 1.0 1.0 1.0
000010 00 00 80 3f 00 00 80 3f 00 00 80 3f 00 00 80 3f
       1.0 1.0 1.0 1.0
000020 00 00 80 3f 00 00 80 3f 00 00 80 3f 00 00 80 3f
       1.0 1.0 1.0 1.0
000030 00 00 80 3f 00 00 80 3f 00 00 80 3f 00 00 80 3f
       1.0 1.0 1.0 1.0
000040 00 00 80 3f 00 00 80 3f 00 00 80 3f 00 00 80 3f
       1.0 1.0 1.0 1.0
000050 00 00 80 3f 00 00 80 3f 00 00 80 3f 00 00 80 3f
       1.0 1.0 1.0 1.0
000060 00 00 80 3f 00 00 80 3f 00 00 80 3f 00 00 80 3f
       1.0 1.0 1.0 1.0
000070 00 00 80 3f 00 00 80 3f 00 00 80 3f 00 00 80 3f
       1.0 1.0 1.0 1.0

weight f4 [4, 576]
000000 5a cc 92 3d 08 1c 4b 3d e7 0b 11 3e 18 62 8e 3d
       0.07167883 0.04958728 0.14164697 0.06952304
000010 c6 65 f3 3d c8 94 87 3d 72 5a f4 3d 79 b2 a6 3d
       0.11884646 0.06620175 0.119313136 0.0813951
000020 9b aa d8 3d 26 0a 8e 3d 0f 66 f0 3d e7 86 9b 3d
       0.105794154 0.069355294 0.11738216 0.0759409
000030 98 13 01 3e 2c f7 a3 3d e6 07 c9 3d 1f e6 86 3d
       0.1260513 0.08006129 0.0981596 0.06586861
000040 4f cd 0e 3e cb b5 01 3e 89 7d 31 bd b8 db e0 bc
       0.13945507 0.12667005 -0.04333261 -0.02744852
000050 8f a8 2f bd ca 70 8d bd b1 38 cb bd 43 bd a4 bd
       -0.04288536 -0.069062784 -0.099229224 -0.08043911
000060 e1 68 11 bd f4 d3 54 bd 71 2e 7b bd 86 d2 13 bd
       -0.03550041 -0.051959947 -0.061323587 -0.036089443
000070 5e dd 9f bd e6 30 82 bd a6 1c d3 bc 88 b2 45 bd
       -0.07805894 -0.06356983 -0.025770497 -0.048265964
000080 ea 77 94 bd c2 32 0c bd af 05 df bc 44 84 52 bc
       -0.07249434 -0.034228094 -0.02722439 -0.012848917
000090 a5 92 1b bf 0d ad 91 3d e9 0f 4b be e6 5f 10 3e
       -0.60770637 0.07113085 -0.19830288 0.14099082
0000a0 9f f6 7f be 02 1b 8e 3c c6 1c 9c be a6 78 65 3d
       -0.24996422 0.017346863 -0.30490702 0.056023262
0000b0 26 a5 a2 be 85 65 26 3d 64 ab 9c be 26 67 b4 3d
       -0.31766623 0.04062416 -0.3059951 0.088087365
0000c0 bd 55 af be 71 2d 52 3d ca 02 a7 be 2f aa 28 3d
       -0.342451 0.051312868 -0.32619315 0.041177925
0000d0 84 03 de be a0 b1 03 3d 71 00 4c bc 13 e3 1d bf
       -0.43362057 0.03215182 -0.012451277 -0.6167461
0000e0 2a 5b 48 be f8 84 a9 be df 04 56 be b6 d1 99 be
       -0.19566026 -0.3310926 -0.20900296 -0.3004281
0000f0 f6 5d fc bd 56 af e5 be 78 a7 b6 bd 2d 02 af be
       -0.12322609 -0.44860333 -0.08918661 -0.34181347
000100 0d 0f ea bd d1 e6 a8 be 2f 34 0e be 34 4a d1 be
       -0.11428652 -0.329886 -0.13887094 -0.40876925
000110 23 55 89 3d c6 ca dc be 6f ab 0f 3d d1 8d 99 be
       0.06705692 -0.43123454 0.0350756 -0.2999101
000120 f3 45 20 be 91 4f 68 be da 27 62 be c6 37 64 be
       -0.15651684 -0.22686602 -0.22085515 -0.22286901
000130 ff cc 4e be 1f 72 8e be 80 71 1c be 88 1a 84 be
       -0.20195387 -0.27821442 -0.15277672 -0.25801492
000140 7e 18 74 be 30 a4 a3 be c5 c2 35 be ef 1d 8a be
       -0.23837468 -0.31961203 -0.1775008 -0.26975963
000150 cd d1 04 be ae f0 b2 be 2c 75 b9 be c8 8b a9 be
       -0.12970658 -0.3494925 -0.36222208 -0.33114457
000160 a8 63 2f be dc 79 f3 be d5 eb 05 3d 61 92 3d 3d
       -0.1712786 -0.4755391 0.03269561 0.046282176
000170 d5 1b 0d 3e b0 ef 52 bc 0e a3 8d 3d 09 0c 0b 3e
       0.13780148 -0.012874529 0.06915866 0.1357881
000180 99 d4 63 3d 01 ba e2 3c 41 0c cc 3d b0 c7 a0 bd
       0.05562267 0.027676584 0.09963275 -0.07850587
000190 7a 02 08 3e 62 92 d2 bd c4 19 da 3d 7a 44 37 3c
       0.13282195 -0.102818266 0.10649446 0.01118576
0001a0 89 8b 1b 3e d7 fe e0 bc a9 60 c5 3d 4b ea 6e be
       0.15189947 -0.027465267 0.09637577 -0.23331563
0001b0 3d 75 ca bb 14 44 11 bd a1 42 f6 3c 24 d3 f9 3d
       -0.0061785267 -0.035465315 0.030061068 0.12198475
0001c0 bf 87 08 be 77 e3 2a be b4 04 22 be bd 47 af bd
       -0.13333033 -0.16688333 -0.15822107 -0.08558605
0001d0 17 2f d5 bd e9 f2 92 be 40 4e 9f bd a2 88 33 bc
       -0.10409372 -0.2870095 -0.07778597 -0.010957869
0001e0 63 da 89 bd 11 54 17 be c2 94 c0 bd d0 a1 39 be
       -0.06731107 -0.14778163 -0.09403373 -0.18128133
0001f0 59 da a0 bd b8 55 98 bd 3b 1c 4a bd a8 79 77 bd
       -0.078541465 -0.074382246 -0.04934333 -0.060418755
000200 78 ee 29 bd ca 6a a3 bc a6 cd 52 bd 09 26 23 bd
       -0.041487187 -0.019948382 -0.051465653 -0.039831195
000210 3f 5c 5c bd 73 47 97 bc 7d 9a 41 bd 13 aa 14 bd
       -0.05379891 -0.018466687 -0.047266472 -0.036295008
000220 ac 47 3f bd 7e 55 fa bc b8 81 4b bd f9 4e bd bc
       -0.04669921 -0.030558344 -0.049684256 -0.023108946
000230 37 b5 67 bd 69 df d4 bc d1 32 ef bc cf ee 00 bd
       -0.056569304 -0.025985437 -0.029199036 -0.031477746
000240 17 43 9b 3d 17 94 17 be 6c 3b 90 3d fe 7a 54 3d
       0.07581156 -0.14802586 0.07042584 0.051875107
000250 4e 3c a4 3d 0e 14 6d bd 28 13 1e 3d 08 7b 34 bd
       0.08019315 -0.057880454 0.038592488 -0.044062644
000260 1c d9 20 3d 11 fe c9 bc 7a 6d 4e 3d e9 99 cc bc
       0.03926955 -0.024657281 0.050397374 -0.024975734
000270 ee 1c 2b 3c a7 19 7a bd d4 c1 a0 3c c5 70 23 bb
       0.010443909 -0.06105962 0.019623674 -0.0024939042
000280 47 e0 10 3d aa e4 d1 bd b2 cd a3 bd 98 87 ac 3d
       0.035370138 -0.10248692 -0.07998218 0.084243
000290 f5 3c 78 be ed 93 fe bd 3f 78 60 be 97 61 5a 3c
       -0.24242003 -0.12430558 -0.2192087 0.013328931
0002a0 be e9 60 be 17 34 b6 3d 7d a8 e0 bd 60 25 0a be
       -0.21964166 0.08896654 -0.109696366 -0.1349082
0002b0 67 36 ed bd c0 5d b5 bd 05 78 85 bb ec f3 4d be
       -0.11582642 -0.08855772 -0.0040731453 -0.2011258
0002c0 ff 0b da bd d0 11 ca bd cb c0 b4 3d a0 8c 2d 3e
       -0.10646819 -0.09866679 0.08825835 0.16948175
0002d0 4e 63 f6 3c 9b 0d b8 bc 3c 83 36 3c eb 74 8c 3c
       0.030076649 -0.022467425 0.011139687 0.017145595
0002e0 04 32 ce 3c 7f d6 6a 3c a4 5d bd 3c 38 92 07 3b
       0.025170334 0.014333366 0.02311594 0.0020686518
0002f0 1b 83 f2 3c c3 04 95 3c 03 41 2a 3d 00 84 c8 b9
       0.029603532 0.018190747 0.041565906 -0.0003824532
000300 b3 26 be 3c e4 d3 62 3c 53 2d 13 3d 07 e5 86 3c
       0.023211813 0.013844464 0.035931896 0.01646663
000310 ea 52 36 3d e7 51 fa 3c 74 b0 f7 bc 76 ba f7 bb
       0.044512667 0.030556632 -0.030235507 -0.0075600697
000320 c7 e5 0d be 03 dd 80 bd 8e e5 f2 bd a8 b9 12 bd
       -0.13857184 -0.06292155 -0.1186019 -0.035821587
000330 01 34 0c be 4f c1 d0 bc df bb c0 bd 56 14 a5 bc
       -0.13691713 -0.025482802 -0.094108336 -0.020151298
000340 3d b1 da bd 82 c3 9f bc d2 b6 9e bd 12 10 e9 bc
       -0.10678337 -0.019502405 -0.07749714 -0.028450046
000350 b5 57 ad bd 53 37 80 bd ec 4c 8b bd 41 d9 0e bb
       -0.084639944 -0.06260552 -0.06801781 -0.0021796974
000360 d6 08 a9 bc fd fd af bd b7 c9 36 3c ae 0e 65 bd
       -0.020634096 -0.08593366 0.011156491 -0.055922203
000370 2d 5c 1d 3d c7 a0 9f bd 75 b0 ec 3c 00 03 af bd
       0.038417984 -0.07794338 0.028892735 -0.08545494
000380 ec 8d 9d 3c 19 01 0f bd d6 74 88 3c bb 09 a1 bd
       0.019232713 -0.034913156 0.016657274 -0.07863184
000390 6e e7 81 3c ec ec 75 bd 14 29 c0 3b 98 c3 48 bd
       0.015857425 -0.0600404 0.005864272 -0.049014658
0003a0 3d 41 b0 ba bf 3d 20 bd 88 5e fa 3d 0d 0d 87 bd
       -0.0013447177 -0.039121386 0.12225062 -0.06594286
0003b0 3c 07 10 be c4 ff f9 bd c6 7a 43 bb 24 2a 90 bc
       -0.1406526 -0.122069865 -0.0029827817 -0.01759822
0003c0 c5 60 d3 bc 6b ae 62 bd c1 b8 70 3c 80 35 3d bc
       -0.02580298 -0.05534212 0.014692486 -0.0115484
0003d0 53 4e 21 bc 60 cb a2 bd 3c c1 e2 3c 20 8f b9 bc
       -0.009845334 -0.07948947 0.027680032 -0.022651255
0003e0 01 86 2e 3d e1 8b e1 bc c2 1f c4 3d df d9 aa 3b
       0.042608265 -0.02753252 0.0957637 0.0052139605
0003f0 6d f7 a9 bd cd e7 a6 3d 5f b6 83 bc da 98 78 3d
       -0.08299146 0.08149681 -0.016078172 0.060692646

bias f4 [4]
000000 ed a2 ae 3d 01 41 a1 3e 67 af f6 3d bf af 52 3e
       0.085271694 0.31494907 0.12045174 0.20574854
