cnn_eat_gamma_reward_10_food.ckpt (torch, 111284 bytes, 20 tensors)

weight f4 [16, 1, 2, 5]
0.011321866 0.09477992 -0.14146617 -0.033775054 0.011128576 0.27212092 0.32008937 0.12859263
0.18805914 0.14539585 -0.03911305 -0.17107368 0.18692128 0.40873337 -0.11049461 0.6359406
-0.14947742 -0.11713376 -0.18370351 0.3034352 0.038906686 0.3300496 -0.122139275 -0.13159059
0.19058864 0.3769282 -0.037768647 -0.07451262 -0.08360658 -0.26228687 -0.09261477 -0.11603378
-0.13072746 0.17724977 -0.19108286 0.48096612 0.0039434996 -0.07739387 0.0021427588 0.38824776
0.510674 0.017227354 -0.034271333 0.32276 -0.09089359 -0.071855396 0.41577333 -0.15945762
-0.012862511 -0.041379645 -0.041026507 0.16200559 0.026572233 0.22129843 0.4265452 0.0018451441
0.011710526 -0.08716345 0.40123808 -0.042949732 0.07424083 0.10188767 0.14456944 0.36329836
-0.1397063 -0.042452645 0.17852348 0.016317742 0.022928901 0.33812752 -0.2823339 -0.1806238
0.18600413 -0.20734914 -0.050339155 0.23691468 0.09036528 0.040159065 -0.04829418 -0.057116255
0.5392472 -0.22088806 -0.25298193 -0.21048062 -0.20599696 -0.21973263 0.085259065 0.17561564
-0.1457759 -0.26220956 0.036320474 0.035195712 0.3148231 0.43599984 -0.149075 -0.1662834
-0.12340972 -0.12237528 -0.101336695 -0.19093907 -0.01848989 -0.0346763 0.011795934 -0.003886583
-0.084977634 -0.016545733 -0.07293178 -0.043846723 -0.06547098 0.9131643 0.42797977 0.021875592
0.2931242 -0.21861008 0.2053847 -0.0277624 -0.043825854 0.029626908 0.3253599 0.17044179
0.027730167 0.5615005 -0.021686895 0.06899323 0.050670207 -0.1728358 -0.11150638 -0.16849785
-0.017415265 0.12622875 -0.18387358 -0.18160787 0.16767745 -0.020150248 0.15280747 -0.352331
-0.16430303 -0.06567216 -0.10413374 -0.02424077 -0.17597874 0.2368241 0.16823904 0.21478792
-0.008428258 -0.22132836 0.44222975 0.034428995 -0.13968287 0.014694221 0.23146762 -0.069026954
-0.079491176 -0.027366433 0.43497163 -0.06681936 0.41289526 -0.09827804 -0.09532032 0.1606124
00000000: 597f 393c fa1b c23d 82dc 10be b657 0abd
00000010: a154 363c 6f53 8b3e c1e2 a33e c9ad 033e
00000020: 9392 403e a6e2 143e 0135 20bd f02d 2fbe
00000030: 4b68 3f3e 8045 d13e 004b e2bd 01cd 223f
00000040: 9c10 19be d3e3 efbd c61c 3cbe dc5b 9b3e
00000050: 9e5c 1f3d 43fc a83e 2824 fabd afbf 06be
00000060: ab29 433e bcfc c03e 4cb3 1abd 139a 98bd
00000070: ed39 abbd 774a 86be d0ac bdbd 1ea3 edbd
00000080: 6bdd 05be f780 353e 3aab 43be 3141 f63e
00000090: 7938 813b ad80 9ebd 876d 0c3b 69c8 c63e
000000a0: 88bb 023f 6120 8d3c 1960 0cbd cc40 a53e
000000b0: 6b26 babd ec28 93bd 3ee0 d43e dc48 23be
000000c0: 48bd 52bc b47d 29bd 690b 28bd cbe4 253e
000000d0: 03ae d93c 0e9c 623e 2264 da3e c3d8 f13a
000000e0: 82dd 3f3c c082 b2bd 146f cd3e 0fec 2fbd
000000f0: 940b 983d 7caa d03d 030a 143e 3e02 ba3e
00000100: 2b0f 0fbe d3e2 2dbd dcce 363e c9ac 853c
00000110: 64d5 bb3c 0d1f ad3e 128e 90be 72f5 38be
00000120: de77 3e3e 5553 54be 6e30 4ebd c399 723e
00000130: 6f11 b93d d57d 243d 1ed0 45bd bcf2 69bd
00000140: 1b0c 0a3f 7b30 62be d986 81be 3b88 57be
00000150: def0 52be 9701 61be 4e9c ae3d 96d4 333e
00000160: 4746 15be 5540 86be c7c4 143d 6129 103d
00000170: 7e30 a13e 5f3b df3e 1ea7 18be 3246 2abe
00000180: 3cbe fcbd e49f fabd 9d89 cfbd 8885 43be
00000190: 1c78 97bc bc08 0ebd bc43 413c 0bb6 7ebb
000001a0: c108 aebd eb8a 87bc 425d 95bd 9f98 33bd
000001b0: a615 86bd 23c5 693f 2a20 db3e 7134 b33c
000001c0: 6014 963e 52db 5fbe 5e50 523e f96d e3bc
000001d0: bd82 33bd 21b4 f23c 9395 a63e 4b88 2e3e
000001e0: 602a e33c 7fbe 0f3f b7a8 b1bc 534c 8d3d
000001f0: 908b 4f3d defb 30be 755d e4bd b38a 2cbe
00000200: 75aa 8ebc 1c42 013e 5b49 3cbe 6af7 39be
00000210: a3b3 2b3e 2212 a5bc 9079 1c3e bb64 b4be
00000220: 0e3f 28be 207f 86bd 1244 d5bd 9494 c6bc
00000230: c533 34be 0482 723e db46 2c3e 5df1 5b3e
00000240: ad16 0abc e7a3 62be f06b e23e 6b05 0d3d
00000250: 0709 0fbe 08c0 703c d905 6d3e 015e 8dbd
00000260: 45cc a2bd 922f e0bc 9ab4 de3e 97d8 88bd
00000270: 0267 d33e ff45 c9bd 4d37 c3bd 9477 243e

bias f4 [16]
0.14294285 -0.4619602 -0.111289375 -0.17204016 -0.41692352 0.05805684 -0.27348387 0.17257038
-0.39679375 -0.4789568 -0.6595711 -0.3377873 -0.023613032 0.22575618 -0.23804532 0.08843574
00000000: 9c5f 123e 0c86 ecbe afeb e3bd 4c2b 30be
00000010: 0077 d5be 02cd 6d3d 1406 8cbe 4ab6 303e
00000020: 8d28 cbbe d339 f5be a7d9 28bf 75f2 acbe
00000030: 1e70 c1bc a12c 673e 27c2 73be cc1d b53d

weight f4 [16]
0.91271645 0.9928504 1.010821 0.9575344 1.0795969 0.8561193 1.0876359 0.89612424
1.0478231 1.136784 1.3680353 0.96794695 0.96718127 0.9152748 0.9480245 0.87136066
00000000: c9a7 693f 722b 7e3f 9562 813f f920 753f
00000010: 3b30 8a3f a22a 5b3f a737 8b3f 6668 653f
00000020: 111f 863f 2382 913f c81b af3f 5fcb 773f
00000030: 3199 773f 734f 6a3f bcb1 723f 7e11 5f3f

bias f4 [16]
-0.10631419 -0.4819626 -0.1708704 -0.31136164 -0.34177297 -0.16795775 -0.2050227 -0.12428912
-0.32841817 -0.21185333 -0.9343632 -0.18008769 -0.23312713 -0.07971951 -0.33214656 -0.1866869
00000000: 41bb d9bd cdc3 f6be a6f8 2ebe cb6a 9fbe
00000010: defc aebe 1efd 2bbe 78f1 51be 4b8b febd
00000020: 6d26 a8be 14f0 58be 6d32 6fbf e868 38be
00000030: e1b8 6ebe fc43 a3bd 1d0f aabe da2a 3fbe

running_mean f4 [16]
0.037625052 -0.0011505266 0.009307204 0.00980563 -0.0033156122 0.018726017 -0.0036902751 0.025877472
-0.01553822 -0.032974336 0.017602134 -0.0016392885 0.019164104 0.008225279 0.006256383 0.033792347
00000000: ba1c 1a3d 44cd 96ba 3e7d 183c cba7 203c
00000010: be4a 59bb 4e67 993c 8bd8 71bb fefc d33c
00000020: 0594 7ebc 1910 07bd 5a32 903c 65dd d6ba
00000030: 0afe 9c3c 52c3 063c 5802 cd3b d869 0a3d

running_var f4 [16]
0.92507553 0.9239623 0.91706836 0.923727 0.9113337 0.9263792 0.90743375 0.910583
0.9198155 0.9198679 0.91768867 0.9239341 0.9103533 0.92100966 0.91529024 0.92335254
00000000: c0d1 6c3f cb88 6c3f fec4 6a3f 5f79 6c3f
00000010: 2a4d 693f 3027 6d3f 944d 683f f81b 693f
00000020: 0779 6b3f 767c 6b3f a5ed 6a3f f286 6c3f
00000030: ea0c 693f 4ac7 6b3f 7650 6a3f d560 6c3f

weight f4 [64, 16, 2, 5]
-0.044885706 0.033528313 0.078017846 0.039577853 0.0021794853 0.024820736 -0.020940445 0.0071617863
-0.033321247 -0.15196326 0.08015961 -0.03656059 -0.104320005 -0.0046379296 0.27538514 0.13362142
-0.16737805 0.0705784 -0.018063754 0.032475784 0.0033100226 -0.08707439 0.117601745 -0.07965127
-0.34925267 -0.04943595 0.111566566 0.109052055 0.053047508 -0.11745667 -0.044621494 -0.012328299
0.14023834 -0.06158844 -0.048393313 -0.20188306 -0.05570388 0.058784366 0.098252356 -0.049335953
-0.047662433 0.031026768 0.030642165 -0.029142087 0.03915447 0.056472525 -0.083664335 0.15475449
0.09717677 0.025235467 -0.07074832 0.0045101224 0.0065488885 0.07721937 -0.17477657 0.072408386
-0.046175435 0.017591216 -0.11344608 0.045728154 0.10612485 -0.08956065 -0.037140656 0.13222006
0.02857114 -0.18135937 -0.0654147 0.07934312 0.063657895 0.09665338 0.03929774 0.09075999
-0.10595967 0.036569696 -0.111273445 0.18316826 0.24047318 -0.04685305 -0.2511619 -0.30098835
-0.023059057 -0.02242733 -0.010881247 0.1939788 0.085469894 0.053996846 0.029092433 0.03288377
0.02910758 0.11598198 0.15863423 0.13251756 -0.03702809 0.16127364 0.25082844 -0.08717326
-0.12539679 -0.05847499 0.11992639 -0.0448712 -0.056960817 -0.06385837 0.29293126 0.2216804
-0.23128372 0.16633609 -0.5118322 -0.034676805 0.20337893 -0.20033917 0.0043282355 -0.14844742
-0.070623964 0.108383626 0.03379559 -0.07479677 -0.02051375 -0.03572033 0.16524252 0.023503225
0.0984634 -0.18258135 0.09349485 0.17205802 -0.15667401 0.19939648 0.010176675 0.044615053
-0.14561088 0.12367494 -0.03954848 -0.21955647 0.033868097 0.17001428 -0.05807961 -0.0585415
0.052317146 -0.017880946 -0.117307216 -0.1651759 0.039303437 0.02330571 -0.12467264 -0.11868975
-0.0984179 -0.040716436 -0.0111617595 -0.024504073 0.11464105 0.24740797 0.11807923 -0.14798638
0.036681704 -0.077362195 0.0049128644 0.012291335 -0.1758927 0.011373908 0.03240998 0.056424297
-0.07978918 -0.0647272 -0.10060341 -0.030489657 0.15835083 -0.2378315 -0.029304717 -0.018509917
0.16427149 0.040149722 0.15070255 -0.017598152 -0.0012781092 -0.036020968 0.062290817 -0.21268424
0.21963958 0.0466111 -0.40848818 -0.089007005 0.105966486 0.0066398145 0.29787952 0.057993945
0.09208526 -0.024911996 0.11174378 -0.05712401 -0.18740538 0.09947398 -0.37971345 -0.117650814
-0.048308 0.03525934 0.06174429 -0.20478675 0.06294978 -0.19365297 0.079083346 -0.060596976
0.17179458 0.23500557 0.106822684 0.059320018 0.019890573 -0.12053726 -0.14578673 0.06420824
0.079362415 -0.00663038 0.060003262 -0.16332185 -0.06921792 0.06768876 -0.13527432 0.08636787
0.0511984 -0.052668285 -0.20633425 -0.1968665 -0.24163376 -0.22467303 0.009240173 -0.10587833
0.2029739 -0.16822793 0.13313635 0.079695866 -0.07823338 0.18928723 -0.026118213 -0.08512665
-0.058043268 -0.056653094 -0.04849499 -0.07244634 -0.08834631 0.06813834 0.052056357 -0.03166664
0.31362286 0.039470397 -0.05846456 -0.20988528 0.04229056 0.0130350655 -0.08956886 0.00014227173
-0.09201356 -0.20237242 -0.059020832 0.07912135 -0.20825012 0.060168706 -0.1212808 0.09932199
00000000: 13da 37bd fc54 093d d2c7 9f3d 631c 223d
00000010: b2d5 0e3b db54 cb3c 4c8b abbc 6bad ea3b
00000020: dc7b 08bd 429c 1bbe b92a a43d 8fc0 15bd
00000030: baa5 d5bd c6f9 97bb 48ff 8c3e 0ed4 083e
00000040: 2765 2bbe 688b 903d 70fa 93bc 5405 053d
00000050: f7ec 583b 0f54 b2bd 2fd9 f03d 3420 a3bd
00000060: 3fd1 b2be 5a7d 4abd 037d e43d af56 df3d
00000070: 5848 593d 1f8d f0bd 07c5 36bd a2fc 49bc
00000080: a49a 0f3e 2944 7cbd 1138 46bd 6fba 4ebe
00000090: c029 64bd e0c7 703d 8838 c93d 7f14 4abd
000000a0: af39 43bd d92b fe3c 4705 fb3c 63bb eebc
000000b0: 7060 203d bc4f 673d 3558 abbd f677 1e3e
000000c0: 9d04 c73d 9cba ce3c 7fe4 90bd a6c9 933b
000000d0: 0f98 d63b 3025 9e3d a1f8 32be d94a 943d
000000e0: 7422 3dbd 741b 903c 6b56 e8bd 724d 3b3d
000000f0: fc57 d93d 936b b7bd cd20 18bd b264 073e
00000100: 060e ea3c 45b6 39be 24f8 85bd a57e a23d
00000110: 125f 823d 35f2 c53d abf6 203d 60e0 b93d
00000120: 6201 d9bd 1bca 153d 55e3 e3bd 7690 3b3e
00000130: 9a3e 763e fce8 3fbd 4b98 80be 251b 9abe
00000140: 59e6 bcbc 85b9 b7bc 4247 32bc 61a2 463e
00000150: d70a af3d cc2b 5d3d 4153 ee3c 22b1 063d
00000160: 0573 ee3c f687 ed3d 0371 223e afb2 073e
00000170: c4aa 17bd eb24 253e 966c 803e e587 b2bd
00000180: 0468 00be 7983 6fbd f89b f53d ddca 37bd
00000190: bf4f 69bd 2dc8 82bd 16fb 953e 3000 633e
000001a0: a4d5 6cbe 0254 2a3e 6f07 03bf 4409 0ebd
000001b0: 9142 503e b625 4dbe dfd3 8d3b 9a02 18be
000001c0: 4ca3 90bd 3cf8 dd3d 3f6d 0a3d 0d2f 99bd
000001d0: 740c a8bc 7b4f 12bd 5635 293e d689 c03c
000001e0: 2ea7 c93d 9bf6 3abe 3a7a bf3d fa2f 303e
000001f0: 276f 20be 972e 4c3e 12bc 263c 46be 363d
00000200: 051b 15be 4949 fd3d 96fd 21bd 69d3 60be
00000210: 46b9 0a3d 3918 2e3e e3e4 6dbd 36c9 6fbd
00000220: 814a 563d 107b 92bc c43e f0bd df23 29be
00000230: a4fc 203d 9eeb be3c 5e54 ffbd 9d13 f3bd
00000240: 538f c9bd 47c6 26bd d0df 36bc c4bc c8bc
00000250: edc8 ea3d 8458 7d3e 86d3 f13d be89 17be
00000260: 8e3f 163d 1270 9ebd 18fc a03b 9861 493c
00000270: 371d 34be a159 3a3c 54c0 043d 2a1d 673d
00000280: 8268 a3bd b28f 84bd 2909 cebd 72c5 f9bc
00000290: b826 223e 1a8a 73be 7210 f0bc 1ca2 97bc
000002a0: c936 283e 0974 243d c551 1a3e 002a 90bc
000002b0: 3a86 a7ba b98a 13bd a824 7f3d e6c9 59be
000002c0: 33e9 603e 48eb 3e3d 5d25 d1be 4e49 b6bd
000002d0: f504 d93d cd92 d93b aa83 983e 0f8b 6d3d
000002e0: 3297 bc3d 3e14 ccbc ecd9 e43d defa 69bd
000002f0: 32e7 3fbe 04b9 cb3d cd69 c2be e9f2 f0bd
00000300: 9cde 45bd 196c 103d 95e7 7c3d 9eb3 51be
00000310: d0eb 803d f74c 46be 73f6 a13d 8934 78bd
00000320: ebea 2f3e 4da5 703e dac5 da3d 8cf9 723d
00000330: 8ef1 a23c 3ddc f6bd 1e49 15be 9c7f 833d
00000340: c388 a23d a943 d9bb fbc5 753d d83d 27be
00000350: 20c2 8dbd 68a0 8a3d 5a85 0abe a3e1 b03d
00000360: 6ab5 513d b3ba 57bd 4949 53be 5f97 49be
00000370: d76e 77be b010 66be 1864 173c bdd6 d8bd
00000380: 64d8 4f3e f143 2cbe e554 083e 9637 a33d
00000390: d338 a0bd 83d4 413e ddf5 d5bc e256 aebd
000003a0: c7be 6dbd 130d 68bd afa2 46bd bf5e 94bd
000003b0: e9ee b4bd 1d8c 8b3d 0c39 553d e1b4 01bd
000003c0: 2d93 a03e b6ab 213d 8978 6fbd 2bec 56be
000003d0: de38 2d3d 0791 553c e16f b7bd c72e 1539
000003e0: 9b71 bcbd b73a 4fbe d4bf 71bd 600a a23d
000003f0: 853f 55be 7673 763d 1162 f8bd 5469 cb3d

bias f4 [64]
-0.07871247 -0.019884227 -0.22979537 -0.034948587 -0.048539136 -0.04589466 0.045564003 -0.042861678
-0.022449788 -0.04065751 0.06156078 -0.057815995 -0.07372427 -0.23761567 -0.12505235 0.009012846
0.017901644 -0.016303914 -0.032286357 -0.021768164 -0.15129095 -0.13261962 -0.15363172 -0.052904833
-0.07644121 0.069170944 -0.04147594 -0.12644535 -0.1990669 -0.05054887 -0.06069961 -0.017188305
-0.073312506 -0.19012779 -0.1257819 -0.09953637 -0.12156467 -0.1555345 -0.10553213 -0.23574366
-0.15079574 -0.24144353 -0.0682667 0.04610729 -0.2322724 -0.24889547 -0.18922642 -0.10013127
-0.016557595 -0.08475812 -0.052527525 -0.046148527 -0.308118 0.0042242277 -0.0023561018 -0.040524554
0.014550919 -0.03588014 -0.0164879 -0.104970634 -0.08066924 -0.09110771 -0.00066587416 0.030820537
00000000: 0134 a1bd 3fe4 a2bc 7a4f 6bbe 4026 0fbd
00000010: f9d0 46bd 0afc 3bbd 52a1 3a3d ba8f 2fbd
00000020: 9ee8 b7bc 7d88 26bd 2827 7c3d 77d0 6cbd
00000030: c0fc 96bd 8651 73be b90d 00be 9eaa 133c
00000040: 78a6 923c c98f 85bc b33e 04bd 2653 b2bc
00000050: 04ec 1abe 70cd 07be a251 1dbe bdb2 58bd
00000060: 368d 9cbd 7fa9 8d3d ade2 29bd e47a 01be
00000070: 32d8 4bbe 550c 4fbd 27a0 78bd 7dce 8cbc
00000080: de24 96bd dcb0 42be f8cc 00be b9d9 cbbd
00000090: e6f6 f8bd 7044 1fbe 3b21 d8bd c966 71be
000000a0: 336a 1abe f93c 77be 69cf 8bbd ffda 3c3d
000000b0: d1d8 6dbe 74de 7ebe 92c4 41be a011 cdbd
000000c0: cba3 87bc aa95 adbd 1a27 57bd 3d06 3dbd
000000d0: a4c1 9dbe 646b 8a3b d468 1abb 13fd 25bd
000000e0: fa66 6e3c 0ef7 12bd a211 87bc d8fa d6bd
000000f0: ea35 a5bd ae96 babd 0f8e 2eba 5a7b fc3c

weight f4 [64]
1.0291085 1.1568228 1.2102238 1.0481936 0.98411876 0.9844061 1.0199001 1.251052
0.84911597 0.88795185 1.0200063 0.94276977 0.85116374 1.0412917 0.99266315 0.86279094
0.97924817 0.8646246 1.0314025 1.0342656 1.1322839 1.2134477 1.0668106 1.2772044
0.90078354 0.9624476 0.97794473 0.9630767 1.1218116 0.9060816 1.0736202 1.1341805
0.89997077 1.2788897 1.107047 0.93830454 0.86713326 0.86955553 0.90814817 1.0047066
1.0433271 0.970481 1.0194409 1.0405234 0.9976342 0.97457385 1.0882714 1.0681175
0.89677197 1.0271072 0.9240633 0.9304396 1.2560762 0.8650741 0.88287234 0.86558074
1.0228376 0.93505895 0.9249511 1.2391751 0.85152 0.95362616 1.0362303 0.86766034
00000000: d4b9 833f c512 943f 9de8 9a3f 352b 863f
00000010: 35ef 7b3f 0a02 7c3f 168c 823f 7922 a03f
00000020: aa5f 593f d050 633f 918f 823f 5c59 713f
00000030: dee5 593f 0c49 853f 2c1f 7e3f dedf 5c3f
00000040: 02b0 7a3f 0a58 5d3f ff04 843f d162 843f
00000050: aeee 903f 4152 9b3f 408d 883f 6f7b a33f
00000060: c099 663f f762 763f 965a 7a3f 328c 763f
00000070: 8697 8f3f f7f4 673f 636c 893f d42c 913f
00000080: 7c64 663f a8b2 a33f b7b3 8d3f ba34 703f
00000090: 72fc 5d3f 319b 5e3f 667c 683f 3a9a 803f
000000a0: be8b 853f 7171 783f 0a7d 823f df2f 853f
000000b0: f464 7f3f ac7d 793f 7a4c 8b3f 13b8 883f
000000c0: d992 653f 4078 833f 6a8f 6c3f 4a31 6e3f
000000d0: 1bc7 a03f 7f75 5d3f ec03 623f b396 5d3f
000000e0: 58ec 823f 0660 6f3f 98c9 6c3f 4a9d 9e3f
000000f0: 37fd 593f d820 743f 32a3 843f fd1e 5e3f

bias f4 [64]
-0.1515473 -0.0844623 -0.15661399 -0.015339462 -0.0073772077 -0.09953383 0.00999296 -0.10693115
-0.006588155 -0.08162895 0.034820393 -0.12658004 -0.10383031 -0.15938084 -0.072368145 -0.038431793
-0.0042253556 -0.049941216 -0.06309032 -0.06910937 -0.16910622 -0.07192236 -0.13144502 -0.06281607
-0.020569159 0.004907479 -0.091473736 -0.056189533 -0.11666444 -0.09740264 -0.051725186 0.005214041
-0.10028262 -0.12074314 -0.05618849 -0.13147677 -0.046200555 -0.09708384 -0.062034905 -0.235609
-0.16509253 -0.2589066 -0.03836901 0.019426124 -0.16962586 -0.21093321 -0.12311436 -0.10732768
-0.028231008 -0.027832732 -0.05515715 -0.042034764 -0.26383713 0.006599006 -0.059613027 -0.040483743
-0.049204946 -0.049693584 0.050738126 -0.09823697 -0.041755676 -0.079191916 -0.061582252 0.006227188
00000000: 372f 1bbe 92fa acbd 6b5f 20be 5e52 7bbc
00000010: 81bc f1bb 65d8 cbbd 83b9 233c b8fe dabd
00000020: 73e1 d7bb 142d a7bd d49f 0e3d 339e 01be
00000030: fca4 d4bd bb34 23be c035 94bd a86a 1dbd
00000040: da74 8abb 298f 4cbd 7f35 81bd 3789 8dbd
00000050: 2e2a 2dbe 084c 93bd 8699 06be b6a5 80bd
00000060: a780 a8bc ebce a03b 9556 bbbd ff26 66bd
00000070: c4ed eebd 097b c7bd cadd 53bd 8cda aa3b
00000080: f960 cdbd 2e48 f7bd e725 66bd d9a1 06be
00000090: cb3c 3dbd e4d3 c6bd 5018 7ebd 7c43 71be
000000a0: 040e 29be 688f 84be d328 1dbd 8923 9f3c
000000b0: 67b2 2dbe e0fe 57be 6223 fcbd 9dce dbbd
000000c0: b744 e7bc 7801 e4bc 77ec 61bd a52c 2cbd
000000d0: a915 87be 793c d83b ca2c 74bd 48d2 25bd
000000e0: 208b 49bd 808b 4bbd c8d2 4f3d 7730 c9bd
000000f0: 0008 2bbd 5f2f a2bd ac3d 7cbd 700d cc3b

running_mean f4 [64]
0.0055560563 -0.015186076 -0.0068170885 0.013868229 -0.04207634 0.024953183 -0.00051683886 -0.014676543
0.008463336 -0.012563413 -0.0010825262 0.007787398 0.0013292402 -0.020564232 -0.0035102475 0.008626081
-0.01382387 0.0018450083 -0.010657796 0.0054936605 0.009830331 -0.030630115 0.027922576 -0.018020596
0.005555003 0.03308689 -0.020462314 -0.009432648 -0.011919344 0.0061438605 -0.010415756 0.009708656
-0.016067952 -0.03354497 -0.02271581 0.0046496983 0.019785607 -0.018428957 0.012834305 -0.007956964
0.023784118 -0.008283446 0.008563787 0.010310743 -0.044764414 -0.02888926 -0.01496657 -0.0037234414
0.024120236 0.002042735 0.008814825 0.007497411 -0.004174059 -0.013308327 0.01761677 0.0077992724
-0.009218852 -0.009707568 -0.020832298 -0.011152742 -0.008891515 0.009358922 0.023438584 0.020760657
00000000: 940f b63b 05cf 78bc e261 dfbb 9237 633c
00000010: 3e58 2cbd 9e6a cc3c 787c 07ba e275 70bc
00000020: cea9 0a3c c6d6 4dbc 8de3 8dba 6e2d ff3b
00000030: e639 ae3a 5276 a8bc 2e0c 66bb 6854 0d3c
00000040: 837d 62bc 35d4 f13a 099e 2ebc 2a04 b43b
00000050: 660f 213c 02ec fabc e3bd e43c ee9f 93bc
00000060: be06 b63b 1e86 073d 95a0 a7bc 658b 1abc
00000070: 5a49 43bc 7052 c93b d9a6 2abc 0e11 1f3c
00000080: f0a0 83bc 7366 09bd 8216 babc 7f5c 983b
00000090: 6d15 a23c 53f8 96bc fa46 523c ed5d 02bc
000000a0: e9d6 c23c 4ab7 07bc 204f 0c3c 64ee 283c
000000b0: e45a 37bd 2ba9 ecbc 5836 75bc fb04 74bb
000000c0: cd97 c53c 68df 053b 0e6c 103c d8ac f53b
000000d0: 8bc6 88bb 2b0b 5abc 0b51 903c 0a91 ff3b
000000e0: ab0a 17bc 7e0c 1fbc 7fa8 aabc feb9 36bc
000000f0: b8ad 11bc 2a56 193c 4602 c03c 4112 aa3c

running_var f4 [64]
0.9121086 0.9226569 0.9107449 0.90693563 0.9225373 0.9112155 0.9147015 0.91062224
0.90775555 0.9094183 0.90472835 0.9068347 0.90954727 0.9148699 0.9238432 0.9139703
0.9053352 0.9032157 0.90648764 0.9058487 0.90565616 0.905084 0.9188757 0.9115619
0.91010064 0.9162789 0.9091414 0.9150732 0.90410185 0.9086132 0.9091434 0.90714073
0.90575314 0.9139858 0.90737885 0.9058741 0.91005 0.9134324 0.9072319 0.90943366
0.91433793 0.9047721 0.9080499 0.9041304 0.91681004 0.90468097 0.90614027 0.9079497
0.9066409 0.90646815 0.9027488 0.9057075 0.912773 0.9069183 0.9083715 0.90802664
0.91947407 0.9093237 0.91240805 0.9072928 0.9035373 0.90499324 0.90477395 0.90508026
00000000: f37f 693f 3e33 6c3f 9426 693f ef2c 683f
00000010: 682b 6c3f 6b45 693f e129 6a3f 8a1e 693f
00000020: ab62 683f a3cf 683f 479c 673f 5226 683f
00000030: 17d8 683f ea34 6a3f fd80 6c3f f5f9 693f
00000040: 0cc4 673f 2539 673f 930f 683f b3e5 673f
00000050: 15d9 673f 96b3 673f 703b 6b3f 1f5c 693f
00000060: 5bfc 683f 4191 6a3f 7ebd 683f 3d42 6a3f
00000070: 3873 673f e09a 683f 9fbd 683f 603a 683f
00000080: 70df 673f f9fa 693f fb49 683f 5de7 673f
00000090: 09f9 683f b5d6 693f 5a40 683f a5d0 683f
000000a0: 0d12 6a3f 259f 673f f575 683f 1775 673f
000000b0: 10b4 6a3f 2c99 673f cff8 673f 646f 683f
000000c0: 9e19 683f 4c0e 683f 8c1a 673f 72dc 673f
000000d0: 7eab 693f cc2b 683f 098b 683f 6f74 683f
000000e0: a762 6b3f 70c9 683f 9393 693f 5744 683f
000000f0: 384e 673f a3ad 673f 449f 673f 57b3 673f

weight f4 [32, 64, 2, 3]
-0.29474658 -0.30400714 -0.07830435 0.15503392 -0.016892906 -0.16900545 -0.14831479 0.021242997
0.15535994 0.1281106 -0.05061526 -0.031136042 -0.08961494 -0.004871098 0.11880311 0.10016151
-0.0067861537 -0.02212237 -0.17328665 -0.13787998 -0.21370545 -0.21098018 0.073590785 0.028093878
-0.030543989 -0.13909434 0.0024571137 -0.02422118 0.044896405 -0.16587298 -0.13004106 -0.16059726
-0.10616248 -0.052175906 -0.048536357 -0.09013304 -0.05177611 -0.02237652 0.016964387 -0.19492146
-0.16354172 -0.074053325 0.044912655 0.22048707 -0.075323395 -0.2657962 -0.07979824 0.029325567
0.039455272 0.040360704 -0.20920427 0.10239358 0.10175007 0.06653996 0.05711698 0.018261388
-0.27374056 0.10371525 0.13886532 0.023290701 -0.009221068 -0.06430562 0.09110194 -0.24474677
0.062316854 0.00787889 -0.053839486 0.06854197 0.0822002 -0.08512379 0.031621564 -0.18063419
-0.21383274 0.22102104 -0.054938875 -0.1094141 -0.13166404 -0.13859491 0.25042796 0.061304152
-0.019378003 -0.096200876 -0.17219405 -0.04054966 -0.18979482 0.0658985 -0.08806464 -0.05797701
-0.017893465 -0.009930263 -0.09503551 -0.11231842 0.080738336 -0.08839512 0.0021102556 -0.0027518678
0.17469653 0.08333192 0.25180686 0.0073951366 -0.12582432 0.12623689 0.041824795 -0.0031060914
-0.06449605 0.002106647 0.06389206 0.0478833 -0.027205406 0.058422618 0.017242152 -0.04506669
0.07774181 0.025075914 -0.048933137 0.10187392 0.05266732 -0.10373342 -0.14463288 -0.000192004
-0.31845644 0.09911182 -0.016643295 -0.134089 0.0050217956 -0.032484144 -0.09848066 0.06421453
0.001158032 0.054871596 0.029198602 -0.1500218 -0.23485416 0.018838603 0.011562664 -0.19976144
-0.10635432 0.07307648 0.21505792 0.049474776 -0.0547034 -0.20819415 0.08475337 0.044594236
0.021107096 -0.020531235 -0.05577136 0.07885944 -0.08313138 -0.00072450534 -0.1145253 -0.11394441
0.16203368 0.21447012 0.006328197 -0.09327535 0.086793974 0.040727783 0.28574115 -0.064771235
0.060554404 0.008351179 -0.050939627 0.02200322 0.028392188 -0.047219027 0.1257934 -0.07339644
0.006076627 -0.040461592 0.0151121225 -0.009270765 0.032458443 -0.021729099 0.092089765 0.055776104
0.036557045 0.024630163 -0.016837927 -0.20930523 -0.098109916 0.12523504 -0.0254537 -0.08824245
-0.038948644 0.021750616 0.010038663 0.086521715 0.043768022 0.0098872995 -0.13414463 0.032502156
0.09352247 0.20203587 -0.042424724 -0.1596809 -0.043659568 0.11943856 0.024193037 0.07407637
0.11234763 -0.031110294 -0.012064575 -0.036905546 0.0006122861 0.004600959 -0.08999727 -0.25727373
0.10652229 -0.17008637 0.07688092 -0.017499553 0.04013946 0.060502425 -0.1459605 0.047021136
0.021957895 0.13569386 0.21075541 0.12029666 0.049207307 0.105239965 0.18532774 0.079073094
0.24224378 0.008063263 0.05235449 0.12288113 -0.08645556 0.0016159867 0.08435931 0.039211866
-0.0299407 0.141095 -0.033599515 0.16843177 0.18723601 0.13150889 0.08853707 -0.017529076
-0.019072061 -0.06723164 -0.19198197 -0.10970503 -0.03384366 -0.08703025 -0.015203174 0.017692348
-0.07119165 0.016872305 0.06818314 0.18324424 -0.032785527 -0.1462592 -0.017542973 -0.046203434
00000000: 06e9 96be d3a6 9bbe 085e a0bd 36c1 1e3e
00000010: fe62 8abc c40f 2dbe d5df 17be cb05 ae3c
00000020: ad16 1f3e 6d2f 033e f251 4fbd 0311 ffbc
00000030: 0a88 b7bd bb9d 9fbb 0c4f f33d 7a21 cd3d
00000040: 625e debb f939 b5bc 0e72 31be 6930 0dbe
00000050: 9ad5 5abe 300b 58be c4b6 963d 2225 e63c
00000060: 6337 fabc bf6e 0ebe 8707 213b 7f6b c6bc
00000070: 4be5 373d 9bda 29be 7c29 05be 9c73 24be
00000080: b76b d9bd 67b6 55bd 0fce 46bd ac97 b8bd
00000090: 3013 54bd f74e b7bc e6f8 8a3c 7e99 47be
000000a0: 7b77 27be 45a9 97bd 55f6 373d 5dc7 613e
000000b0: 2743 9abd 7116 88be 426d a3bd 2c3c f03c
000000c0: da9b 213d 4451 253d a539 56be bab3 d13d
000000d0: 5762 d03d 1a46 883d 7ff3 693d e898 953c
000000e0: b927 8cbe a968 d43d b632 0e3e 24cc be3c
000000f0: f613 17bc aab2 83bd a793 ba3d e69e 7abe
00000100: f53f 7f3d 7616 013c cb86 5cbd bb5f 8c3d
00000110: 9458 a83d 6255 aebd 9d85 013d 2bf8 38be
00000120: f8f6 5abe 5753 623e 9607 61bd 8014 e0bd
00000130: f0d2 06be d3eb 0dbe 1838 803e 101a 7b3d
00000140: 9ebe 9ebc f704 c5bd a353 30be 6617 26bd
00000150: 9359 42be cbf5 863d 3c5b b4bd 4d79 6dbd
00000160: 5195 92bc 8bb2 22bc faa1 c2bd 3307 e6bd
00000170: 245a a53d 8008 b5bd 374c 0a3b ae58 34bb
00000180: a6e3 323e eda9 aa3d d4ec 803e e752 f23b
00000190: 17d8 00be 3e44 013e 7a50 2b3d 918f 4bbb
000001a0: 8116 84bd ac0f 0a3b d7d9 823d 4721 443d
000001b0: dfdd debc 8e4c 6f3d 6a3f 8d3c d997 38bd
000001c0: 1937 9f3d 016c cd3c 1d6e 48bd 46a3 d03d
000001d0: b0b9 573d 3072 d4bd a41a 14be ae54 49b9
000001e0: b90c a3be 23fb ca3d 8557 88bc a04e 09be
000001f0: e08d a43b 180e 05bd 3ab0 c9bd e882 833d
00000200: 1bc9 973a 0ac1 603d e831 ef3c 519f 19be
00000210: 9c7d 70be 6a53 9a3c 5471 3d3c 438e 4cbe
00000220: 4bd0 d9bd 1fa9 953d 2538 5c3e 10a6 4a3d
00000230: ac10 60bd d930 55be 2d93 ad3d 72a8 363d
00000240: cae8 ac3c 1f31 a8bc 8270 64bd 0f81 a13d
00000250: c940 aabd bbec 3dba 3e8c eabd b05b e9bd
00000260: 28ec 253e 0e9e 5b3e c45c cf3b 2607 bfbd
00000270: 0ac1 b13d 2dd2 263d aa4c 923e c8a6 84bd
00000280: e507 783d 62d3 083c 12a6 50bd 1940 b43c
00000290: bc96 e83c bd68 41bd fccf 003e df50 96bd
000002a0: 711e c73b 0ebb 25bd d698 773c 68e4 17bc
000002b0: 25f3 043d 3901 b2bc 8f99 bc3d 7c75 643d
000002c0: d7bc 153d 32c5 c93c b1ef 89bc 1c54 56be
000002d0: daed c8bd 9d3d 003e 4784 d0bc 75b8 b4bd
000002e0: 9d88 1fbd 592e b23c 3479 243c 4c32 b13d
000002f0: 1946 333d 57fe 213c 365d 09be fb20 053d
00000300: b588 bf3d 7ee2 4e3e 8cc5 2dbd 6483 23be
00000310: 60d4 32bd 349c f43d 7a30 c63c 5ab5 973d
00000320: 8416 e63d 04db febc 7faa 45bc 452a 17bd
00000330: d381 203a a4c3 963b 7d50 b8bd 62b9 83be
00000340: 5c28 da3d 1f2b 2ebe be73 9d3d 395b 8fbc
00000350: 4669 243d 64d1 773d ab76 15be 3c99 403d
00000360: 0be1 b33c 55f3 0a3e 44d0 573e 185e f63d
00000370: 9a8d 493d 0d88 d73d 8ec6 3d3e 13f1 a13d
00000380: c10e 783e c71b 043c a971 563d 1aa9 fb3d
00000390: 9d0f b1bd 84cf d33a 93c4 ac3d 9f9c 203d
000003a0: 3346 f5bc 357b 103e a59f 09bd 6179 2c3e
000003b0: ccba 3f3e 44aa 063e ec52 b53d 2399 8fbc
000003c0: 033d 9cbc beb0 89bd ec96 44be 08ad e0bd
000003d0: a69f 0abd ea3c b2bd bc16 79bc 8bef 903c
000003e0: eecc 91bd ca37 8a3c 9aa3 8b3d 61a4 3b3e
000003f0: 1e4a 06bd f9c4 15be 48b6 8fbc d03f 3dbd

bias f4 [32]
-0.01312186 -0.10618954 -0.15275984 -0.011721045 0.030356506 0.016553583 -0.074551016 -0.0447046
-0.038209848 -0.07187126 0.08098702 -0.14238714 -0.03173946 -0.019078327 -0.15780522 -0.17227037
-0.16452114 -0.039737813 0.0039217495 -0.040607322 -0.054945808 -0.054913968 -0.13011251 -0.108155586
0.0486104 -0.095280446 -0.21467884 -0.042675667 -0.039779413 -0.16063778 -0.08392619 -0.019832522
00000000: 12fd 56bc e779 d9bd 136d 1cbe a009 40bc
00000010: 35ae f83c 619b 873c 34ae 98bd 2c1c 37bd
00000020: ee81 1cbd 3d31 93bd 86dc a53d efcd 11be
00000030: 3c01 02bd 274a 9cbc b197 21be a567 30be
00000040: 3b78 28be 1ec4 22bd 0582 803b dd53 26bd
00000050: db0e 61bd 78ed 60bd 373c 05be ad80 ddbd
00000060: b31b 473d 6522 c3bd c5d4 5bbe aecc 2ebd
00000070: bdef 22bd 3b7e 24be 7fe1 abbd d077 a2bc

weight f4 [32]
0.9131691 0.684958 1.1548364 0.6477234 0.77467537 1.0564425 1.3531147 0.5997635
0.6595463 1.5045267 0.8636396 0.8268859 0.67285085 1.0037363 0.8765609 0.8667712
0.77505755 0.6473093 0.9262386 0.81988823 0.9742581 1.0160137 1.3172251 0.95681113
1.1916287 0.8144413 0.8059895 1.1044732 1.1922976 0.9479762 1.1703168 0.77495134
00000000: 73c5 693f 6859 2f3f aed1 933f 33d1 253f
00000010: 2051 463f 8239 873f dd32 ad3f 1a8a 193f
00000020: 07d8 283f 5594 c03f 7c17 5d3f cbae 533f
00000030: f43f 2c3f 6e7a 803f 4c66 603f b8e4 5d3f
00000040: 2c6a 463f 10b6 253f f91d 6d3f 32e4 513f
00000050: fb68 793f bd0c 823f d59a a83f 93f1 743f
00000060: 4a87 983f 3a7f 503f 5455 4e3f 615f 8d3f
00000070: 359d 983f 91ae 723f f1cc 953f 3663 463f

bias f4 [32]
0.03714053 -0.07118089 -0.10439326 -0.044900846 -0.016091276 -0.000789806 -0.09455284 -0.07114936
-0.07623222 -0.05242156 0.08957008 -0.10500751 -0.061571874 -0.047668878 -0.11432488 -0.1369294
-0.19264752 0.002795703 0.0072059594 -0.06513948 -0.011305735 -0.07006735 -0.10033913 -0.11985578
0.008931214 -0.06636183 -0.16783275 0.001342187 -0.031653225 -0.12885384 -0.04002558 -0.051892355
00000000: ab20 183d 49c7 91bd 22cc d5bd f3e9 37bd
00000010: dad1 83bc fc0a 4fba eba4 c1bd c1b6 91bd
00000020: a31f 9cbd fdb7 56bd 8570 b73d 2d0e d7bd
00000030: ca32 7cbd 7140 43bd 2a23 eabd 3837 0cbe
00000040: 6445 45be 1d38 373b f81f ec3b d967 85bd
00000050: b13b 39bc 797f 8fbd 9a7e cdbd f276 f5bd
00000060: 3a54 123c b6e8 87bd 59dc 2bbe 53ec af3a
00000070: d0a6 01bd 43f2 03be ddf1 23bd 148d 54bd

running_mean f4 [32]
0.0028189379 0.027061298 -0.03372429 -0.024493914 0.005922408 0.0055166045 -0.012598592 0.0022924065
0.015864957 -0.0015760029 -0.011322862 -0.053958498 -0.008711013 0.017583035 -0.039467342 -0.003391286
-0.0114032095 -0.046443548 0.015754078 0.008551993 -0.018571122 -0.028946873 -0.03270926 0.0074397945
0.018401371 -0.017195718 0.015691908 -0.025487464 -0.023223657 0.0056544496 0.018275134 -0.02806789
00000000: eebd 383b a8af dd3c 7b22 0abd 76a7 c8bc
00000010: c210 c23b a2c4 b43b 536a 4ebc 333c 163b
00000020: 3af7 813c e291 ceba 8683 39bc 9603 5dbd
00000030: a3b8 0ebc 4c0a 903c 82a8 21bd 5640 5ebb
00000040: 87d4 3abc 973b 3ebd b20e 813c a91d 0c3c
00000050: 7722 98bc fe21 edbc 25fa 05bd 85c9 f33b
00000060: 79be 963c 09de 8cbc 518c 803c 16cb d0bc
00000070: 8a3f bebc f648 b93b bcb5 953c a2ee e5bc

running_var f4 [32]
0.9132485 0.91360444 0.9161702 0.9164485 0.93764716 0.91395646 0.91892165 0.9140807
0.91301566 0.91233224 0.9162433 0.91975474 0.9104217 0.9077211 0.9190839 0.9160959
0.9087715 0.91479254 0.91765684 0.9144103 0.9068644 0.93732893 0.91035813 0.91083765
0.90963185 0.9235928 0.92186296 0.91185987 0.9092466 0.91176087 0.9086223 0.9275632
00000000: a7ca 693f fbe1 693f 218a 6a3f 5e9c 6a3f
00000010: a509 703f 0df9 693f 733e 6b3f 3101 6a3f
00000020: 65bb 693f 9b8e 693f ec8e 6a3f 0c75 6b3f
00000030: 6611 693f 6960 683f 1549 6b3f 4385 6a3f
00000040: 40a5 683f d82f 6a3f 8feb 6a3f cb16 6a3f
00000050: 4428 683f caf4 6f3f 3b0d 693f a82c 693f
00000060: a2dd 683f 9470 6c3f 36ff 6b3f a66f 693f
00000070: 63c4 683f 2969 693f 799b 683f c874 6d3f

weight f4 [4, 576]
0.049547847 0.02261712 -0.031422876 0.059557814 0.1525664 0.0901639 0.19211456 0.2283773
0.22408791 0.14563054 0.13753906 0.27496052 0.16145872 0.12939851 0.13776119 0.22294722
0.1214421 0.08438466 0.26469588 0.13284652 0.14843789 0.052024305 0.16707839 0.22257954
0.16257052 0.13480623 0.1303229 0.10159284 0.10480616 0.01873624 0.17178562 0.10514084
0.16548634 0.16473386 0.14388737 0.09421443 0.08017668 0.06210195 0.08674959 0.07057482
-0.031986494 0.007835131 -0.0902287 0.09593587 0.0625476 -0.024860442 -0.016064884 0.03786053
-0.23150697 0.010865548 0.05035355 -0.06370146 0.11607386 0.07804237 0.07575037 -0.03755161
0.066516586 0.10378302 0.09311714 0.05247347 0.09424284 0.16673505 0.06094126 0.0979398
0.10129938 0.0785821 0.11298489 0.14137802 0.15803696 0.037627213 0.39454627 0.39181188
0.024889091 -0.40387958 0.0020970297 -0.06991599 -0.055454575 -0.058963414 0.033809435 -0.023864673
0.052620772 -0.008128307 0.03709247 -0.031866156 -0.040787898 -0.07720116 -0.08740031 -0.10449208
0.016588598 -0.10758116 -0.27740866 -0.8910349 0.09752975 -0.014334812 0.055095326 0.00056015234
0.062525995 -0.06498923 0.06224371 -0.038093884 0.061670117 -0.03439615 0.07488071 -0.024163634
-0.016452514 -0.08389385 0.069389634 -0.06938751 -0.05488168 -0.02283612 -0.03156045 -0.0144104
-0.021602796 -0.031196363 -0.033029165 -0.04151352 -0.02698786 -0.023747498 -0.054441635 -0.023710988
-0.07418742 -0.017686402 -0.055762846 -0.016699722 -0.043783285 0.01298868 0.49128854 0.23243949
0.28505874 0.1258973 0.2103449 0.22631432 0.20586404 0.22548789 0.2682778 0.21709591
0.2947598 0.18739109 0.22414136 0.15163632 0.22841905 0.1553103 0.38357675 0.33245343
0.15764937 0.26687 0.14338791 0.18698278 0.106654204 0.18478474 0.11642428 0.13786548
0.12950534 0.16967307 0.13213186 0.18464863 0.10036871 0.17195551 0.11001545 0.18050724
0.28498146 0.3843387 -0.091410056 -0.21050942 -0.09029029 -0.09462856 -0.062273003 -0.10240073
-0.091972925 -0.12729959 -0.10535741 -0.06988346 -0.06822171 -0.12556393 -0.072195925 -0.08810453
-0.10949724 -0.11785075 -0.14276832 -0.07033081 0.08473495 0.15717798 0.050180614 0.13328631
0.035794202 0.0956823 0.0060167974 0.06968902 0.015567257 0.0562649 0.017755406 0.02041095
0.062001783 0.08511182 0.05209236 0.1034054 0.04116774 0.08467979 -0.01723629 0.24767502
0.1342508 0.3818998 0.044585686 0.2797899 0.16406031 0.24016975 0.13852356 0.1125187
0.16302292 0.2649536 0.16510038 0.19482486 0.27580285 0.3735595 0.084976956 0.14596224
0.30113977 0.130514 -0.044130806 0.07963831 -0.07783738 0.057513 0.020033168 0.030702522
0.015480924 0.003024305 0.021135937 0.022198584 -0.019450272 0.028502176 0.1276921 0.03654522
0.05094165 0.11262692 -0.10792482 0.004381044 -0.082452916 -0.038090523 -0.07969043 -0.040410154
-0.067685954 -0.022744877 -0.07965404 -0.01107469 -0.077990875 -0.0015082783 -0.06828226 0.002500014
-0.10280135 -0.007636887 -0.095955364 -0.0014648043 -0.39853877 -0.05732364 -0.12528953 0.054166943
00000000: aff2 4a3d 8a47 b93c 46b5 00bd e5f2 733d
00000010: 5e3a 1c3e daa7 b83d aeb9 443e bddb 693e
00000020: 4d77 653e 2c20 153e 0ad7 0c3e a0c7 8c3e
00000030: 6f55 253e 0b81 043e 4511 0d3e 474c 643e
00000040: a3b6 f83d ddd1 ac3d 3886 873e eb08 083e
00000050: 1a00 183e 7017 553d 9916 2b3e e4eb 633e
00000060: e378 263e a50a 0a3e 5e73 053e e80f d03d
00000070: 9da4 d63d be7c 993c 92e8 2f3e 1554 d73d
00000080: 4075 293e feaf 283e 3657 133e 7ff3 c03d
00000090: ac33 a43d 9d5e 7e3d c5a9 b13d 8889 903d
000000a0: 4504 03bd ec5e 003c d3c9 b8bd 077a c43d
000000b0: f518 803d 20a8 cbbc 819a 83bc a513 1b3d
000000c0: 2a10 6dbe 6905 323c 863f 4e3d e975 82bd
000000d0: 22b8 ed3d aed4 9f3d 0323 9b3d b8cf 19bd
000000e0: d939 883d 318c d43d 33b4 be3d 6cee 563d
000000f0: 6402 c13d 98bc 2a3e 8b9d 793d a994 c83d
00000100: 0d76 cf3d a7ef a03d 9f64 e73d 66c5 103e
00000110: 71d4 213e fe1e 1a3d f801 ca3e 919b c83e
00000120: 35e4 cb3c 4ec9 cebe 526e 093b 1d30 8fbd
00000130: 5624 63bd 9f83 71bd c37b 0a3d d97f c3bc
00000140: e188 573d 972c 05bc 46ee 173d 1686 02bd
00000150: 3611 27bd a41b 9ebd effe b2bd f2ff d5bd
00000160: d0e4 873c 8353 dcbd 8208 8ebe dd1a 64bf
00000170: adbd c73d 8fdc 6abc a3ab 613d 30d7 123a
00000180: a10d 803d 1319 85bd 43f3 7e3d 5508 1cbd
00000190: ce99 7c3d fae2 0cbd 0f5b 993d d0f2 c5bc
000001a0: 6cc7 86bc 8ad0 abbd 271c 8e3d 0a1b 8ebd
000001b0: 9dcb 60bd d112 bbbc 8845 01bd 9919 6cbc
000001c0: 59f8 b0bc 848f ffbc 9749 07bd 150a 2abd
000001d0: a515 ddbc 1d8a c2bc 31fe 5ebd 8c3d c2bc
000001e0: 93ef 97bd 13e3 90bc 9567 64bd dbcd 88bc
000001f0: 1a56 33bd 79ce 543c 2c8a fb3e 9e04 6e3e
00000200: 38f3 913e 39eb 003e a764 573e f1be 673e
00000210: 06ce 523e 4ce6 663e b55b 893e 644e 5e3e
00000220: c2ea 963e 73e3 3f3e 5085 653e 8d46 1b3e
00000230: afe6 693e aa09 1f3e 2c64 c43e 5637 aa3e
00000240: d66e 213e 2fa3 883e 48d4 123e 6a78 3f3e
00000250: 856d da3d 3638 3d3e da6f ee3d 9c2c 0d3e
00000260: 0c9d 043e c7be 2d3e 934d 073e 8814 3d3e
00000270: 1c8e cd3d 1b15 303e c84f e13d e4d6 383e
00000280: 17e9 913e 0bc8 c43e 3235 bbbd c88f 57be
00000290: 1eea b8bd 9ecc c1bd fa11 7fbd 79b7 d1bd
000002a0: 4d5c bcbd d35a 02be a0c5 d7bd 0f1f 8fbd
000002b0: d3b7 8bbd d593 00be 75db 93bd 2670 b4bd
000002c0: 1740 e0bd bc5b f1bd dc31 12be 9a09 90bd
000002d0: 8489 ad3d 44f3 203e 308a 4d3d 357c 083e
000002e0: f19c 123d 15f5 c33d 8e28 c53b 1eb9 8e3d
000002f0: cf0d 7f3c 0676 663d c973 913c dd34 a73c
00000300: 95f5 7d3d 1b4f ae3d cc5e 553d 36c6 d33d
00000310: 819f 283d 996c ad3d 1f33 8dbc 859e 7d3e
00000320: 0b79 093e 5f88 c33e 7b9f 363d 9f40 8f3e
00000330: 6dff 273e 0fef 753e 1fd9 0d3e 3470 e63d
00000340: 7bef 263e 00a8 873e 1310 293e 2b80 473e
00000350: 0836 8d3e 3143 bf3e 6608 ae3d 2077 153e
00000360: fe2e 9a3e 76a5 053e 81c2 34bd 6919 a33d
00000370: 3469 9fbd c092 6b3d 991c a43c db83 fb3c
00000380: b4a3 7d3c 6b33 463b 4625 ad3c ced9 b53c
00000390: 2d56 9fbc 657d e93c b8c1 023e 71b0 153d
000003a0: 31a8 503d f1a8 e63d b007 ddbd dc8e 8f3b
000003b0: 13dd a8bd cf04 1cbd bc34 a3bd 1e85 25bd
000003c0: ef9e 8abd 7753 babc a821 a3bd 9e72 35bc
000003d0: aeb9 9fbd 6cb1 c5ba 92d7 8bbd 46d7 233b
000003e0: 8489 d2bd da3e fabb 3f84 c4bd adfe bfba
000003f0: 460d ccbe 31cc 6abd e64b 00be 28de 5d3d

bias f4 [4]
0.1878597 0.19350149 0.18441743 0.17618677
00000000: 4b5e 403e 4125 463e ecd7 3c3e 4e6a 343e
